checkpoint_actor.pth (torch_old, 553523 bytes, 14 tensors)

fc1.weight f4 [400, 33]
00000000: 45e3 6c3d 862e 00bf 4a41 8dbc 6422 243e
00000010: 585f 9b3c fa79 10be f3d0 9bbe e93f c3bd
00000020: fd38 533e 9901 51bd 11e7 16bc a5fe cbbd
00000030: eda6 c3bd 0976 aebd 346d b5be 3760 c43d
00000040: 62ea be3d 0322 cfbd 2c5e 81be d61a ebbd
00000050: 4d63 eebc e80f 763d 3b46 973c 9585 053d
00000060: 3e18 81bd 117f fa3d 2a86 19be ae9d 9a3b
00000070: 574a bbbc 5219 a63c 0bba 1cbd 643b 85bc
00000080: ec88 343e a46c 843d 6b28 1abf 9518 3bbe
00000090: 89ec 073e abda 893e de12 353e d056 983c
000000a0: ae8c 333d 4291 bb3b a567 8ebb 8130 7abd
000000b0: 5e93 443e f58f a2bd 79d0 dd3c d682 12be
000000c0: 2bca cebd e251 8bbe 7356 70bd 74f3 a93d
000000d0: b33b c5bd da88 20bd ea09 55be ab9f bfbc
000000e0: f41f 22bc c329 983d 35fa 043e 7db8 eb3c
000000f0: bddc 49bc 345c 683d c3e2 053d 756b 963c
00000100: 0083 d439 c788 17be bd80 073e f569 853e
00000110: 5ad3 a1be fddd 3cbe f506 173e bf59 91be
00000120: e174 75be 02de 193d 0a1d 183e 554e 213d
00000130: 7ba4 5fbd 9e36 263e d04b b9ba 99e6 07be
00000140: 5d1d 903e 77e0 0b3e d1f2 c73d 8f8c 5e3d
00000150: 7978 01be 0f69 ac3d 3520 2dbd c34d 9a3c
00000160: e033 2abb df9a fa3d 95bd 48bd 51ea 7d3c
00000170: 0267 76bc ca8f b3bc de82 973d b922 323d
00000180: cf95 6fbb 20f2 37bb 72de 883e d577 343e
00000190: 4eee 8e3e 07d3 0f3d b525 fcbc d169 a53d
000001a0: f84c 363e 15ed 2fbd 6168 57bd 0e9b bebc
000001b0: 075e 713b bca7 0c3d 9514 8b3d 1e56 96bd
000001c0: 4255 a2be 524a 98bd c5f6 cabd 637f 51bd
000001d0: 4131 973d ba70 9ebd 7ca0 f03d a7a9 efbb
000001e0: 6f00 383d 21f8 253b 3595 f2bc af64 84bb
000001f0: 11f2 2abd baac 543e ff37 5bbc 8a21 5f3d
00000200: ce04 b43c 3a48 24bd 3006 ffbb 3a84 2d3e
00000210: d647 fc3e 4654 40bd 497c 64be 53bb 3b3d
00000220: 5396 283e 1c56 83be c205 4b3c 5ca1 2ebe
00000230: 3d67 04be ac32 4fbd f336 0c3d faab bebd
00000240: 94a8 213d 5c53 ed3c 32bb 35be 8685 11be
00000250: b420 2f3e 5ca8 c0bc 2599 313d dfb4 053e
00000260: c501 30bd d9cf 09bc 50f4 883c d6eb 833d
00000270: 4475 7abb a8ad 913a 8f72 82bd 27ab 443d
00000280: dd32 fd3d dc67 97bc d3fc c63c a132 273d
00000290: 0864 2f3d 3777 adbd ca41 bebd ecea babe
000002a0: 31d1 2a3c a823 27bd 0d69 c63d 460e b8be
000002b0: 3dc7 50bd fa98 1d3e 3f99 7b3d 6143 8fbd
000002c0: b41d 953b 9d77 273e 0b7f de3d 672c 17be
000002d0: dd7e 9a3d 44c2 20be bf9b 013d 3795 573d
000002e0: b8fd 54bd 84e0 093e 4e0d 96bb 4c7a 953d
000002f0: cb7a fd3d 6769 55be e0da 223e c70a 123e
00000300: 546c 4bbd a2b9 c0ba d746 063d 5e6a dabc
00000310: 0730 e3bc 1e9a 1b3d 68c3 db3d 60ee 083b
00000320: 7af4 45be bacb b8bd b9de 323e 69cc f9bc
00000330: ab8e 9dbe a042 6e3d 1815 c93d a1e0 e33d
00000340: adb9 463e 9907 49bd cb06 72be 400d a43b
00000350: d851 e33d eac7 c7bd 5de8 79be 7c51 153d
00000360: 61db ca3c f1ee 16bd 1734 ef3c e0ed 373c
00000370: 3509 063e 3d32 d6bd a6a7 8f3d 4cac 923e
00000380: 3ce7 823c e54c a13c 77bb 163e 40c2 f23a
00000390: fa0b 243c 384e 2cbd b613 7c3b ad2d 553e
000003a0: de8c f83e e404 cf3d 73af c43c a92a 1cbc
000003b0: e0df 1bbe 200e f93d d254 b73a f093 dabd
000003c0: 8952 283e 9ac7 0a3e b445 bebd a2dc 9abc
000003d0: aa35 5d3e d7bc 91be bfdf bb3c fb1b 5b3d
000003e0: 13dd 2abb 520a 8b3d fee6 0d3d 5ab5 773d
000003f0: b3c3 5cbd c35c a43d a1f5 d23d 7a43 98bd
0.05783393 -0.5007099 -0.017243046 0.16028744 0.018966362 -0.1410903 -0.30432853 -0.09533674
0.20627208 -0.051026914 -0.009210364 -0.09960679 -0.09553323 -0.08518607 -0.35434878 0.09588664
0.09322049 -0.10113909 -0.2526716 -0.11479728 -0.029100085 0.060073763 0.018466106 0.032598097
-0.06303452 0.12231267 -0.14992586 0.004718504 -0.022862596 0.020275746 -0.038263362 -0.016263671
0.17630357 0.06466034 -0.6021792 -0.18271096 0.13273825 0.26924643 0.17682979 0.018596083
0.043835334 0.005724103 -0.0043458515 -0.061081413 0.19196841 -0.07937614 0.027076947 -0.14307722
-0.10097154 -0.2721091 -0.058676194 0.08298388 -0.09630527 -0.03919301 -0.20804563 -0.023391565
-0.0098953135 0.074298404 0.12986071 0.028774494 -0.0123206945 0.056728557 0.03268696 0.018361786
0.00040533394 -0.1479827 0.13232704 0.260574 -0.3160656 -0.18444057 0.14748748 -0.28388783
-0.23970367 0.03756524 0.14854828 0.039381344 -0.05460022 0.16231772 -0.0014136974 -0.1327156
0.28147402 0.13659845 0.097631104 0.054333266 -0.12643613 0.08418476 -0.042267043 0.018835908
-0.0025970861 0.122365706 -0.049008925 0.01549776 -0.015039207 -0.02191915 0.07398008 0.043490145
-0.0036557799 -0.0028067902 0.26732212 0.17623837 0.27916187 0.03511336 -0.030779699 0.080768235
0.17802799 -0.04295071 -0.052589778 -0.023267295 0.0036829726 0.03433965 0.06791035 -0.07340644
-0.31705672 -0.074360505 -0.09910349 -0.051146876 0.07382441 -0.07736345 0.1174936 -0.0073139253
0.04492229 0.0025324898 -0.029612163 -0.0040403227 -0.04173476 0.20769015 -0.01338005 0.054475345
0.021974947 -0.040107943 -0.00778272 0.16944972 0.49273556 -0.04695537 -0.22313036 0.045832943
0.16463594 -0.25651634 0.0123915095 -0.17053741 -0.12930007 -0.050585434 0.03423209 -0.09310146
0.03946741 0.028970413 -0.1774719 -0.14211091 0.17102319 -0.02351778 0.04335894 0.13057278
-0.042970438 -0.008411371 0.01671806 0.064414665 -0.0038216868 0.0011114376 -0.063695066 0.048014786
0.12363217 -0.018482141 0.024290478 0.040819768 0.042820007 -0.08470004 -0.09289892 -0.36507356
0.010425852 -0.04080549 0.096880056 -0.3594839 -0.05097126 0.15390387 0.061425444 -0.069952734
0.00455066 0.16354223 0.10864075 -0.14763032 0.075437285 -0.15699106 0.03164267 0.052632537
-0.051999778 0.13464552 -0.0045792228 0.07298717 0.123769365 -0.20840989 0.15903807 0.14261924
-0.049663857 -0.001470376 0.032782402 -0.026662048 -0.027732862 0.037988774 0.1073063 0.0020894036
-0.19331542 -0.09023233 0.17467774 -0.030492978 -0.3077291 0.058169007 0.098184764 0.11126829
0.19406767 -0.04907951 -0.23635404 0.0050064623 0.11099595 -0.097549275 -0.24405046 0.036454663
0.024762811 -0.036848966 0.029199643 0.011226147 0.1308945 -0.10458801 0.07014398 0.28647077
0.015979402 0.019689986 0.1471995 0.0018521026 0.010012621 -0.042066783 0.0038463897 0.20818205
0.48544973 0.10108355 0.024009442 -0.009531655 -0.1522212 0.12160897 0.001398707 -0.10672748
0.16437735 0.13552704 -0.092906386 -0.018904034 0.21602502 -0.28464386 0.022933839 0.05349348
-0.0026071712 0.06789078 0.03464412 0.060475685 -0.05389757 0.080255054 0.10300756 -0.07434745

fc1.bias f4 [400]
00000000: 8c8d cc3c a305 2a3e 49ef 7b3d 8ca7 c93d
00000010: 20dd 903d 19c7 5fbd fc29 2a3d 44b4 f6bd
00000020: e083 243e d9de 233c 773f 0a3e 9465 fabd
00000030: 2cd2 23be 3fbd aa3c 0f4a b6bc cd5c 90bd
00000040: 1acd ba3d 03d8 e7bd e12e 1c3e c8f6 2dbe
00000050: 3150 123d 2877 d0bd 67db 1a3d 070b 303e
00000060: 5c98 a9bc 9059 253d c3e8 8cbd e03b b7bd
00000070: f83b 18be edce cd3d 0c9c 02bb 91e3 763d
00000080: 6553 09be b766 14be bb21 22be d267 cdbd
00000090: a3c5 b9bc 0a92 d8bc 6de9 9c3d 9667 abbd
000000a0: dac1 2d3e 0c8f a2bd fd94 27be 1acb 063e
000000b0: 760b e5bd 8e81 883c 67e9 8abc 1da8 14bd
000000c0: 9c50 39b9 a53a 2fbe 253c 203e 7d70 e7bd
000000d0: 355c d93d 27b1 d2bd fa70 2fbd 125e 41bb
000000e0: b787 8cbd 0c64 9abd 6e0a 16be 6bf2 f4bd
000000f0: d598 06bc 015e 50bd 5e98 c8bc 875f 353d
00000100: 932c b9bc 2eba 28be 0703 83bd 650b 5a3d
00000110: fa56 803d cc84 ac3d 62c8 1d3c d526 f43d
00000120: 8a6f f4bd 2978 15be 1c7c 3ebd 6927 9e3a
00000130: dc8d 013e f396 cdbd 39a0 f9bd d85b 9abb
00000140: dc5b 353d 82a3 22be acf8 8fbd c00e 0cbe
00000150: 2d3c 263d 557d 853c 1280 1ebe b95a edbd
00000160: a0f6 033c f3e0 3cbd 84e2 09be efca 57bd
00000170: 5eb5 23be e73a a2bc 1070 a6bc a839 173c
00000180: 319d 723c fb1f f9bc 4d4b 0e3e a837 7fbd
00000190: 6319 a13d 461b 873d 3cce adbc b3ad 02be
000001a0: 9037 16be 3d43 453d 8a04 5a3d c05b d83d
000001b0: 4e65 9dbd c523 103e ce3a 323e b673 e2bc
000001c0: 004e 8bbd ae06 60bd 188a 1abe 807e cd3d
000001d0: d6bf 9b3c 1d31 a43d 1719 e53d e97f 97bd
000001e0: e67d d13a 5d29 103e 4273 09be 3aa8 1c3e
000001f0: 015f b93d 19e2 5fbd 0ff1 10be 41cd bd3d
00000200: 7c24 aa3d 9677 a1bd 8a24 aa3d 0d70 533d
00000210: 6766 2f3e 2d49 b63d 2c35 dc3c 4c6e 30be
00000220: e90e 113e 7612 193e 2161 45bd 4732 5ebc
00000230: 3410 cdbb dfb8 2ebc accc c13d a6da be3c
00000240: f72b 1bbe 56d1 653d baff dabd eb6a 4b3d
00000250: f51b 9b3d b47b a9bd 3399 f13d bf26 913b
00000260: 7c46 b3bd 3ba7 183e 861c e43d 0464 023e
00000270: aa9c f5bd c50c 08be 07e4 1cbe bb7a e63d
00000280: c1e8 cf3d 1d6b d9bd b9c8 8b3d 1646 0e3d
00000290: fbd8 97bd d84b c43b c11f d7bd 6cda 50bd
000002a0: c166 8c3d 8992 c93c d7aa 04be 2249 333d
000002b0: c6ea 0ebd 1ff4 02be 48df 24be 9d0f eb3b
000002c0: 9734 03be c5c7 d9bd fdc3 2b3d b9c0 2f3c
000002d0: e660 a1bd 22e5 dc3c 46d1 b33d 4fbe 89bd
000002e0: 8e39 7ebd 022f fb3c a2e7 2d3d 7308 773d
000002f0: 16c0 f23d f414 40bc 5f95 6c3d 5217 cdbd
00000300: d3a6 b5bc e608 043e 39e4 2cbe 6197 eabd
00000310: 1f1d 1abe 0661 143e 9449 a1bc 6429 233e
00000320: 7b91 c0bd 1087 41bd 867f e53d bea3 31be
00000330: 6fb1 2dbe 31cc eebd f564 403b db08 24be
00000340: 5b07 043d 85d1 163e 4d53 10bd b0a1 fabc
00000350: 75da 1cbe 81cf 16bd f357 6b3c 88db 113d
00000360: ef28 6abd 7da1 d9bd f0a5 babd c7c9 f53d
00000370: c3e2 c1bd ba41 633c d304 fbbc 825b 8fbd
00000380: 62ee f6bb bfce 063e 0eed 063e b0ef 14bd
00000390: 66c9 0fbd a8c3 c7bd 55cd a5bd 6c54 f3bc
000003a0: 5036 043e 2b47 cb3c f58c 18be c4d0 36bd
000003b0: 3406 1abe d2b7 243e 877f 833c 9592 34bd
000003c0: affa 8e3d a2bf 26be 5660 6bbd 06e2 853c
000003d0: efbb 003e 34ae 113e 9cb0 c0bb 36e6 32be
000003e0: d9bf 033d dc22 c9bd b7cb 203e d831 40bd
000003f0: 720b 42bd 59d5 d3bc 6843 253e 3673 9c3d
0.024969839 0.16603713 0.061507497 0.0984641 0.07073426 -0.054633234 0.041543946 -0.12046102
0.16065931 0.0100018615 0.13500772 -0.12226406 -0.15998143 0.020842193 -0.02225211 -0.0704895
0.09121151 -0.11320498 0.15252258 -0.16988671 0.035721008 -0.10178977 0.037806895 0.17191707
-0.020702533 0.040368617 -0.06880333 -0.08946967 -0.14866626 0.100492336 -0.0019929437 0.060275618
-0.13410719 -0.14492308 -0.1583318 -0.10029568 -0.022677248 -0.026436824 0.0766171 -0.08369367
0.1696848 -0.0793744 -0.16365428 0.13163415 -0.111838266 0.016663339 -0.016956998 -0.036293138
-0.00017673004 -0.17112215 0.15647943 -0.11300752 0.1061329 -0.102876954 -0.042832352 -0.0029505533
-0.06861823 -0.07538614 -0.14652416 -0.119603 -0.008215149 -0.0508709 -0.024486717 0.044280555
-0.022604262 -0.16477272 -0.06397062 0.053233523 0.062665895 0.084237665 0.0096302945 0.11921469
-0.11935337 -0.14596619 -0.04650508 0.0012066189 0.12651771 -0.10038557 -0.12188763 -0.0047106557
0.044277057 -0.15882686 -0.07029852 -0.13677502 0.04058473 0.016295115 -0.15478542 -0.115895696
0.008054405 -0.046112966 -0.13465315 -0.052683767 -0.15987155 -0.019803477 -0.020317107 0.009230055
0.014807985 -0.030410757 0.13895912 -0.062308937 0.0786617 0.06596999 -0.021216504 -0.12761573
-0.14669633 0.048159827 0.053226985 0.10564375 -0.07685338 0.14076145 0.17405245 -0.027643066
-0.06801987 -0.05469387 -0.15091741 0.100338936 0.019012373 0.0801718 0.11186426 -0.07397444
0.0015982955 0.14078279 -0.13422874 0.15298548 0.09051324 -0.054658983 -0.14154457 0.09267665
0.0830774 -0.07884137 0.083077505 0.05162053 0.17128907 0.08900676 0.026880823 -0.17229575
0.14165844 0.14948449 -0.048188332 -0.013561792 -0.006258035 -0.010664194 0.09462866 0.02329762
-0.1515349 0.05610784 -0.10693307 0.04966251 0.07573692 -0.082755476 0.117967986 0.0044296677
-0.08753678 0.14907543 0.11138253 0.12733465 -0.11992772 -0.13286121 -0.1532136 0.11253878
0.10151816 -0.10616133 0.06825394 0.034734808 -0.074144326 0.0059904866 -0.105041035 -0.050989553
0.06855536 0.024606006 -0.12955795 0.043770917 -0.034891866 -0.12788437 -0.161008 0.007173492
-0.1281303 -0.10633806 0.041934956 0.010727101 -0.0787981 0.026964728 0.0878015 -0.067257516
-0.062066607 0.030662064 0.04245723 0.060310792 0.11853044 -0.011723746 0.05775964 -0.100142136
-0.022174275 0.1289402 -0.16883935 -0.114546545 -0.15050171 0.14490137 -0.019688405 0.15933758
-0.09402748 -0.047247946 0.11205964 -0.17347619 -0.16962217 -0.1166004 0.002935705 -0.16019003
0.032233577 0.14728363 -0.03523569 -0.030594677 -0.1531771 -0.036818985 0.01436423 0.035609752
-0.057167944 -0.106265046 -0.09113681 0.120013766 -0.094670795 0.013870651 -0.030641949 -0.069998756
-0.0075357417 0.13164805 0.13176367 -0.036361396 -0.035104178 -0.09754115 -0.080958046 -0.029703341
0.12911344 0.024814209 -0.14897521 -0.04463269 -0.15041429 0.16085747 0.01605202 -0.044085104
0.06981408 -0.1628404 -0.05746492 0.016343128 0.12571691 0.1422661 -0.0058804285 -0.17470631
0.032165382 -0.09821102 0.15702711 -0.046922535 -0.047374196 -0.025858568 0.16138995 0.07639162

bn1.weight f4 [400]
00000000: 81af 043f e862 643e adc6 963e 8263 1a3f
00000010: de76 8e3e b17a af3e 4f46 0b3f 6454 6b3e
00000020: 814f 073f 8f02 0c3f b2c0 cc3e 8dd7 d63e
00000030: 61ba 843e 1c22 19bc 8590 9f3e f8a1 2d3e
00000040: 5ecc 623e 1f6e ed3e 2128 243e 9631 3f3f
00000050: ea8d 5c3e 73ae de3e 6c3c 7f3e 1dc9 223f
00000060: 4f34 b33e 53dd 203f 74d3 033f 1e46 ed3e
00000070: 4c10 983e b1a0 943e 90a9 ad3e beb9 29be
00000080: a807 a23e ffce ab3d 438c 333f e505 d73e
00000090: 9a46 753e 079f 303f dfeb c33e d86b 583e
000000a0: 9982 ad3e d527 123f afa5 933e e02a ea3e
000000b0: 20d4 e23e d158 9a3e 5410 703e 16e3 cc3e
000000c0: a48c 493e 475c 143f c076 d93e f5c2 893e
000000d0: bcf1 763e 7e38 983e 435c d13e 1550 5e3f
000000e0: 4547 123e d088 cb3e 66c2 033f 1b43 903e
000000f0: 5981 ae3e 15c7 ac3e f630 093f d893 093f
00000100: 6419 323f 49a2 413f 4a1c 803e 0196 df3e
00000110: 479a a63e ffdb 6bba b957 9c3e 643b ea3e
00000120: 5c4a d23e 1d70 733e 0565 083f 03e0 b53e
00000130: 4b87 bd3e 96be 033f 3821 433f 6174 ea3e
00000140: c675 1a3e fb43 013f 77e7 383f acde 923e
00000150: 5f01 8e3e 6697 3a3f 8888 f63e 52ff f13e
00000160: 9728 c53e fbff d53e 4534 0b3f 3e48 cf3e
00000170: e417 1cbe af04 d43e 7940 e83e c304 293f
00000180: d48b 9a3e 1643 033f 802c ba3e c1c7 d13e
00000190: ab48 6b3e eb2d 023f 1346 043f f92c 1e3f
000001a0: 70a6 b43e bff2 823e f4c7 123e 85b0 973e
000001b0: 5ffc 213f 374e f73e ed0a d43e 0c51 7f3e
000001c0: 45db 333f 567c 733e 8753 313f 58fe 403f
000001d0: bf55 263f 3d24 4f3e 06f6 5b3e b7cb 0c3f
000001e0: 8cb8 c03e b79b ef3e 18f4 0a3f 2de1 073f
000001f0: 4cdd 6c3e d062 da3e 59eb 4d3f a10c 133f
00000200: 8f26 ac3e 9d53 b83e 2c01 0f3f a694 813e
00000210: cff8 c63e 23f6 a83e a5e9 1a3f b3cf d93e
00000220: 2645 1c3f dc9e 1c3f 56e6 b83e 7953 c73e
00000230: 8779 6b3f 441a 823e 36e8 913e df11 363f
00000240: a835 013f 6fd1 913e b1b5 653e f6c8 883e
00000250: 3a57 763e eacb 4c3f 3345 b73e 581e d63e
00000260: 654e c13e dd1d 1e3f 4624 1a3f a3b8 403e
00000270: b592 113f dfee d93e c4a5 4b3f 8539 c23e
00000280: 884b bf3e dced ed3e bb3f 943e a3e8 cb3e
00000290: 2461 983e 8364 8d3e fe72 863e d355 de3e
000002a0: 320e ef3e fd99 d33e 281e b13e eab5 cc3e
000002b0: cac4 de3e 4003 3b3e d64f e23e 2afe f33e
000002c0: 9913 d43e 5bd4 e63e 1194 703e 572d 163f
000002d0: b272 e93e 437c b23e f15f ae3e 4a7d 573e
000002e0: 7e52 8b3e c17c f93e 9ec0 923e a8d0 f83e
000002f0: a5d3 003f 6164 ec3e 6929 823e 762c 053f
00000300: a0cd e03e cf7d c43e 91ee 243f 92c6 743e
00000310: 9c87 0d3f a4d3 d53e 6a56 3b3f 43bd 5c3e
00000320: 4309 113f e5d2 f03e ddc0 fa3d afc2 503f
00000330: a249 c03e 2320 1a3f 1204 bf3e d936 b93e
00000340: 19cd c73e b028 573f cb72 cc3e 178d 5e3e
00000350: 34cf 833e 1766 603e 5533 ff3e 6e6d 5a3e
00000360: c211 223f a4d5 c73e 6ec3 1d3f a9b2 ec3e
00000370: 3df1 b93e ffce 9e3f c655 a43e c32f 113f
00000380: a9d5 843e 088e bd3e a831 3f3e cf48 8a3a
00000390: 494f 3b3f d98d 993e 2898 9f3e d85e 813e
000003a0: 5db8 5b3e fe47 273e cf80 8e3e 17c8 0d3f
000003b0: d87c 003f 6bb2 a73e 4f6e 8f3e cda0 143f
000003c0: 1a67 633e 756f fe3e 7a18 a03e d771 553e
000003d0: 4a3e 3b3f 41ad 093f ea2e 183f 0e2e 133f
000003e0: 677a d13e 198b ea3e e1d6 6d3e cb08 1e3f
000003f0: a608 9e3e 9603 103f 883a 913e 6e54 853e
0.518303 0.22303355 0.29448453 0.60308087 0.27825063 0.34273294 0.5440416 0.22981411
0.5285569 0.54691404 0.39990765 0.41961327 0.25923446 -0.009346511 0.31164947 0.16956317
0.22148272 0.46373078 0.16030933 0.7468504 0.21538511 0.4349247 0.24925393 0.63588125
0.35000846 0.62837714 0.51494527 0.46342558 0.29699934 0.29028848 0.33918428 -0.16574761
0.31646466 0.08389091 0.701359 0.41996685 0.23952714 0.68992656 0.38265893 0.21134889
0.338887 0.5709203 0.28837344 0.45735836 0.44302464 0.30145887 0.23443729 0.40017003
0.19682556 0.57953304 0.42473412 0.26906553 0.24115652 0.297306 0.40890703 0.86840945
0.14285 0.39752817 0.51468503 0.28176197 0.3408306 0.33745638 0.53590333 0.53741217
0.69569993 0.7563825 0.25021583 0.4366913 0.3253958 -0.00089973205 0.30535677 0.45748436
0.41072357 0.23773237 0.53279144 0.3552247 0.37017283 0.51462686 0.7622256 0.45791915
0.1508399 0.50494355 0.7222819 0.2868551 0.2773542 0.72887266 0.4815104 0.47265106
0.3850753 0.4179686 0.5437663 0.40484804 -0.15243489 0.41409823 0.4536169 0.6602289
0.30184805 0.5127424 0.36362076 0.40972713 0.2297694 0.50851315 0.51669425 0.6178737
0.35283232 0.25575826 0.14334089 0.2962686 0.6327571 0.4830186 0.41414586 0.2493326
0.70256454 0.23777899 0.6926808 0.753881 0.6497459 0.20228668 0.21480569 0.54998344
0.37640798 0.46798488 0.5427871 0.53077966 0.23131293 0.42653513 0.8043724 0.57441145
0.33623168 0.36001292 0.55861163 0.25308722 0.388617 0.33000287 0.60512763 0.42541274
0.6104301 0.611799 0.36113232 0.38930872 0.9198231 0.25410664 0.28497475 0.7112102
0.504725 0.28480098 0.22432591 0.2671582 0.24056712 0.7999865 0.35794982 0.41820025
0.37755123 0.6176432 0.602116 0.18820433 0.5686448 0.42565057 0.79549813 0.3793451
0.37362313 0.46470535 0.28954872 0.39825925 0.29761612 0.27615747 0.26259607 0.43424854
0.46690518 0.4132842 0.3459332 0.3998254 0.43509513 0.18262959 0.44201535 0.4765485
0.41421202 0.4508389 0.23493983 0.58662933 0.45595318 0.3486043 0.34057572 0.21043888
0.27211374 0.48727992 0.2866258 0.48596692 0.50322944 0.46170333 0.25422218 0.52020967
0.4390688 0.38377234 0.64426523 0.23903874 0.5528505 0.4176303 0.7317873 0.21556573
0.5665476 0.470359 0.12243817 0.81547064 0.37556177 0.60205287 0.37307793 0.36174658
0.39023665 0.8404646 0.3993133 0.21733509 0.2574402 0.21913944 0.4984385 0.21330807
0.63308346 0.39030182 0.6162633 0.46230057 0.36316863 1.240692 0.3209669 0.56713504
0.2594426 0.37022424 0.18671286 0.0010550263 0.73167855 0.29991034 0.31170774 0.25267673
0.21457048 0.16336057 0.27832648 0.5538344 0.50190496 0.3275331 0.28013846 0.5805786
0.22207299 0.4969441 0.31268674 0.20844208 0.7314192 0.5377999 0.59446585 0.5749215
0.40913698 0.45809248 0.23226501 0.61732167 0.30865973 0.5625547 0.28364968 0.26040977

bn1.bias f4 [400]
00000000: 3610 d8be 22f8 79be a209 07bf a3bd 6fbf
00000010: bb0a 84be cdb6 87be a797 d6be 1a89 d4be
00000020: f5d4 04bf 4eaf 11bf 71ec e7be ce7c c1be
00000030: b995 5fbe 6e34 4e3e 7a7a 36bf 36c4 42be
00000040: 64ed 30bd f714 e6be d5a9 04be 2334 38bf
00000050: 07df 26bd 80bb a2be 493f 30be 82d0 d5be
00000060: f4a0 b3be dc77 0abf a16a f8be b86a ebbe
00000070: 1a72 97be 2ad5 75be 4da4 2bbe 37b9 d4be
00000080: 7c26 38be d999 9ebd f9ff fbbe 1fa2 efbe
00000090: 308e 02be c040 fcbe 915a b2be d9e1 f3be
000000a0: a2bb a0be e834 eebe f449 48be b4f7 62be
000000b0: d5d5 aabe 56d5 87be 6eb3 edbc f4d4 2dbf
000000c0: 871d cdbe f8b9 c2be b6cf edbe 13b6 79be
000000d0: df49 aabe 6a32 37be 6415 bcbe 3f11 bbbe
000000e0: a00a 07bd 92f0 09bf 4f0a d6be d3f3 91be
000000f0: 466c eabe 4feb b4be ba18 01bf 27f2 56be
00000100: 68b0 aebe e06c 0abe 5c7c 6fbe 7796 97be
00000110: 006a e3be faa0 1abc 9b13 1ebe c799 4abf
00000120: 0ad2 27bf c386 25bf 3374 afbe dd99 8bbe
00000130: aa6b b8be 3a5b ccbe 0b9c 01bf 2b17 ccbe
00000140: 209c 083d b1be 62bf aa52 39be fd85 b7bd
00000150: de45 07bf 704d 9fbe 4e79 b5be 18b9 06bf
00000160: 7324 01bf 3073 ddbe 032f d8be bdc9 adbe
00000170: 0769 f8bd 7288 2dbe f20b 21be 5d1a b9be
00000180: 90b0 e4be ac66 1abf 282b cabe d2bb 0bbf
00000190: 7397 80be 0fd9 d3be c059 62bf 1f8c d0be
000001a0: 9e33 99be 804f b9be 8ae2 a5be f14c 2fbe
000001b0: 4793 ce3c 8e80 c4be 05e1 bebe c981 68be
000001c0: cb1f 2ebf 4795 1abd 1f9b 74be cbd0 19bf
000001d0: 5df2 f4be 80b1 66be 3ad4 25be 6b11 cdbe
000001e0: d964 7cbe 30c6 89be 74cf c7be c410 31bf
000001f0: 09f2 9bbe 53d7 d5be 5fb7 ebbe 5f62 1dbf
00000200: 0eb9 acbe 464a afbe d58d 6cbf 9b7d 0fbf
00000210: 1b99 11bf ee71 00bd 1b20 fdbe 63b3 d4be
00000220: 3b10 36bf c09e 21bf 0d05 50be 972a c8be
00000230: 9318 8ebe 40b9 aabe 1f48 19bf 01c6 09bf
00000240: 74a0 15bf 4f40 01bf 7665 aabe fcac 1dbe
00000250: 213e 48be 54fc c73d 4259 c1be 45c5 e4be
00000260: 3f64 c2be 196c 82bf 33d8 03bf 64ae 49be
00000270: 83ea babe 41d2 90be 97a3 0cbf 2f48 62be
00000280: 3618 87be de9e d3be 2d92 8fbe ccc9 0d3f
00000290: 5dd5 91be a3e0 5fbe de7c e6bd 2416 d3be
000002a0: 8a6c 03bf ef3c 82be 44c4 2abe bc11 d8be
000002b0: 5f74 e8bd 8aa2 15be f1f9 68be 640b 34be
000002c0: 0318 71be 91fd 0ebf 4896 f8be f757 fbbe
000002d0: fd13 cabe dfe1 12bf 7bf6 2dbf 877e aabc
000002e0: 35cb 29be 9cc2 c7be 2a46 4cbe f43d 51be
000002f0: 2324 01bf f178 f6be b52b d9bd 9c9f 6ebe
00000300: cc38 b0be 270f 07be be72 1fbf 5580 eebd
00000310: 4ef6 03bf 5e5a e5be bcca 01bf 0a46 31bd
00000320: dec8 b4be 792a 75be 4410 b2be 10fd 1abe
00000330: 3510 ebbe a320 ddbe 26fe 1ebe 4b51 a0be
00000340: d217 3dbe 08a9 e4be df02 a7be f4e4 8cbe
00000350: fbfb 9ebe b2b6 22bf 7b02 a1be d99f dbbe
00000360: f4ee edbe e6bc ddbe 0a12 d5be d5f2 fabe
00000370: bea6 f0be f53e 26be af83 93be 46b1 d9be
00000380: 3ff8 6cbe b533 30bc 145b afbe 252d 45bc
00000390: 0931 52bf ea9e d1be a0a3 cebe 82ce 9bbd
000003a0: a6e9 00bf c2fa 75be b842 f7be 26e5 d4be
000003b0: 35fb 14bf 107a c6be 7f63 94be 5760 41be
000003c0: 8f5e 5fbe 0f43 16bf 987c 02bf 6eb5 1fbe
000003d0: bd95 43be c2f5 57bf 2333 00bf bfad dcbe
000003e0: 7311 8cbd dd85 ddbe 3f1f a0be 7c8d 03bf
000003f0: 1176 00be b5e3 f7be f0cd 4dbe 41ab 83be
-0.42199868 -0.24411061 -0.52749074 -0.9364874 -0.25789437 -0.26506653 -0.41912577 -0.4151085
-0.51887447 -0.5690812 -0.45297578 -0.3779053 -0.21834458 0.20137188 -0.71280634 -0.19020161
-0.043195143 -0.4493787 -0.12955411 -0.71954554 -0.04074004 -0.31783676 -0.17211641 -0.4176064
-0.35083735 -0.5408914 -0.4851885 -0.45979857 -0.2957924 -0.24007097 -0.16761895 -0.41547558
-0.1798343 -0.07744188 -0.4921873 -0.46803376 -0.12749553 -0.4926815 -0.34834722 -0.47633246
-0.31393152 -0.4652474 -0.19559461 -0.22164804 -0.33366266 -0.2652995 -0.029016223 -0.67903066
-0.4006159 -0.38032508 -0.46447533 -0.24385862 -0.33259484 -0.17890325 -0.3673507 -0.36536595
-0.032969117 -0.53882706 -0.4180474 -0.28506336 -0.4578573 -0.35335776 -0.50428355 -0.20990811
-0.34118962 -0.13518095 -0.23387283 -0.29606983 -0.4441681 -0.009437794 -0.15437166 -0.79140896
-0.6555487 -0.64658755 -0.3426834 -0.27265826 -0.3601964 -0.3991335 -0.5062873 -0.39861426
0.033352017 -0.8857222 -0.1809794 -0.08961103 -0.52840984 -0.31113768 -0.3544411 -0.5262618
-0.5044624 -0.43251944 -0.42223367 -0.33942977 -0.121294074 -0.16946581 -0.15727213 -0.36152926
-0.44665956 -0.60312915 -0.3948605 -0.54583466 -0.25115547 -0.4137654 -0.884182 -0.40731904
-0.29922193 -0.36193466 -0.32399398 -0.17119195 0.025216712 -0.3837933 -0.3728105 -0.22705759
-0.6801726 -0.03774002 -0.23887299 -0.6008422 -0.47841159 -0.22528648 -0.1619424 -0.4005235
-0.24647845 -0.26909018 -0.39025462 -0.6916621 -0.30458096 -0.41765842 -0.4603834 -0.6147823
-0.33734936 -0.34236354 -0.9240392 -0.56051034 -0.56874245 -0.03135865 -0.49438557 -0.4154311
-0.71118516 -0.6313286 -0.20314427 -0.39094993 -0.27753124 -0.3334446 -0.59875673 -0.53817755
-0.5844796 -0.5048875 -0.33280534 -0.1539802 -0.1955495 0.09764925 -0.3776341 -0.44681755
-0.37967107 -1.0189239 -0.5150177 -0.19695431 -0.36507043 -0.2828541 -0.5493712 -0.22097848
-0.2638566 -0.41332144 -0.2804121 0.5538604 -0.28483096 -0.21863036 -0.11254285 -0.4122783
-0.5133749 -0.25437114 -0.16676432 -0.4220103 -0.11350321 -0.14612785 -0.22751595 -0.1758247
-0.23544316 -0.5585566 -0.48552155 -0.4909055 -0.39468375 -0.573759 -0.67954224 -0.020812286
-0.16581424 -0.39015663 -0.1994864 -0.2043379 -0.50445765 -0.48139146 -0.106040396 -0.23303074
-0.34418333 -0.13189374 -0.6228446 -0.11645571 -0.51547706 -0.44795507 -0.50699973 -0.043279685
-0.353095 -0.23941983 -0.34778035 -0.15135598 -0.45910802 -0.43188962 -0.15526637 -0.31312022
-0.18466118 -0.4466021 -0.32619378 -0.27518427 -0.3105162 -0.6356002 -0.31447205 -0.42895392
-0.4647137 -0.4330818 -0.41615325 -0.4901339 -0.47002214 -0.16234954 -0.28811404 -0.4251806
-0.23141573 -0.010754515 -0.34249175 -0.012034689 -0.8210607 -0.40941554 -0.4035921 -0.076077476
-0.5035652 -0.24021438 -0.4829309 -0.41581076 -0.5819581 -0.38765 -0.2898216 -0.18884407
-0.21813415 -0.58696073 -0.50971365 -0.15596554 -0.1910009 -0.8435937 -0.5007803 -0.43101308
-0.06839266 -0.43266192 -0.3127384 -0.51387763 -0.12545039 -0.48415914 -0.2009809 -0.25716594

bn1.running_mean f4 [400]
00000000: 5d59 4340 945c 3940 c33d 05c0 5020 11bf
00000010: d675 8e3f c3ad 643f f50a c3be 5508 e4be
00000020: 5a35 cb3f 7725 3e3f 742b 56bf 8b1f 813f
00000030: c5e5 cfbf dad5 273f 2120 81bf 6fdf 12c0
00000040: b093 a2bf 782e d6be dcb1 b0bf 2c9a 18bf
00000050: d636 263f 7f27 793f 366c 7d3f 19c4 153f
00000060: 0289 21bf 97e7 25bf 324f ce3f 29f2 3bc0
00000070: 5260 92bf a84a 243f 304a 793f 8673 ed3e
00000080: 300f 2cbf 7ec3 89bf 5962 1fbe 14b2 023f
00000090: e4f7 c1bc 245e 0040 6ebb ae3f d4d5 733f
000000a0: b1f5 fdbe e7a8 853e 9ce6 a33e 42eb b93c
000000b0: 951c 9c3f 43a3 1a3e 6e94 8e3f 1041 ab3f
000000c0: 569e e0bf 22d3 bcbf 03a1 0e40 03f8 9d3e
000000d0: 4245 3bbf b88c 663f 22d3 babf cd6c afbd
000000e0: 51ca b23f 15b4 dcbe 9e67 283f ba39 f6be
000000f0: fb9f 08c0 b3a3 41bf 5f1e 1ebf 59fe a73e
00000100: ef9c c93e cea4 06be 8590 a93f 08e5 943e
00000110: 46b0 42be a840 083e 731a 8a3f 5345 07c0
00000120: 2d2d 3dbf f450 e1be d70b 823e d117 d13e
00000130: 0243 de3f d7ff 49bf fe9d 92be 632b b5bd
00000140: 8ad4 80be aa99 12bf a54d 043f 8ab5 06be
00000150: 4298 3e3e 78f1 80bf e0d4 ae3e 5e6a 62be
00000160: 314c 1dbf 64b1 88bf 153c 013f c72c 59bf
00000170: 9331 bfbd 66f4 5e3f aa37 c33f 9c7a aa3d
00000180: 9f3d 183f 7bde 163f 293d ebbe 96df 983e
00000190: 32ca dd3e 13ea 713f 6f96 29bf cc67 8d3f
000001a0: fd01 a03f de68 acbf 7200 7a3e 7dff 583e
000001b0: 8efa af3d 95fc 373c 6e20 3c3f fc45 813f
000001c0: abc8 883f 2caa 6e3f 577d 08bf 61e1 6d3f
000001d0: ade7 26bf ff98 903e 4736 1a3f 4845 32bf
000001e0: 94f0 833f d7bf 7fbe e1b8 9b3e 4dbb c7be
000001f0: 0330 163e 0d51 653f 1e43 263f 269c 6abf
00000200: a21b d13e c715 abbd 52f5 8abf f92e f63e
00000210: 1045 d2bf 6bcb b43f 468b 82bd 1b7f 9a3f
00000220: 113f 25be 1def 4b3f 57c1 d5be a73d 2abd
00000230: f736 ecbc 0158 c0bf 487d c5bf d9a1 053f
00000240: 97f8 333f c3bf b0bf 39ce c1be 3408 2d3f
00000250: 2c7a 273f 53b1 913f 1e1e 7abf 227d bd3e
00000260: fe55 5fbf 2af2 52bf ac4b c33f aa51 bcbe
00000270: 3729 9dbe f1bd 15bf 6ff4 dbbe df0a 81bf
00000280: cc3b 423f beed 373e 7bd2 473f ce0a 4abf
00000290: 5489 183f 936d f93e c1fd 4b3f e483 ecbd
000002a0: f337 d7bf 2cc4 193e ba72 d1be 5e6d 44bf
000002b0: 1806 1d40 eba0 3fbf 816d c93f 9ec4 40bf
000002c0: bdb3 623f 4197 a63f cc72 39bf 24b7 653f
000002d0: ec0a 59be 2624 63bf 73f4 02c0 0e80 043f
000002e0: cff6 42be 779a 0b3f b91a 1440 6a1a 5dbf
000002f0: 6370 21be cab1 26c0 85b8 95bf 4eab 193e
00000300: 2619 b23e 5cc8 ab3f 0c03 953f 7cbc 2bbf
00000310: e9b8 2d3f 5518 dbbe a5d3 0c3c 4909 363f
00000320: acb9 11bc b7ea 6ebf b2d8 903f f478 913f
00000330: 9b6e 7ebf 5658 2f3f 448b 2b3f a184 87bf
00000340: 946a 5b3f a7df 4c3e 022b 42be a6f9 8ebf
00000350: 7692 29bf f71e 8dbe 9f67 743e 9b68 98bf
00000360: 4fd5 0c40 6f4a 9e3f 9c80 9cbf 94e2 763f
00000370: 5cc7 27bf 2d69 953e af5d 6abf 0070 66bd
00000380: 7fb1 5cbf 1b61 a23f 7888 54bf 79a3 71be
00000390: a3fd a6be 14af 48bf 101c 14bf 9dbf 0fbf
000003a0: e605 223f 1f02 393e 2f14 01bf 7a15 453f
000003b0: a056 913e 84a3 433f 6f2e f03c 1f3d 3bbc
000003c0: 51bb 003f 093f 22c0 d0e7 9cbf 2d40 9f3f
000003d0: acbe 613f 3644 2ebf 0d01 e5bb 109f ba3f
000003e0: 04c5 f03f 5451 a5bd 3a5a d5be afd0 e23e
000003f0: c87f 42bf 611d 0cbf d451 2f3f 4360 973f
3.0523293 2.8962755 -2.0818946 -0.5668993 1.1129711 0.8932764 -0.38094297 -0.44537607
1.5875657 0.74275917 -0.83660054 1.0087751 -1.6241995 0.65560687 -1.008793 -2.2948873
-1.2701321 -0.41832328 -1.3804278 -0.5961025 0.64927423 0.9732589 0.9899324 0.58502346
-0.6309968 -0.64806503 1.6117918 -2.9366553 -1.1435645 0.64176416 0.97378826 0.463772
-0.67210674 -1.0762784 -0.1556486 0.51052976 -0.023677774 2.005746 1.3650949 0.9524815
-0.4960151 0.26105425 0.32011878 0.022695187 1.2196223 0.15101342 1.1139047 1.337923
-1.754832 -1.4751933 2.2285774 0.3085328 -0.73152554 0.9005847 -1.4595683 -0.08565674
1.3967992 -0.43106142 0.6578311 -0.48090917 -2.1347644 -0.7564041 -0.6176509 0.3281124
0.39377543 -0.13148805 1.3247229 0.29080987 -0.19012555 0.13305914 1.0789322 -2.1136062
-0.7389706 -0.44007075 0.25399658 0.40838483 1.7364199 -0.78906006 -0.28636163 -0.08846166
-0.25162154 -0.5726572 0.51680976 -0.13155189 0.18612769 -1.007369 0.34146786 -0.22110888
-0.61444384 -1.0679135 0.504823 -0.8483395 -0.093356274 0.8709167 1.5251362 0.08324167
0.59469026 0.5893323 -0.459451 0.29858083 0.43318325 0.94497794 -0.6624517 1.1047301
1.2500607 -1.3469503 0.24414232 0.21191211 0.085927114 0.011229654 0.73486984 1.0099483
1.0686239 0.9322841 -0.53316253 0.92922026 -0.6519726 0.28241727 0.6023907 -0.69636965
1.0307794 -0.24975525 0.3041449 -0.39010087 0.14666753 0.895768 0.6494616 -0.91644514
0.40841395 -0.08353763 -1.0856116 0.48082712 -1.6427326 1.4124578 -0.063742206 1.207004
-0.16137339 0.7966173 -0.4174907 -0.041562703 -0.028834803 -1.5026857 -1.5428858 0.52200085
0.70301193 -1.3808521 -0.37852648 0.6759064 0.65420794 1.138224 -0.97702205 0.3700953
-0.8724059 -0.82400763 1.5257468 -0.36781055 -0.30695507 -0.5849295 -0.42959926 -1.0081443
0.7587249 0.17961785 0.7805554 -0.78922737 0.59584546 0.4871641 0.7968407 -0.11548594
-1.6813949 0.1501624 -0.40907842 -0.7672938 2.453497 -0.74854916 1.5736543 -0.75300014
0.8855551 1.3014909 -0.7244079 0.89732575 -0.21195573 -0.88727033 -2.04617 0.51757896
-0.19039463 0.5453257 2.314131 -0.8636843 -0.15765528 -2.6046014 -1.1696936 0.15006754
0.34784812 1.342052 1.1641555 -0.6708448 0.67860276 -0.42792 0.008595382 0.7110792
-0.008894365 -0.93326896 1.131613 1.1365037 -0.9938752 0.68494165 0.6700938 -1.058735
0.857095 0.20007192 -0.18961719 -1.1169937 -0.66239107 -0.27562687 0.23867653 -1.1906923
2.2005193 1.2366465 -1.2226748 0.9643948 -0.65538573 0.29181805 -0.915492 -0.056259155
-0.8620834 1.2685884 -0.83020735 -0.23597516 -0.32615384 -0.7839215 -0.5785532 -0.56151754
0.6329025 0.18067215 -0.5042142 0.76985896 0.28386402 0.7642138 0.029319016 -0.011428147
0.5028582 -2.5350974 -1.2258244 1.244146 0.8818157 -0.6807283 -0.0069886507 1.4579792
1.8810124 -0.08072153 -0.416704 0.44299838 -0.7597623 -0.5473233 0.68484235 1.1826252

bn1.running_var f4 [400]
00000000: 0c26 f43f 80ed 7e3f 4bc3 823f 4a79 bd3e
00000010: a5cd 4a3f e770 1540 a3d4 813f 335d 6f3f
00000020: 3aa0 ff3f 1b8e d33f 209a 703f 976d 1640
00000030: 396b c13f 5ea9 2a40 5c99 283f 3976 1b40
00000040: 7f92 3040 4199 8540 6e11 1b40 5cac 3440
00000050: ce27 1b40 c835 4640 2f7f c33f e42e 893f
00000060: 5ae2 5c3f 2e50 823f d900 8a40 018d db3f
00000070: 3be1 3040 21e1 4d40 929e 983f e794 9b3f
00000080: 417a 2e3f 32bf 2440 8544 fc3e ff94 f03f
00000090: 9a62 0d40 968c 9e3f f031 cf3f c59f b13f
000000a0: 10bd 1e40 7b7b f43e 9362 fc3f 7ebc a83f
000000b0: 7a3d e43f ebb3 1440 2674 523f 6078 113f
000000c0: 6fd5 3d3f fa84 983f c181 1a40 4ec2 1b40
000000d0: 0da5 e83f d6ef b43f ed61 2e40 ef13 493e
000000e0: c65a 713f 45cd 553f 6889 5240 cf31 c740
000000f0: bdc5 1040 4e29 a140 568d 753f 3335 383f
00000100: 7a21 fe3e 9314 2c3e 8382 d03f 8fd6 0f40
00000110: 0889 0040 4acf 0c3e 5896 8e3f 35c4 673f
00000120: ff3f c73e 664f a93f df53 1440 766d 313f
00000130: 96d6 733f f302 9540 761e a63f 4149 4f40
00000140: f7dc 1440 e0bc fa3e 1164 183f 88db 913f
00000150: b3d1 df3e b888 cc3f 5e0a 8740 6cf7 0f40
00000160: 689d 4140 c8a1 0140 f044 7a3f cd63 aa40
00000170: 5425 093f 572e 313f e8b3 f93f f2fc 7d3f
00000180: 35f6 883f bb73 c03f 4dff ab3f 99c4 df3f
00000190: 7b2e 0340 ee1a ea3f 2834 f53e 8553 3e40
000001a0: ea0b 3340 e456 b63f 3aa5 af3f 4cea 903f
000001b0: b75f 1e3f 0365 a83e 05df 7d40 c179 aa3f
000001c0: 1d57 7b3f 1b93 3a3f 3977 4a3e b548 4740
000001d0: fcb7 b33f 575e 8a3f 0c6f 673f 2e40 883f
000001e0: 22b3 bd3f 0389 a23f de18 183f a6bf 093f
000001f0: 0641 ed3f d64e 2a40 80cf 783f 62ed a43f
00000200: c46a 2d40 1ce2 463f aad6 3e3f b17f 803f
00000210: 346b c83f 2f40 953f e3ee c140 d304 de3f
00000220: b3be 7a40 fdf1 8b40 4afc a03f 8d1c 1540
00000230: 67cd 313e 6c43 893f f90b bc3f 034e 0e3f
00000240: a926 c73f a5eb 6a3f 041d 883f 6a9d 3d3f
00000250: ea91 933f fac9 cf3e c7e0 9f3f 0b2c 1a40
00000260: e9c4 cc3f c719 983e c1e9 483f c415 0540
00000270: cf64 8a3f bad2 803f ba12 d43f 3951 1240
00000280: 2c27 d43f e2ef 7240 c726 5340 0a2c af3e
00000290: 3df6 0840 d77e a740 0641 8f3f acbc 1040
000002a0: 45d8 5c3f 3e67 e33f 43a7 aa3f e0e1 7e40
000002b0: e0bd 2840 3d70 fb3f 8ec1 e93f d4f0 ef3e
000002c0: 5521 633f 4aba a73f c59b ee3f bc2c ba3f
000002d0: f42a a33f 6c1c b93f ac51 c33f f35c ac3f
000002e0: 726e e33f 6f0d f63f 9550 0840 5268 523f
000002f0: 1544 2440 4e98 f53f 6204 6140 437b 2c3f
00000300: c4fa ad40 1dd4 573f c2e1 2140 7bf2 9b3f
00000310: 5b46 4f40 9dc2 2d40 6223 be3f 4d33 ae3f
00000320: d17e d63e 378e 8b3f 1f91 863f c3cb 143f
00000330: 4b19 1b40 73f9 4f40 79e6 753f e3c7 c73f
00000340: d617 2b3f 3423 af3f a281 fb3f e4db 3240
00000350: 6085 a440 74a6 723f 76e1 3b3f 22b8 ff3f
00000360: 36ba 1140 7e17 1a40 185a e63f e26e 463f
00000370: b4fd a23f e9d3 723e 22e0 9b3f 39d9 863f
00000380: 7167 433f 91e8 b03f 426b c73f 38dc 323e
00000390: 0742 2f3f 193c ed3f 5c1d 0b40 9609 d33f
000003a0: c16e 943f b41f 1840 f94a e33f eb0a 773f
000003b0: 133d 4440 fa98 0b40 f799 853f 9f4e a93f
000003c0: e8a8 2d40 802f df3f 4d9b c53f 5f97 0e40
000003d0: d916 ff3e 3167 b13e 1b10 c53f 2543 393f
000003e0: f42a 9b3f ab86 6140 350e 9d40 df1c b93f
000003f0: 8dc3 5f3f a1b3 0c40 34f8 3140 2ed4 b13f
1.9074111 0.99581146 1.0215849 0.370066 0.7922004 2.335016 1.0143017 0.93501586
1.9970772 1.6527742 0.93985176 2.3504388 1.5110847 2.6665874 0.6585901 2.4290907
2.7589414 4.1749578 2.4229388 2.82302 2.4243045 3.0970325 1.5273188 1.0717435
0.86282885 1.0180719 4.3126035 1.7152406 2.763747 3.2168658 1.1923392 1.2154816
0.68155295 2.5741696 0.49271026 1.879547 2.2091432 1.2386653 1.6187115 1.3876883
2.4802895 0.47750458 1.9717582 1.3182523 1.7831261 2.3234813 0.8220848 0.568243
0.741538 1.1915581 2.4141695 2.4337344 1.817537 1.4135692 2.724727 0.1963651
0.94279134 0.8351634 3.2896366 6.22483 2.262069 5.036292 0.95918787 0.71956176
0.49634916 0.16804723 1.6289829 2.2474706 2.0083637 0.1375095 1.1139631 0.90533763
0.38916013 1.3227355 2.317619 0.6930765 0.9524931 4.65661 1.2978046 3.238846
2.3259866 0.48972225 0.5952769 1.1395121 0.43714675 1.5979223 4.2200155 2.2494764
3.0252323 2.0254993 0.9776144 5.3246827 0.53572583 0.69211334 1.9508028 0.9921409
1.0700136 1.5035318 1.3437287 1.7481872 2.049712 1.8289468 0.47891355 2.9738476
2.7976022 1.4245267 1.3722298 1.1321502 0.618648 0.32889566 3.966737 1.3318406
0.981798 0.72880715 0.19772042 3.1138127 1.4040523 1.081004 0.9040382 1.0644586
1.4820292 1.2698063 0.59412944 0.5380806 1.8535469 2.6610618 0.9719162 1.2884943
2.7096415 0.77688766 0.745463 1.0038968 1.5657716 1.1660212 6.060411 1.7345222
3.9178894 4.3732896 1.2576993 2.3298676 0.17363511 1.07237 1.4691154 0.55587786
1.5558673 0.91765815 1.0633855 0.7406832 1.1528904 0.40583783 1.2490472 2.4089382
1.5997592 0.29707167 0.7848168 2.0794535 1.0812014 1.0064309 1.6568215 2.2862074
1.6574454 3.7958913 3.2992418 0.34213287 2.1400292 5.2342334 1.1191719 2.2615156
0.862675 1.7765882 1.3332294 3.9825363 2.636589 1.9643627 1.8262193 0.46863425
0.88722736 1.3103726 1.8641287 1.4544902 1.2747483 1.4461799 1.5259299 1.3465866
1.776808 1.922285 2.1299183 0.8219043 2.5666554 1.9187105 3.5158925 0.6737558
5.436861 0.84308034 2.5294042 1.2183374 3.2386692 2.7150033 1.4854548 1.3609406
0.41893628 1.0902776 1.0513037 0.58123416 2.4234188 3.2496002 0.960548 1.5607876
0.66833246 1.3682618 1.9648936 2.794671 5.141281 0.9478524 0.733909 1.9978068
2.2769904 2.4076838 1.7996244 0.77512944 1.2733674 0.2371365 1.2177775 1.0535041
0.76329714 1.3820974 1.5579607 0.1746682 0.68460125 1.8533965 2.173667 1.64873
1.15963 2.376935 1.7757255 0.96501034 3.0662277 2.181212 1.0437611 1.3227118
2.7134342 1.7436371 1.5438019 2.227989 0.4982212 0.3464904 1.539554 0.7236808
1.2122483 3.5238445 4.9079843 1.4461936 0.8740776 2.1984637 2.780774 1.3892877

fc2.weight f4 [300, 400]
00000000: b04a 133d d529 48be 8a88 1abe c5b2 c83d
00000010: 475e a7bd f012 8ebd 8f7e 04be 9aa5 df3c
00000020: fa3b 6f3b 2d62 673d 3c21 17be be69 093e
00000030: d84d 9d3e 2617 1abe 685c d23d f3aa cebc
00000040: 6d69 813d 298d 6f3e 68f5 3e3d 9ea1 63be
00000050: 6919 89bd 2b0d 27be ea78 50bd 7f9a ecbb
00000060: a226 1b3d 2736 42bc 16da 0cbd 57f6 dd3d
00000070: 811e a5bd 2c2c 863c 6128 36be 96cc 1a3e
00000080: 53bf 033e 4547 823e 3f6e 983e bfb3 98be
00000090: 7392 703d a70b 16bd b779 b6bb 210c 003d
000000a0: 9ee5 46bd 341a bc3d 43c3 99be dfcf f03c
000000b0: 7d24 2abe d829 0b3e 8af9 e8bd 15c0 153d
000000c0: 4655 b43d 52d3 033d 009d 27be a277 053d
000000d0: 07a7 89be 3582 ae3d 61ef 21bd 0862 dc3d
000000e0: 5f61 183a 9eaf 283e 4ea0 05bd 8ae7 f9bc
000000f0: 9713 4d3d 2655 e93c 0418 64bd 6d4a ba3e
00000100: fe48 033e c3a3 033e f9bd b4bd 4d22 583c
00000110: b765 1f3e b88c 393d 5f35 e83d 7ab8 00bd
00000120: 404e 3fbc 97d5 c43d 9843 24be bed8 5bbd
00000130: f69a cbbc 1184 a2bc 5802 4d3e 2b0e a83d
00000140: 3446 093e 0e75 0b3c b8b2 f0bd e052 353e
00000150: 17cf b53d e47b e33c e0e8 423d 1c1f 09be
00000160: fbd8 b63d 6e0b 263e bede ec3d ccc8 2abe
00000170: 9396 54be 0720 47bd 56aa 4c3e cd9a 883e
00000180: e862 4a3e 10ef c5be 890d 513c 086a f33d
00000190: dbf3 3e3e 2489 803d 63a6 823e d16a 12be
000001a0: 36ad cb3d 31ab 853e 31ea 9f3e d671 f2bd
000001b0: 7f75 1fbd dd69 eb3d 1332 063d 0283 2cbd
000001c0: 7330 8abc a564 91bd 7fef ca3d 3148 1a3e
000001d0: 2719 c33d 0a72 313d 0a16 153d 2c7b 163e
000001e0: 8094 1bbe f6ff 10be a925 843d f258 3cbd
000001f0: 8523 95bd 06a2 4e3e bc6e 1d3b 6273 593c
00000200: cb6f 343e f7f5 00be ecbf 2cbe dc31 5cbd
00000210: e1f5 183e 1cde 2abe 413a 5cbe 5e28 5f3e
00000220: 0cfb 1abe 33a6 0d3e f6ed b93d cc56 75be
00000230: a898 d03e c4e3 30bd 938b 0b3e 0431 f03d
00000240: ed8a 59be e7a6 80bd 680b 703e 8f86 af3e
00000250: e812 8cbd bf74 623e d44b 043c 0695 9f3d
00000260: 3105 a63d a819 6b3e 3981 77bb 8788 813e
00000270: e7e9 c53d 0794 7d3d 7949 8ebb f27e a1bc
00000280: 5e27 dcbd cbdf 5b3e f94a 4abe 845c 71be
00000290: 9741 b43d 6934 0f3d 3d71 70be c38c 283e
000002a0: 9605 3a3e 86fc 99be 7b56 7a3d 1659 3d3e
000002b0: 339b 79be 4d19 3bbe 4d03 d8bd 165b 0abe
000002c0: 0118 e13d e02a cb3d 605a 26be 2364 913d
000002d0: 8e9a 50be c740 183e 22b3 213d 31c4 46be
000002e0: 3be6 973d 38f7 833d 9c90 383d 7bed b73d
000002f0: 25ab f53d 44e0 afbd 4e0e ce3d 1fae 5e3e
00000300: 327b 95be 2f5f 343e 2234 0ebc aa01 42bc
00000310: 144a b33d f736 1cbe 2876 03bd 2c22 97be
00000320: a91f 813d f188 02bd e9d7 58be c7a4 c23d
00000330: 5f30 913e 834e 073e 80b1 4ebe c8a1 57be
00000340: 151e 223e 50f3 a13d 7caf 793c 9854 96bd
00000350: 0687 60bd 15e6 15be a721 40be 3ba9 ea3c
00000360: 71fa 6ebd c2ce 41bd 9d4f 313e 4389 c6bc
00000370: c54b 8bbd a660 eb3d d671 a53e 043b 0f3d
00000380: db8d 9fbd e7d5 d63d a11f 57bc c04f 46bd
00000390: b891 cdbd 0cc4 063e 7658 c73c 2ed3 0dbe
000003a0: 402f 9cbe 54c1 5e3d 882a 4e3e 84cd 173e
000003b0: 0ab6 863d 469b fc3b bcb9 bf3d 75b2 a83d
000003c0: 28c8 83be a119 4abe 93b6 3fbe eb05 163e
000003d0: 617f 1ebe 4f3f 0f3e 277f a0bc 6d0c 86bd
000003e0: 83a2 25be 6ec6 08bd f5eb 84bd ae2c 973c
000003f0: 8db6 cbbc 589e 00bd b314 913b 3bb8 89bd
0.0359599 -0.19547208 -0.15091148 0.097997226 -0.08172279 -0.06937206 -0.12938903 0.027300645
0.0036504255 0.056490112 -0.14758772 0.13419244 0.30723453 -0.15047893 0.10271531 -0.025228
0.063189365 0.23393692 0.046620756 -0.22229621 -0.066943 -0.16313617 -0.050896563 -0.007220566
0.03787864 -0.011853731 -0.03438767 0.10838001 -0.08062459 0.016378485 -0.17788841 0.15117106
0.12865953 0.25445 0.2977161 -0.29824635 0.058733415 -0.036632206 -0.0055687088 0.031261567
-0.048558824 0.09184685 -0.30031785 0.029395996 -0.16615482 0.13590181 -0.11375721 0.036560137
0.08805327 0.032183953 -0.16368484 0.032584794 -0.26885244 0.08520929 -0.03953493 0.107608855
0.0005812849 0.16473243 -0.03262358 -0.030505914 0.05006751 0.028482985 -0.055686966 0.36384907
0.12820813 0.12855439 -0.08825297 0.013191772 0.15566145 0.045300215 0.11338305 -0.03142593
-0.011676371 0.096110515 -0.1604141 -0.0536735 -0.024854165 -0.019838365 0.20020425 0.08205827
0.13405687 0.008511795 -0.11752838 0.17707396 0.0887739 0.027769037 0.04758537 -0.13390774
0.089281045 0.16215298 0.11565922 -0.1667816 -0.20760565 -0.048614528 0.19986853 0.26680604
0.19764292 -0.38658953 0.012759575 0.11885458 0.18647711 0.062761575 0.25517568 -0.1429856
0.09945147 0.2610717 0.3123336 -0.11838119 -0.038930412 0.11494801 0.0327626 -0.042117126
-0.016868806 -0.070992745 0.099089615 0.15066601 0.09526282 0.043321647 0.03639797 0.14695424
-0.15193367 -0.14160141 0.064524956 -0.045983262 -0.072821654 0.20178995 0.0024022302 0.013272138
0.1762077 -0.12593828 -0.16870087 -0.053758487 0.14937545 -0.1668629 -0.21506597 0.21792743
-0.1513483 0.13832931 0.090785906 -0.23958892 0.40741467 -0.043185964 0.13627462 0.11728099
-0.21244402 -0.06281834 0.23441851 0.34282348 -0.068395436 0.22114848 0.008074719 0.07792096
0.08106459 0.22959006 -0.0037766232 0.25299475 0.09663754 0.061908748 -0.0043422547 -0.019713853
-0.10749696 0.21472089 -0.19755162 -0.23570448 0.08801573 0.03496209 -0.23480697 0.16459946
0.18166193 -0.30075473 0.06111763 0.18491015 -0.2437561 -0.1827137 -0.105475046 -0.13511309
0.109909065 0.09920287 -0.16245413 0.07099178 -0.20371458 0.1486846 0.039477475 -0.19410779
0.0741696 0.064436376 0.045059785 0.08980843 0.11995534 -0.08587697 0.10061322 0.2174611
-0.29195553 0.17614435 -0.008679422 -0.011841217 0.08754364 -0.15255342 -0.032095104 -0.2951826
0.06304867 -0.03186888 -0.21176113 0.09504085 0.28357217 0.13213544 -0.20184898 -0.21057808
0.15831788 0.07907736 0.015239593 -0.07340354 -0.05481627 -0.1463855 -0.18762837 0.028645149
-0.05834431 -0.04731632 0.17315526 -0.024235373 -0.06801561 0.114930436 0.32313412 0.03496839
-0.07790729 0.104900174 -0.0131300995 -0.0484159 -0.10037559 0.13160723 0.024334174 -0.1385009
-0.305048 0.05438359 0.20133412 0.14824492 0.0657769 0.0077089397 0.09361598 0.08237163
-0.25738645 -0.19736339 -0.1872199 0.14650695 -0.15478279 0.13988994 -0.019591881 -0.06545339
-0.16175275 -0.033392362 -0.06490318 0.018453922 -0.02486732 -0.03140101 0.0044275164 -0.06724592

fc2.bias f4 [300]
00000000: 6a90 f63c 636f 8fbb 8fab 433d 694f 0cbc
00000010: 4d06 173d 4603 d23c 9569 103c 6056 21bb
00000020: df7f 943c 0e21 79bc 0a2d 14bb b68e 90bc
00000030: 6a44 cf3c 8263 093d e72c 34bd 38d3 dbbc
00000040: 3e5e 433b f43a 8e3b 2355 b63c 1873 853b
00000050: 5fd8 32bc 9fb0 323d 3dd6 2ebd d20e 493d
00000060: 15a0 aabc 0845 ccbc ed6d 08bc 622d e43c
00000070: a204 62bc beae 19bd e72d 063b 19bf bc3c
00000080: 3a0d 1b3d 5063 3dbc 9e42 2d3d 9cbb cf3c
00000090: 083d 0bbc 2d74 b4bb db84 8fbc 8dbe 133d
000000a0: 004d 1f3d 367b ec3c 03e5 223c 540d ec3c
000000b0: f324 0abc 158b 3d3d 9708 443d 9e68 7abb
000000c0: 90ed 1fbd cbe3 db3c 2a0c c7bc 6146 27bd
000000d0: 2520 a3bc f8bc 01bd 20a2 47bd 82ab 053d
000000e0: 705d 84bc 577a fbbb 99c1 f23c 0c4d 65bc
000000f0: 7218 08bd 5b25 63bc 5902 163d 8dde 19bd
00000100: d6dc 283d 0b0d eabc 4688 443c 2b3e c9ba
00000110: 1bd2 aebb bb8f 7c3c 67b1 8ebc c5f8 473d
00000120: 47de a03c 9863 cd3c 5aa3 6dbc 0957 9b3c
00000130: 5f8e 963c c047 aa3c 89ed 31bd a84e 1dbc
00000140: 9d9e 36bc 9be2 e5bc 1834 3c3d 9148 f83c
00000150: 05d4 ab3c cc7c 2fbd 993d 41ba 597f f1bc
00000160: de48 203d 6002 efbc be52 843c 2962 143d
00000170: 1359 2cbc d19c 10bd 80f6 02bc c56c c93b
00000180: 03bb 933c a924 1a3d f001 ec3a 9b45 fbbc
00000190: 08fd 283c ef02 233d b0b7 bfbc 5bee 95bc
000001a0: 1e48 3fbd 465f 4f3c 7954 fbbb 7e6d e8bc
000001b0: 8f50 3abd 9f62 b9bc 8cc3 0bbd fd2a c6bc
000001c0: bc4e 043d c1c6 b73c 4c0a 0ebd 665b 69bc
000001d0: 490d 8c3c c64d ae3c e251 353c 1e95 083d
000001e0: fc51 113c d8d2 50bb 08de 9abc dacf 993c
000001f0: c060 b6bc b039 453d c12c 0ebc 5c72 bfbc
00000200: a4c5 3a3d 652f e8bc 9d8b 8b3c bda7 193a
00000210: e28c 403c 3ab0 28bd 97d1 f2b9 2d9b 1cbd
00000220: e6a6 91bb 778f c83c 3dfb 41bd 5fd0 dfbb
00000230: 3552 40bd a735 c53c dc76 7c3c 25ec 15bc
00000240: 0dc7 fb3c abd7 773b be37 3dbc cce1 193d
00000250: 0742 ce3c 7deb 993c dd12 94bb af7e 273c
00000260: 05e7 23bd a24a 293d 92c3 16bc 49fb ecba
00000270: 4452 143c 0831 34bd 8cbd 823b 026c 2ebc
00000280: a217 04bd 55b8 0dbb fabe efbb 9ca8 86bc
00000290: 177d a9bc 96e0 01bd aff9 f13c 348b 963c
000002a0: 53ba 453d b18b 74bc 1ae7 f03c fc60 5f3c
000002b0: 5906 d4bb 5913 593c 51ac efbb 2568 f0bc
000002c0: 73d5 873c 4690 c4bc f2a8 d23c 073e d33c
000002d0: f444 423d 82a3 a4bc cb62 1bbc 0ca3 883c
000002e0: 590d 47bc b122 c6bc eefa d33c 1508 d1bb
000002f0: e451 b83b 0f6a cc3c 29f4 853c 5f6e afba
00000300: b5c2 dfba 0e1a 09bd c6b5 c33c 7b64 9cbc
00000310: 851e 3e3d 28a1 463d 8a7e 3cbd 87bd 873c
00000320: d1c4 933c 547c b63c 60ec b83c c754 31bd
00000330: 5dd3 1ebd a979 c9bc 4b7f babb f5f9 0cbc
00000340: 1d63 703c 8356 2ebd 36f7 e03c 2afa 5d3c
00000350: 4e29 613a f074 1a3c 12b7 03bc 0066 903c
00000360: 5d2d 003c a9d8 29bd b574 e23c 84d3 3fbb
00000370: ee65 43bc 38b6 eabb 08d7 12bc 0a40 243d
00000380: f4d0 413d 81bd 7a3c 8343 0ebd ca82 7a3c
00000390: f9a3 043d 00ff 01bc 39f9 45bd f830 7ebc
000003a0: e34c 07bd 271f 7abc ed66 193c c511 9fbb
000003b0: 08de 3f3d aac0 e93c 73d6 16bc 2ef9 353d
000003c0: 2fcd 0a3c 6a08 083d 741f 16bc 8d89 4bbd
000003d0: 1d42 0c3d b39d 85bb c5ef c83b 6056 e63a
000003e0: 6216 3fbb f66f 903c 8413 083c c572 16bd
000003f0: 27ad 393d 7493 5ebc 5a39 2ebd c25a 413d
0.030098159 -0.004377292 0.047771033 -0.008563855 0.036871243 0.025636327 0.008814235 -0.0024618134
0.01812738 -0.015205635 -0.0022609853 -0.017646175 0.025301177 0.033542164 -0.043988135 -0.026834115
0.0029810811 0.004340524 0.022257393 0.004072558 -0.010915845 0.04362547 -0.042684782 0.0490864
-0.020828286 -0.02493526 -0.00832699 0.027853671 -0.01379505 -0.037520163 0.0020474137 0.023040341
0.03785441 -0.0115593225 0.04229986 0.025358014 -0.008498438 -0.0055070133 -0.017519405 0.036070395
0.038891792 0.028867345 0.009942296 0.02881495 -0.008431661 0.046275217 0.047859754 -0.003820933
-0.039044917 0.026842019 -0.024297792 -0.040838603 -0.019912789 -0.031674355 -0.0487386 0.032634266
-0.016157836 -0.007674496 0.02963333 -0.01399542 -0.033226438 -0.013863887 0.036623333 -0.037565757
0.04122623 -0.028570672 0.011995381 -0.001535361 -0.005335105 0.015415127 -0.017418576 0.04882123
0.01963724 0.025071904 -0.014504278 0.0189624 0.018378435 0.020786166 -0.04343942 -0.009601273
-0.011146215 -0.028062155 0.045948118 0.03030804 0.020975122 -0.042843625 -0.00073715445 -0.02947967
0.03913199 -0.029175937 0.016152736 0.036226425 -0.010519284 -0.0353058 -0.0079933405 0.0061469995
0.01803351 0.037632618 0.0018005949 -0.030672839 0.010314234 0.03979772 -0.023403019 -0.018302133
-0.046699636 0.012656992 -0.007669982 -0.028372522 -0.045486983 -0.022630034 -0.034122035 -0.02419042
0.03230165 0.02243364 -0.03467779 -0.0142429825 0.017096179 0.02127732 0.011066886 0.033345334
0.008869644 -0.0031863954 -0.0189047 0.01877587 -0.02226293 0.04815072 -0.008677662 -0.02336996
0.04559864 -0.028342912 0.017034346 0.0005861482 0.011752339 -0.041183688 -0.00046313994 -0.038233925
-0.0044449447 0.024482472 -0.04735874 -0.0068302597 -0.0469534 0.024073435 0.015409198 -0.0091505395
0.030734563 0.0037817757 -0.0115489345 0.037568852 0.025177969 0.018789047 -0.0045188502 0.010223075
-0.04001524 0.04133094 -0.009201901 -0.001808026 0.009052817 -0.043992072 0.003989881 -0.010645868
-0.0322491 -0.0021624763 -0.0073164674 -0.016437821 -0.02068953 -0.031708322 0.029538004 0.018376924
0.048273396 -0.014925883 0.029407073 0.013633963 -0.0064704833 0.013249242 -0.007314243 -0.029346535
0.016581273 -0.023994576 0.025715325 0.025786413 0.04742904 -0.020097498 -0.009484003 0.01667931
-0.012149178 -0.024186464 0.025876489 -0.0063791373 0.0056249965 0.024952916 0.016351776 -0.0013384334
-0.0017071577 -0.033472113 0.023890387 -0.019090882 0.046415824 0.048493534 -0.046019115 0.016569866
0.018038185 0.022276081 0.02257365 -0.04329374 -0.03877579 -0.024594145 -0.005691444 -0.008604516
0.014672068 -0.042562973 0.02746163 0.013548413 0.0008589224 0.009427294 -0.008039253 0.017626762
0.007823315 -0.04146639 0.02764354 -0.002927036 -0.011926157 -0.0071628354 -0.0089624 0.040100135
0.047318414 0.01530397 -0.034732353 0.015289972 0.03238294 -0.007934332 -0.04833338 -0.015514605
-0.03303231 -0.015266216 0.009362918 -0.004854413 0.046842605 0.028534252 -0.009206402 0.04442709
0.008471771 0.03321115 -0.009162772 -0.049691726 0.034242738 -0.004077637 0.0061320984 0.0017573349
-0.0029157628 0.017631512 0.008305434 -0.036730547 0.045331147 -0.01358496 -0.042535163 0.047205694
