checkpoint_critic.pth (torch_old, 554728 bytes, 13 tensors)

fcs1.weight f4 [400, 33]
0.25721875 0.6735067 0.2743753 -0.7275346 -1.4000547 -0.80521935 0.023292499 0.50298125
-0.49561203 0.21295547 -0.03170428 -0.4105046 -0.0038300604 0.39137372 1.0498824 -0.12330927
-0.40894267 0.71355736 0.43327224 -0.52863157 -0.35451266 -0.11978629 -0.25914794 0.4026717
0.2881883 0.18124393 -0.38410684 0.044009876 -0.1441472 0.03841039 -0.023152614 0.031804603
0.3884532 -0.124012575 0.5651794 -0.12974012 0.46861655 -0.38068038 -0.15300253 0.25443143
0.09502912 0.1969433 -0.37187785 0.021231439 -0.091262616 -0.0066202097 0.38450065 0.08245432
0.1698018 0.17538129 -0.05395397 -0.051068556 -0.20282051 -0.146793 0.18787438 0.01774089
0.18657453 0.10434065 0.09824273 -0.5665279 -0.01937974 -0.07710753 -0.0313368 -0.0014076363
0.007884078 -3.2165954 -0.1559537 0.9248561 0.36431062 0.4673408 0.21800882 0.43377915
-0.63944 -0.1047578 0.34279424 -0.7545823 -0.7175803 0.037388586 -0.070289485 -0.80228275
0.06213192 0.03130781 0.5594379 -0.46824026 0.40567982 -1.3109412 -0.30034083 0.31599036
0.1992747 -0.45809397 0.1516475 -0.29001084 -0.24478997 0.0025344102 -0.17739907 0.031812053
-0.034493893 0.004154198 0.26341784 0.10719053 0.42471993 0.014661566 0.0052804197 0.29618028
1.365484 0.0045897337 -0.50028396 0.4060971 -0.059907656 0.33336216 -0.3809514 0.13441585
0.91435176 -0.25772515 -0.15683356 0.67230195 0.36161688 -0.29926956 -0.28625703 0.44263777
-0.27688035 -0.3541719 0.28094485 -0.10680706 -0.69407314 -0.18218127 0.0016162081 -0.32637292
0.043683287 -0.019113827 0.045155708 0.26885483 0.4211967 0.44206822 0.04119585 0.013797756
0.11276066 -0.5202858 0.26335302 0.26402384 1.5415002 0.23921394 0.12686066 -0.23603122
-0.36530554 0.5518888 -0.3786981 -0.7626867 0.17900157 -0.46979004 0.09067928 0.45469004
-0.018013712 -0.21498534 -0.42803252 0.1865192 -0.392182 0.18218923 -0.30845022 -0.0059910635
0.44374624 -0.03881923 0.039391752 -0.030648857 -0.71333987 0.0071913195 0.6881825 -0.020048795
-1.0253079 -0.7043487 -0.40580893 0.92096573 -0.9412371 0.29329643 1.0428596 -0.14876452
-0.11100111 0.5596022 -0.121370606 -0.31204313 0.13153656 -0.3572449 -0.071490385 0.9251231
-1.0962169 -0.42526665 0.0959242 0.07520671 0.5616676 0.04707437 0.60957634 0.12659527
-0.0019830773 -0.39627418 0.046775106 0.015856773 -0.025723005 -0.26139724 0.26113838 1.5335183
-0.3217941 -0.45090643 0.4744049 0.32728958 -0.26187187 0.2500124 -0.30400527 0.26933977
-0.1645608 0.33368018 0.098318 0.52549016 0.77373976 0.3499734 -0.21086816 -0.63851213
0.45354596 0.8725195 -0.023742063 -0.041758377 0.1742455 0.45358524 0.3021097 -0.039392777
-0.28645077 -0.02268017 -0.23617892 0.04065739 0.03604938 -0.0062004514 -1.1490862 -0.24446109
-0.31906864 0.15455756 0.34644544 -0.31482938 -0.316739 -0.028091881 -0.10680586 -0.22611718
-0.58101547 -0.44039354 -0.014669095 -0.5014649 -0.49429503 0.37133276 -0.47178605 0.48067924
0.07376913 -0.28058973 -0.10197902 0.11017615 -0.6434438 0.024324855 -0.5121795 0.45277438
00000000: 2db2 833e ef6a 2c3f eb7a 8c3e b53f 3abf
00000010: fe34 b3bf db22 4ebf e9cf be3c 61c3 003f
00000020: dcc0 fdbe 0011 5a3e 59dc 01bd a92d d2be
00000030: c001 7bbb 2362 c83e 8c62 863f 9289 fcbd
00000040: ef60 d1be b2ab 363f dcd5 dd3e 6654 07bf
00000050: af82 b5be 8452 f5bd 0aaf 84be fc2a ce3e
00000060: 6b8d 933e 0298 393e a7a9 c4be b343 343d
00000070: 539b 13be 3754 1d3d 8daa bdbc 8b45 023d
00000080: 56e3 c63e 4efa fdbd 99af 103f 98da 04be
00000090: 82ee ef3e 8ae8 c2be b2ac 1cbe d644 823e
000000a0: a19e c23d 81ab 493e c666 bebe 8eed ad3c
000000b0: e5e7 babd 58ee d8bb 45dd c43e cfdd a83d
000000c0: 86e0 2d3e 2797 333e d7fe 5cbd 432d 51bd
000000d0: 2eb0 4fbe e750 16be 2462 403e 5855 913c
000000e0: 650d 3f3e 8db0 d53d 7c33 c93d f907 11bf
000000f0: 43c2 9ebc 8dea 9dbd 045b 00bd 7080 b8ba
00000100: 382c 013c b3dc 4dc0 54b2 1fbe 5fc3 6c3f
00000110: ec86 ba3e 4b47 ef3e b43d 5f3e 4d18 de3e
00000120: 57b2 23bf 428b d6bd ba82 af3e 4e2c 41bf
00000130: 58b3 37bf c624 193d eff3 8fbd 6762 4dbf
00000140: 0a7e 7e3d 9e3c 003d 5237 0f3f 30bd efbe
00000150: 44b5 cf3e eccc a7bf 46c6 99be 7dc9 a13e
00000160: ab0e 4c3e 4b8b eabe 7b49 1b3e 4d7c 94be
00000170: 39aa 7abe 5918 263b 1aa8 35be 5b4d 023d
00000180: 7849 0dbd f01f 883b b4de 863e b586 db3d
00000190: e474 d93e 1137 703c 5f07 ad3b f1a4 973e
000001a0: 2ec8 ae3f 7a65 963b 9c12 00bf f6eb cf3e
000001b0: bb61 75bd 72ae aa3e 100c c3be 4fa4 093e
000001c0: f512 6a3f 8df4 83be fa98 20be fb1b 2c3f
000001d0: d925 b93e dc39 99be 4890 92be 6ba1 e23e
000001e0: 43c3 8dbe 0556 b5be 01d8 8f3e a9bd dabd
000001f0: c7ae 31bf ba8d 3abe f2d6 d33a 5a1a a7be
00000200: 3fed 323d 9a94 9cbc 31f5 383d 57a7 893e
00000210: 18a7 d73e c456 e23e fbbc 283d fc0f 623c
00000220: 10ef e63d 7331 05bf 35d6 863e 222e 873e
00000230: e14f c53f 80f4 743e c3e7 013e 2bb2 71be
00000240: 5409 bbbe 9648 0d3f b8e4 c1be 703f 43bf
00000250: 304c 373e 5288 f0be 0fb6 b93d 22cd e83e
00000260: 7e91 93bc 1e25 5cbe 1427 dbbe e4fe 3e3e
00000270: 14cc c8be d08f 3a3e 30ed 9dbe af50 c4bb
00000280: b532 e33e ea00 1fbd 3f59 213d 5013 fbbc
00000290: 719d 36bf 29a5 eb3b ba2c 303f 5f3d a4bc
000002a0: 4a3d 83bf 3250 34bf 30c6 cfbe 69c4 6b3f
000002b0: eaf4 70bf f32a 963e 6c7c 853f ba55 18be
000002c0: 8d54 e3bd 1742 0f3f 2791 f8bd 1ec4 9fbe
000002d0: 85b1 063e cee8 b6be 8d69 92bd ded4 6c3f
000002e0: d650 8cbf 8dbc d9be e873 c43d fa05 9a3d
000002f0: 73c9 0f3f 0ed1 403d 320d 1c3f 31a2 013e
00000300: 84f6 01bb 73e4 cabe 4197 3f3d 10e6 813c
00000310: 0db9 d2bc dcd5 85be eeb3 853e 544a c43f
00000320: 32c2 a4be 35dd e6be 33e5 f23e 8092 a73e
00000330: 1214 86be a001 803e 94a6 9bbe e7e6 893e
00000340: a082 28be 21d8 aa3e f35a c93d 8686 063f
00000350: cf13 463f b72f b33e d3ed 57be 8875 23bf
00000360: 2d37 e83e 705d 5f3f b77e c2bc d50a 2bbd
00000370: 6a6d 323e 533c e83e 1fae 9a3e 525a 21bd
00000380: ada9 92be c4cb b9bc e3d8 71be 5d88 263d
00000390: 84a8 133d 282d cbbb 4215 93bf 0254 7abe
000003a0: f75c a3be 5644 1e3e 4c61 b13e 5131 a1be
000003b0: 9d2b a2be f220 e6bc 08bd dabd 438b 67be
000003c0: 6ebd 14bf 437b e1be a556 70bc 0160 00bf
000003d0: 3d14 fdbe 541f be3e f18d f1be 971b f63e
000003e0: 4514 973d 75a9 8fbe 60da d0bd 09a4 e13d
000003f0: bcb8 24bf eb44 c73c 321e 03bf 0bd2 e73e

fcs1.bias f4 [400]
0.02474633 0.16600075 0.061533824 0.09842448 0.070753254 -0.05462112 0.041312072 -0.12026337
0.16063468 0.0099571785 0.13469282 -0.122359395 -0.15992491 0.020866504 -0.022304343 -0.07041717
0.09121409 -0.1132248 0.15254194 -0.16994551 0.035705533 -0.101643935 0.03777215 0.17190973
-0.020890193 0.04047213 -0.06852788 -0.08933498 -0.14890017 0.100474365 -0.0019353116 0.06028229
-0.1338825 -0.14492537 -0.1581599 -0.100328974 -0.022637153 -0.026264032 0.07654822 -0.083618924
0.16963275 -0.07919835 -0.16370198 0.13170181 -0.111896776 0.01658481 -0.01688853 -0.036328793
0.000113120004 -0.17117496 0.15654294 -0.1129823 0.106134415 -0.10290625 -0.042867694 -0.0040974226
-0.06859931 -0.07528808 -0.14651476 -0.119559415 -0.008160415 -0.050884593 -0.024531163 0.04442177
-0.022250658 -0.16479498 -0.06400871 0.05325854 0.062654816 0.084237665 0.009645345 0.119018406
-0.11907339 -0.14610636 -0.046422753 0.0011728815 0.12633583 -0.10041532 -0.1218935 -0.0047049695
0.04427145 -0.15876727 -0.07015914 -0.13674437 0.04067727 0.016283613 -0.15513262 -0.11544216
0.00804762 -0.046195544 -0.13465095 -0.052750405 -0.15974803 -0.019882275 -0.020624384 0.009148273
0.014817015 -0.030299576 0.1388517 -0.062274832 0.07871313 0.06571452 -0.02132514 -0.12756857
-0.14669663 0.04818323 0.053221717 0.10557515 -0.077016905 0.14054988 0.17407027 -0.027687253
-0.06782982 -0.054629464 -0.15132213 0.10035464 0.018957809 0.080195285 0.111837685 -0.073927805
0.0016696992 0.14072524 -0.13421872 0.15305893 0.090299405 -0.05465948 -0.14215401 0.09296611
0.08305107 -0.07882205 0.08306802 0.05166449 0.17135483 0.08904409 0.026876582 -0.17230439
0.14168158 0.14946994 -0.048339188 -0.013617562 -0.0067816917 -0.010629794 0.094617784 0.023524417
-0.151442 0.055986315 -0.10692962 0.049684666 0.07577309 -0.08309538 0.11790795 0.0044441414
-0.08748729 0.14915968 0.11141886 0.12729627 -0.1198548 -0.13274263 -0.15303884 0.112546876
0.101515114 -0.10612735 0.06828774 0.034989465 -0.07408619 0.00598388 -0.10502216 -0.0509638
0.06882748 0.024591058 -0.12954418 0.043813203 -0.034628943 -0.12790257 -0.16094185 0.0074605215
-0.12812138 -0.1063363 0.041886166 0.010580066 -0.07884727 0.027007047 0.08766299 -0.06727345
-0.062083412 0.030780954 0.042575974 0.060167786 0.118536405 -0.011656577 0.057832804 -0.100173555
-0.022191249 0.12890151 -0.16866162 -0.11452218 -0.15046386 0.14483395 -0.019660873 0.15943
-0.09382112 -0.04725315 0.11211161 -0.17356077 -0.16923359 -0.11653131 0.0029441111 -0.16018926
0.03222861 0.14720337 -0.035087824 -0.030654771 -0.15319306 -0.036815256 0.014400846 0.035631787
-0.057323743 -0.10638733 -0.09118883 0.120024376 -0.0947208 0.013593994 -0.030596456 -0.06995504
-0.00751984 0.1315638 0.1318099 -0.036361396 -0.035015993 -0.09702379 -0.08098994 -0.029735614
0.12918961 0.02481554 -0.14898159 -0.044759367 -0.15037712 0.16086785 0.015989354 -0.04419139
0.06980429 -0.16319923 -0.05747211 0.016329944 0.1256219 0.14198051 -0.0058357385 -0.17402199
0.032153778 -0.098207355 0.15700907 -0.046904545 -0.047390502 -0.025907435 0.1613281 0.07632332
00000000: d1b8 ca3c 1afc 293e e40a 7c3d c692 c93d
00000010: 15e7 903d 65ba 5fbd d936 293d a44c f6bd
00000020: 6b7d 243e 6f23 233c eaec 093e 9097 fabd
00000030: 5bc3 23be 3bf0 aa3c 99b7 b6bc e136 90bd
00000040: 74ce ba3d 67e2 e7bd f433 1c3e 3206 2ebe
00000050: f73f 123d b22a d0bd f8b6 1a3d 1b09 303e
00000060: e921 abbc 1bc6 253d 5858 8cbd 42f5 b6bd
00000070: 4979 18be 81c5 cd3d 48aa fdba 90ea 763d
00000080: 7e18 09be 5167 14be abf4 21be 4779 cdbd
00000090: 8d71 b9bc ab27 d7bc 50c5 9c3d 6640 abbd
000000a0: 35b4 2d3e bf32 a2bd 7ea1 27be d7dc 063e
000000b0: 232a e5bd dedc 873c d159 8abc 80cd 14bd
000000c0: d73a ed38 7d48 2fbe cb4c 203e 4463 e7bd
000000d0: 005d d93d 83c0 d2bd 0996 2fbd ac43 86bb
000000e0: cc7d 8cbd a330 9abd f707 16be 91db f4bd
000000f0: 43b3 05bc 5d6c 50bd 94f5 c8bc 9af3 353d
00000100: 0347 b6bc 04c0 28be 0017 83bd a025 5a3d
00000110: 2b51 803d cc84 ac3d 8207 1e3c ecbf f33d
00000120: c0dc f3bd e89c 15be c925 3ebd 5fbb 993a
00000130: 2e5e 013e 8ca6 cdbd 4da3 f9bd 252c 9abb
00000140: fb55 353d e393 22be 98af 8fbd b706 0cbe
00000150: 369d 263d 3665 853c 16db 1ebe f06c ecbd
00000160: 2ada 033c 8a37 3dbd f0e1 09be cf10 58bd
00000170: fd94 23be 27e0 a2bc 78f4 a8bc a3e2 153c
00000180: 11c3 723c d136 f8bc 242f 0e3e e513 7fbd
00000190: 5934 a13d 5695 863d 0fb2 aebc 56a1 02be
000001a0: a437 16be c75b 453d 04ff 593d c937 d83d
000001b0: 0abb 9dbd 4fec 0f3e 7a3f 323e 61d0 e2bc
000001c0: 5cea 8abd 25c3 5fbd 30f4 1abe bc86 cd3d
000001d0: 684d 9b3c 6d3d a43d 280b e53d 7667 97bd
000001e0: cfd9 da3a 471a 103e a270 09be 7bbb 1c3e
000001f0: e5ee b83d 9ee2 5fbd d290 11be 0465 be3d
00000200: ae16 aa3d 746d a1bd 911f aa3d 259e 533d
00000210: a477 2f3e bf5c b63d 472c dc3c 9070 30be
00000220: fa14 113e a60e 193e 50ff 45bd 321c 5fbc
00000230: f438 debb 9628 2ebc f8c6 c13d 47b6 c03c
00000240: 9d13 1bbe e851 653d ebfd dabd 2682 4b3d
00000250: ec2e 9b3d e92d aabd b979 f13d 29a0 913b
00000260: 892c b3bd 51bd 183e 922f e43d f459 023e
00000270: 6f76 f5bd afed 07be 37b6 1cbe fa7e e63d
00000280: 28e7 cf3d 4c59 d9bd 71da 8b3d 1d51 0f3d
00000290: 80ba 97bd 6c14 c43b dc15 d7bd 6bbf 50bd
000002a0: 6cf5 8c3d 3073 c93c 3ba7 04be 7975 333d
000002b0: 14d7 0dbd e4f8 02be f1cd 24be 6477 f43b
000002c0: 4032 03be d9c6 d9bd d490 2b3d 0358 2d3c
000002d0: ad7a a1bd e23d dd3c a788 b33d aac6 89bd
000002e0: 2d4b 7ebd 5728 fc3c 2564 2e3d 7f72 763d
000002f0: 37c3 f23d 3afb 3ebc 17e2 6c3d cb27 cdbd
00000300: 6cca b5bc c2fe 033e a2b5 2cbe 9b8a eabd
00000310: 3313 1abe 5a4f 143e d70f a1bc 9e41 233e
00000320: 4a25 c0bd 858c 41bd c69a e53d eab9 31be
00000330: 924b 2dbe f8a7 eebd fdf1 403b a708 24be
00000340: 2602 043d 7bbc 163e 40b8 0fbd b71f fbbc
00000350: a4de 1cbe 98cb 16bd 87f1 6b3c a3f2 113d
00000360: 4dcc 6abd 9ae1 d9bd 36c1 babd 57cf f53d
00000370: fbfc c1bd 58b9 5e3c 6ba5 fabc 9744 8fbd
00000380: fd68 f6bb a9b8 063e 2df9 063e b0ef 14bd
00000390: ee6c 0fbd 69b4 c6bd 0ede a5bd 1a98 f3bc
000003a0: 484a 043e f649 cb3c a18e 18be 9955 37bd
000003b0: 76fc 19be 8bba 243e 1bfc 823c 0802 35bd
000003c0: 8df5 8e3d b31d 27be e067 6bbd 60c6 853c
000003d0: 07a3 003e 5763 113e b939 bfbb d232 32be
000003e0: aeb3 033d f020 c9bd fcc6 203e fb1e 40bd
000003f0: 8b1c 42bd d43b d4bc 3233 253e 674f 9c3d

bn1.weight f4 [400]
0.36816645 0.71798205 0.36804968 0.41013262 0.34268248 0.30762485 0.4616136 0.41156444
0.55832744 0.44987956 1.0292679 0.33207542 0.35840634 0.5685669 0.4628229 0.309959
0.4776966 0.6159644 -0.0056682844 0.95240325 0.45317814 0.6993132 0.48339766 0.50151163
0.38644457 0.4533231 0.3669055 0.4434444 0.41449133 0.23316374 0.17155422 0.00025711505
0.3114006 0.32528415 0.5256344 0.5525294 0.41612253 0.42697036 0.43418428 0.44725046
0.3796268 0.5377386 0.116047844 0.6036516 0.37228033 0.30098942 0.5997222 0.53913397
0.29399356 0.49897072 0.47452706 0.8001289 0.45400664 0.4174122 0.30798417 0.32566875
0.46674687 0.44910693 0.8822461 0.4498873 0.2546664 0.272082 0.5456334 0.3419049
0.6022021 0.4079783 0.42207173 0.5759982 0.35305095 0.00018020812 0.38600516 0.5957033
0.889385 0.8774417 0.39299133 0.30321175 0.5918675 0.4149269 0.5989664 0.7193458
0.3927167 0.50486106 0.4299982 0.2906058 0.22813158 0.92208135 0.84906113 0.7657747
0.6319251 0.34150758 0.6950127 0.32892329 0.5159075 0.41168126 0.83070695 0.39468417
0.7268133 0.63732016 0.30673772 0.42201024 0.41860464 0.4881094 0.39166325 0.4985485
0.5419688 0.5704289 0.002857326 0.29775882 0.54195195 0.27821437 0.9308845 0.39448535
0.33857656 0.50658554 0.3223036 0.65594894 0.6521884 0.53843653 0.58900225 0.5542125
0.57833296 0.6720816 0.5771331 0.4176604 0.4450674 0.35300764 0.58260113 0.53123593
0.40552703 0.36298984 0.550513 0.48280343 0.34857842 0.49364254 0.5576663 0.39148462
0.36484012 0.73763835 0.59454715 0.33481276 0.50384575 0.43879023 0.4905068 0.34001347
0.6777707 0.46620923 0.35493553 0.31185815 0.021766 0.619361 0.34678647 0.33994782
0.3362177 0.4236384 1.0529783 0.50900334 0.18824764 0.44447517 0.7863855 0.44719997
0.23685555 0.6614605 0.6273843 0.5208291 0.4857697 0.33005643 0.32992977 0.44929972
0.4174709 0.2853715 0.2894476 0.32270893 0.8862819 0.47369274 0.45048928 0.43196523
0.34581402 0.40426612 0.41589576 0.82441944 0.42384136 0.4243878 0.38786238 0.57418424
0.3200129 0.3822107 0.2570762 0.45712543 0.23898971 0.7673176 0.34214434 0.36039266
0.37021068 0.5722896 0.5566006 0.35974818 0.43583256 0.2994755 0.65784836 0.39052585
0.3905044 0.5719302 0.42903763 1.0220135 0.92669106 0.81981957 0.66605103 0.37019542
0.31909505 0.54111856 0.9555479 0.3998174 0.3693925 0.48787457 0.45869023 0.38480437
0.79802245 0.4754294 0.47231486 0.3993388 0.62233984 0.53788966 0.25983924 0.6171393
0.41166908 0.82463336 0.36432573 -0.0014463125 0.49667424 0.42197987 0.53720576 0.15117164
0.1342869 0.23029897 0.27596766 0.31979093 0.47722277 0.35806996 0.8175392 0.507876
0.1493272 0.4593342 0.3277079 0.0758523 0.78984296 0.43618324 0.596152 0.4409152
0.3990286 0.6346447 0.32463828 0.7259542 0.5079904 0.81156534 0.3965113 0.23775893
00000000: 5080 bc3e accd 373f 0271 bc3e e7fc d13e
00000010: 1474 af3e 0181 9d3e 9e58 ec3e 93b8 d23e
00000020: 8cee 0e3f 9d56 e63e 0dbf 833f ca05 aa3e
00000030: 0981 b73e 9a8d 113f 20f7 ec3e f2b2 9e3e
00000040: a694 f43e d8af 1d3f 04bd b9bb b3d0 733f
00000050: f706 e83e 3106 333f e67f f73e 1163 003f
00000060: 10dc c53e f719 e83e 0adb bb3e 250b e33e
00000070: 3538 d43e 7ac2 6e3e e9ab 2f3e 66cd 8639
00000080: e66f 9f3e a58b a63e fa8f 063f 9172 0d3f
00000090: 030e d53e dc9b da3e 674d de3e 03fe e43e
000000a0: 725e c23e 3da9 093f 7eaa ed3d e988 1a3f
000000b0: 879b be3e 491b 9a3e 6587 193f af04 0a3f
000000c0: 5386 963e 1779 ff3e 36f5 f23e 3fd5 4c3f
000000d0: 8f73 e83e 0db7 d53e 1ab0 9d3e 0ebe a63e
000000e0: 72f9 ee3e 58f1 e53e e1da 613f a157 e63e
000000f0: a263 823e 554e 8b3e a1ae 0b3f 290e af3e
00000100: eb29 1a3f 88e2 d03e c919 d83e 9e74 133f
00000110: 18c3 b43e 40f6 3c39 78a2 c53e 0380 183f
00000120: bcae 633f 05a0 603f 2936 c93e 923e 9b3e
00000130: a184 173f 4c71 d43e dd55 193f 0c27 383f
00000140: 2a12 c93e 933e 013f b928 dc3e 49ca 943e
00000150: 539b 693e 860d 6c3f 125c 593f d009 443f
00000160: d8c5 213f 15da ae3e 5aec 313f a268 a83e
00000170: 8412 043f e3c7 d23e 36a9 543f 0b14 ca3e
00000180: 7010 3a3f 6a27 233f ba0c 9d3e ba11 d83e
00000190: 5953 d63e 7ae9 f93e 1688 c83e c041 ff3e
000001a0: 78be 0a3f a107 123f fa41 3b3b d873 983e
000001b0: 5dbd 0a3f 1d72 8e3e 724e 6e3f fcf9 c93e
000001c0: e859 ad3e 97af 013f fa04 a53e 45ec 273f
000001d0: d2f5 263f fad6 093f dac8 163f dfe0 0d3f
000001e0: a10d 143f 8a0d 2c3f ffbe 133f 95d7 d53e
000001f0: e0df e33e 6bbd b43e 5925 153f 14ff 073f
00000200: 3da1 cf3e ced9 b93e 6cee 0c3f 0332 f73e
00000210: df78 b23e b7be fc3e 38c3 0e3f ac70 c83e
00000220: 53cc ba3e ded5 3c3f 3e34 183f 946c ab3e
00000230: 09fc 003f 1da9 e03e b523 fb3e 3f16 ae3e
00000240: 6182 2d3f fab2 ee3e 1cba b53e dfab 9f3e
00000250: 9c4e b23c 718e 1e3f ff8d b13e a40d ae3e
00000260: ba24 ac3e 22e7 d83e fec7 863f 0b4e 023f
00000270: fdc3 403e 4092 e33e 8f50 493f 65f7 e43e
00000280: 438a 723e 7a55 293f 429c 203f 0e55 053f
00000290: ceb6 f83e 28fd a83e 8eec a83e 9d0a e63e
000002a0: bfbe d53e 371c 923e 7a32 943e 1b3a a53e
000002b0: 5fe3 623f db87 f23e 88a6 e63e 8c2a dd3e
000002c0: 890e b13e f8fb ce3e 4af0 d43e 270d 533f
000002d0: bc01 d93e 5c49 d93e e695 c63e bdfd 123f
000002e0: bbd8 a33e 1fb1 c33e 7e9f 833e 580c ea3e
000002f0: b8b9 743e ed6e 443f 8b2d af3e 6385 b83e
00000300: 418c bd3e 9281 123f 607d 0e3f ea30 b83e
00000310: 7225 df3e da54 993e c068 283f 01f3 c73e
00000320: 31f0 c73e 056a 123f d2aa db3e 57d1 823f
00000330: a03b 6d3f b2df 513f 5282 2a3f 418a bd3e
00000340: 6d60 a33e bf86 0a3f ca9e 743f deb4 cc3e
00000350: 0421 bd3e b2ca f93e 72d9 ea3e 1405 c53e
00000360: 334b 4c3f 7b6b f33e 41d3 f13e 2376 cc3e
00000370: aa51 1f3f 23b3 093f a609 853e d7fc 1d3f
00000380: 4ac6 d23e 2c1b 533f e788 ba3e 3292 bdba
00000390: 164c fe3e bf0d d83e 5186 093f bdcc 1a3e
000003a0: 8182 093e 7ed3 6b3e a24b 8d3e a3bb a33e
000003b0: 8b56 f43e f254 b73e 404a 513f 2904 023f
000003c0: 3be9 183e da2d eb3e 54c9 a73e 7358 9b3d
000003d0: 2633 4a3f 6953 df3e 6b9d 183f a3bf e13e
000003e0: 7a4d cc3e 1378 223f fd36 a63e 22d8 393f
000003f0: a90b 023f bfc2 4f3f 8703 cb3e 1477 733e

bn1.bias f4 [400]
-0.8490722 -0.42578304 -0.40644962 -0.63462436 -0.3946697 -0.78112805 -1.186768 -0.14829318
-1.1918168 -0.7529174 -0.10395763 -0.45918152 -0.15903188 -0.19967815 -0.07425976 -0.30040005
-0.5050975 -0.78582317 -0.062421415 -0.7076436 -0.9808812 -0.9530247 -0.5262863 -0.6030999
-0.51091987 -0.7352362 -0.51006764 -0.58950335 -0.52709305 -0.36973882 -0.9712581 -0.03059574
-0.49314564 -0.5290183 -0.3325442 -0.5404 -0.5387416 -0.75909793 -0.45024854 -0.38911116
-0.2499919 -0.6455348 -0.08144842 -1.1813014 -0.60550153 -0.6353796 -1.3765762 -0.3778912
-0.36477503 -0.44164103 -0.38044307 -0.15737179 -0.41657484 -0.6850072 -0.24179752 -0.481364
-0.348401 -0.984728 -0.4879257 -0.5543464 -0.20672108 -0.36202422 -1.0314502 -0.31820124
-1.1485052 -1.0278856 -0.37838098 -0.32934037 -0.0582318 -0.047299176 -0.48031336 -1.5868659
-1.521454 -0.12936729 -0.9860618 -0.43407992 -0.5870988 -0.24448317 -0.7696859 -1.0911214
-0.6722954 -0.5969198 -0.63536143 -1.0536275 -0.4933851 -0.6591258 -0.7494952 -0.65934366
-0.19797629 -0.7995684 -1.0805818 -0.6362084 -1.1464121 -0.38601974 -1.2413731 -0.75368315
-0.99584085 -1.1751623 -0.85674036 -0.008081301 -0.77289087 -1.1409893 -0.6066963 -0.62768334
-0.5764957 -0.6954446 -0.07370952 -0.39004523 -0.81039584 -0.44678465 -0.5021056 -0.54524344
-0.7420249 -0.52929276 0.05306056 -0.60039026 -0.2560421 -0.9318624 -1.0679857 -0.703842
-0.7767826 -0.2874077 -0.6699055 -0.49252972 -0.47443742 -0.28459707 -0.20380872 -1.1183094
-0.48035142 -0.76927376 -0.551099 -0.4634188 -0.591639 -0.43298376 -0.73249114 -0.40017486
-0.5312827 -0.6255239 -0.7308785 -0.629321 -1.0876311 -0.4687309 -0.43412578 -0.28440166
-0.5026066 -0.5842292 -0.37750623 -0.38384792 -0.28099722 -0.6284841 -0.35294667 -0.30923304
-0.47419095 -0.3816398 -0.7060302 -0.7633526 -0.7307047 -0.64344144 -0.34203783 -0.72973233
-0.50506014 -1.0073432 -0.55224246 -0.6619396 -0.5303693 -0.39363366 -0.42081845 -0.69990915
-0.59338063 -0.52641183 -0.49041003 -0.354909 -0.90102166 -0.2623494 -0.8978557 -0.24452884
-0.36254853 -0.7705275 -1.0516778 -1.0104861 -0.71405196 -0.37493834 -0.8693559 -0.9993887
-0.38807192 -1.071175 -0.26529303 -0.4469954 -0.1086386 -0.623948 -0.66204566 -0.5864657
-0.8416025 -0.122808814 -0.6208032 -0.4732391 -0.7542092 -0.5961335 -0.87959075 -0.3719025
-0.6887829 -0.7831072 -0.7761412 -0.5932086 -0.45454195 -1.0909153 -0.54427177 -0.24672768
-0.5437966 -1.1259062 -0.122092 -0.04798689 -0.5976626 -0.3614814 -0.32104623 -0.55752265
-0.4745977 -0.5204204 -0.5073473 -0.43371925 -0.36555794 -0.039033186 -0.2848107 -0.014026478
-0.3497553 -0.36363217 -0.40826583 -0.012806394 -0.65744114 -0.99224156 -0.32559103 -0.6228654
0.023782063 -0.680199 -0.42599064 -0.56135076 -0.44106606 -0.2606503 -0.44258416 -1.1342077
-0.26160148 -0.5007743 -0.46527043 -0.54432446 -0.7107602 -0.605909 -0.63891363 -0.5018867
-0.64276457 -0.44321492 -0.4787753 -1.2332851 -0.6638896 -0.7283752 -0.56902033 -0.8478905
00000000: cc5c 59bf 3c00 dabe 2a1a d0be be76 22bf
00000010: 2612 cabe 02f8 47bf 04e8 97bf 2bda 17be
00000020: 748d 98bf 32bf 40bf bde7 d4bd d719 ebbe
00000030: 41d9 22be 6e78 4cbe 8015 98bd 09ce 99be
00000040: 124e 01bf b52b 49bf 99ad 7fbd 2228 35bf
00000050: 081b 7bbf 6df9 73bf b3ba 06bf c164 1abf
00000060: a5cb 02bf 7138 3cbf cb93 02bf b1e9 16bf
00000070: 92ef 06bf 684e bdbe 5fa4 78bf eba3 fabc
00000080: 967d fcbe be6d 07bf 3c43 aabe a857 0abf
00000090: f8ea 09bf 3e54 42bf fa86 e6be 9439 c7be
000000a0: e0fd 7fbe c541 25bf 6ece a6bd e234 97bf
000000b0: 2602 1bbf 3da8 22bf a633 b0bf f57a c1be
000000c0: cbc3 babe c61e e2be 6fc9 c2be 1226 21be
000000d0: 4c49 d5be a25c 2fbf c599 77be 5875 f6be
000000e0: 9e61 b2be 2217 7cbf 66d1 f9be a5e9 0dbf
000000f0: b1ae 53be 3d5b b9be 8f06 84bf 46eb a2be
00000100: 3802 93bf c191 83bf 27bb c1be 4d9f a8be
00000110: 7884 6ebd c8bc 41bd a2eb f5be 6c1e cbbf
00000120: 01bf c2bf dc78 04be 8c6e 7cbf b93f debe
00000130: 1b4c 16bf cc59 7abe 230a 45bf dea9 8bbf
00000140: 8d1b 2cbf bccf 18bf 0ca7 22bf 44dd 86bf
00000150: f99c fcbe 78bc 28bf ebde 3fbf bfca 28bf
00000160: 4cba 4abe 84b0 4cbf 8150 8abf 8ede 22bf
00000170: a2bd 92bf 61a4 c5be 50e5 9ebf 61f1 40bf
00000180: 6def 7ebf b86b 96bf 5653 5bbf 6f67 04bc
00000190: 2ddc 45bf f00b 92bf 7350 1bbf dbaf 20bf
000001a0: 3995 13bf a808 32bf 04f5 96bd 02b4 c7be
000001b0: 1a76 4fbf f5c0 e4be fe89 00bf 1395 0bbf
000001c0: 58f5 3dbf bb7f 07bf 0856 593d 2db3 19bf
000001d0: f317 83be 898e 6ebf c1b3 88bf fd2e 34bf
000001e0: 39db 46bf 1a27 93be ed7e 2bbf db2c fcbe
000001f0: 76e9 f2be b5b6 91be 3cb3 50be c324 8fbf
00000200: 9ff0 f5be 20ef 44bf d314 0dbf 3b45 edbe
00000210: a775 17bf 0cb0 ddbe 8a84 3bbf b8e3 ccbe
00000220: 2502 08bf 5622 20bf da1a 3bbf 2e1b 21bf
00000230: 7f37 8bbf 7ffd efbe bc45 debe 189d 91be
00000240: d3aa 00bf 0b90 15bf 7f48 c1be b787 c4be
00000250: dede 8fbe 55e4 20bf 6db5 b4be cb53 9ebe
00000260: 28c9 f2be 4b66 c3be 65be 34bf 136b 43bf
00000270: 770f 3bbf 94b8 24bf 951f afbe bdcf 3abf
00000280: 9f4b 01bf 9ff0 80bf c35f 0dbf e074 29bf
00000290: 48c6 07bf 5a8a c9be 8475 d7be 3f2d 33bf
000002a0: cbe7 17bf edc2 06bf 0617 fbbe a2b6 b5be
000002b0: 5ba9 66bf a952 86be dfd9 65bf c565 7abe
000002c0: f69f b9be 4a41 45bf 619d 86bf 9c57 81bf
000002d0: 1ccc 36bf ebf7 bfbe 1c8e 5ebf f0d7 7fbf
000002e0: 5db1 c6be 431c 89bf 7dd4 87be 95dc e4be
000002f0: ea7d debd 0ebb 1fbf d37b 29bf 9e22 16bf
00000300: 4373 57bf 3083 fbbd f5ec 1ebf 654c f2be
00000310: db13 41bf 349c 18bf dc2c 61bf 016a bebe
00000320: 1354 30bf b779 48bf 31b1 46bf 85dc 17bf
00000330: b9b9 e8be 1da3 8bbf 6555 0bbf 2ea6 7cbe
00000340: 4136 0bbf b21d 90bf 5f0b fabd e78d 44bd
00000350: 6b00 19bf 1714 b9be 2c60 a4be ceb9 0ebf
00000360: 78fe f2be 453a 05bf 83e1 01bf 7310 debe
00000370: 692a bbbe 43e1 1fbd b5d2 91be 50cf 65bc
00000380: 2013 b3be ff2d babe 3808 d1be e9d1 51bc
00000390: 104e 28bf 8b03 7ebf deb3 a6be 1b74 1fbf
000003a0: 9ad2 c23c 8621 2ebf 721b dabe afb4 0fbf
000003b0: 69d3 e1be f573 85be 649a e2be b82d 91bf
000003c0: a1f0 85be bf32 00bf ed37 eebe d958 0bbf
000003d0: 61f4 35bf da1c 1bbf d88f 23bf a67b 00bf
000003e0: 388c 24bf 11ed e2be 0922 f5be 49dc 9dbf
000003f0: abf4 29bf cc76 3abf 51ab 11bf 5a0f 59bf

bn1.running_mean f4 [400]
-6.7645144 -1.5441526 -2.7617908 0.1057058 0.8390383 -1.6794721 -8.2908945 -0.121512234
1.0967273 1.3476446 1.1284144 2.4464617 -0.933709 2.7731907 1.9075458 1.3576845
2.512646 2.0567124 0.13550308 -2.0904424 -0.11539771 -2.3897662 1.0362685 4.1700335
2.7232282 -3.3306785 4.4524217 -0.7972191 -8.273068 4.645508 -0.10845812 0.39521724
-2.2273664 -1.8136001 -1.4344003 -2.4822671 -2.8413126 2.4336998 1.6736029 -0.067150414
0.2098194 -2.3167152 6.518116 0.18900238 -5.315446 -1.1965568 -0.9395028 1.159712
3.8271806 3.879743 -1.6118819 -1.1785825 6.042107 -3.379247 3.9175816 3.3016574
-1.7914983 -9.739122 1.5440665 1.4659504 -2.1214185 -1.0217868 -8.065367 -2.978658
-1.5405697 1.7563139 1.8843794 2.201508 4.053732 0.08230158 3.7280881 -0.59557587
-0.56403476 1.8387858 -8.40078 -2.7997332 1.4007874 5.218155 -0.44324052 0.33687958
-2.335006 -3.9931717 1.5353962 -0.94769317 -0.49859777 -0.4806682 -0.38286307 3.5285046
0.86308396 -6.8658543 -2.3748097 -1.3750029 -5.84283 0.5216551 -2.0548644 2.7741127
-1.2800214 -0.28782955 -6.031735 4.000967 -1.8698838 -6.8055162 1.6377455 0.5420327
-3.3323927 0.44257155 -0.6825006 0.28234664 -1.3810681 -1.5553784 -1.1717846 -0.7824249
5.529617 0.45619684 5.2782474 4.2712607 -0.72902083 -1.6899267 -2.6795213 2.0551834
-2.5866544 1.299363 0.67157215 0.37422588 -6.3041906 3.8903356 2.0220962 -2.7670357
-0.72269404 -1.690914 0.0786849 5.364839 -1.7576469 -4.0044866 -0.41285318 -0.1367471
-0.04446137 4.402443 -0.9851631 -0.12590094 0.69665 -1.7789273 1.3462273 -0.66930383
-0.74586177 3.3603566 -2.880646 -4.874019 0.32954228 1.8030477 -1.8399342 -1.013245
8.075013 1.6744719 -0.8477269 -2.2397091 -4.585747 -4.888707 -1.4495193 -1.1085134
-1.2578562 0.25907287 0.040344916 -0.7885012 1.9357007 0.5829853 -0.107641876 -4.1232557
0.49891567 -7.261226 -1.7821885 3.0605662 0.68797386 -1.4106097 -3.6941516 3.3984056
2.7823224 -4.3082986 -8.278709 -1.0284137 -4.4629097 -1.618357 3.764089 -2.0250823
-0.6901584 -5.08742 0.115234114 2.6438682 3.531114 0.36209482 2.7825801 -0.13245365
-3.5779138 0.7863851 1.4628842 -0.6452838 -4.136606 -2.3363843 -1.3064884 0.24648471
-7.5535207 -1.3259594 8.133635 0.5226217 -0.45964715 -0.83483595 -0.79800844 5.4111013
-0.9997369 -0.054899305 2.8245425 -0.37177193 -3.1146724 0.31424037 1.2121303 0.7205328
0.30664778 0.62779903 -1.8429387 -0.28592002 -0.75402784 0.6253774 1.5839213 0.2955674
0.6757836 0.22568206 -3.196408 -0.38394985 -1.322476 -11.709996 -2.2717786 -0.664814
-2.091982 3.4725943 -0.8802193 -0.83144474 -2.4198182 2.4140713 -0.21195717 -1.0822805
-1.3382201 0.2164621 0.0837144 -0.22162135 0.870555 -2.656661 -1.0573926 -4.2901974
-1.3480096 0.4959185 1.1151841 -0.6895348 -0.8343544 0.15284748 0.934519 -1.6066759
00000000: e776 d8c0 cba6 c5bf 2ec1 30c0 487c d83d
00000010: 37cb 563f f1f8 d6bf 81a7 04c1 68db f8bd
00000020: 8f61 8c3f 9e7f ac3f e26f 903f d492 1c40
00000030: 8e07 6fbf f57b 3140 762a f43f 9bc8 ad3f
00000040: 31cf 2040 2da1 0340 52c1 0a3e cfc9 05c0
00000050: a255 ecbd eef1 18c0 72a4 843f ea70 8540
00000060: 5f49 2e40 d629 55c0 3d7a 8e40 8d16 4cbf
00000070: 7d5e 04c1 00a8 9440 4a1f debd ea59 ca3e
00000080: 2c8d 0ec0 0c24 e8bf 6e9a b7bf 77dd 1ec0
00000090: 11d8 35c0 bdc1 1b40 9f38 d63f 2886 89bd
000000a0: e6da 563e 1045 14c0 6894 d040 d789 413e
000000b0: 2218 aac0 c628 99bf 4183 70bf 7171 943f
000000c0: 87f0 7440 b64d 7840 2552 cebf cbdb 96bf
000000d0: f158 c140 9545 58c0 a8b9 7a40 5b4e 5340
000000e0: d14f e5bf 72d3 1bc1 f9a3 c53f 43a4 bb3f
000000f0: 52c5 07c0 e9c9 82bf be0b 01c1 55a2 3ec0
00000100: 6331 c5bf e5ce e03f 5833 f13f 82e5 0c40
00000110: 2cb8 8140 bb8d a83d ff98 6e40 a977 18bf
00000120: 9564 10bf 555d eb3f 9869 06c1 d42e 33c0
00000130: 004d b33f 20fb a640 6cf0 e2be 7b7b ac3e
00000140: bd70 15c0 2090 7fc0 dd87 c43f 059c 72bf
00000150: 3548 ffbe 241a f6be a106 c4be 05d3 6140
00000160: 12f3 5c3f 14b5 dbc0 e2fc 17c0 1800 b0bf
00000170: 77f8 bac0 308b 053f e682 03c0 108b 3140
00000180: bed7 a3bf 655e 93be f903 c1c0 ec07 8040
00000190: 5a58 efbf cac6 d9c0 a5a1 d13f a8c2 0a3f
000001a0: ec45 55c0 bd98 e23e 5cb8 2ebf bd8f 903e
000001b0: d7c6 b0bf a416 c7bf 0afd 95bf 004d 48bf
000001c0: 9ff2 b040 a292 e93e 67e7 a840 2bae 8840
000001d0: 1ca1 3abf 854f d8bf 477d 2bc0 2088 0340
000001e0: bf8b 25c0 8751 a63f 27ec 2b3f 899a bf3e
000001f0: eebb c9c0 42fb 7840 066a 0140 1d17 31c0
00000200: 7a02 39bf df6f d8bf 8d25 a13d c3ac ab40
00000210: 93fa e0bf c124 80c0 7e61 d3be 6f07 0cbe
00000220: 201d 36bd d0e0 8c40 a633 7cbf 2dec 00be
00000230: a857 323f e4b3 e3bf 2d51 ac3f 7f57 2bbf
00000240: ccf0 3ebf 1510 5740 815c 38c0 f7f7 9bc0
00000250: c4b9 a83e 44ca e63f f782 ebbf 03b2 81bf
00000260: 4133 0141 1855 d63f a104 59bf 6557 0fc0
00000270: 70be 92c0 4a70 9cc0 d989 b9bf c4e3 8dbf
00000280: 6f01 a1bf 33a5 843e b640 253d 37db 49bf
00000290: 0ac5 f73f 863e 153f 5873 dcbd b6f1 83c0
000002a0: e071 ff3e f75b e8c0 c11e e4bf 51e0 4340
000002b0: 0e1f 303f dc8e b4bf fb6c 6cc0 7a7f 5940
000002c0: 9211 3240 95dd 89c0 9875 04c1 0fa3 83bf
000002d0: 28d0 8ec0 5226 cfbf d6e6 7040 f39a 01c0
000002e0: 39ae 30bf 25cc a2c0 ddff eb3d 2335 2940
000002f0: c6fd 6140 7e64 b93e cb15 3240 eea1 07be
00000300: 8afc 64c0 8950 493f ca3f bb3f 5231 25bf
00000310: 145f 84c0 5287 15c0 033b a7bf 7d66 7c3e
00000320: 71b6 f1c0 0ab9 a9bf 5e23 0241 89ca 053f
00000330: df56 ebbe cfb7 55bf 484a 4cbf be27 ad40
00000340: c2ee 7fbf 18de 60bd 4ec5 3440 e458 bebe
00000350: cb56 47c0 1de4 a03e 1627 9b3f d674 383f
00000360: f000 9d3e 70b7 203f 6ae5 ebbf 1c64 92be
00000370: f807 41bf bc18 203f efbd ca3f 9c54 973e
00000380: 2700 2d3f 3319 673e f391 4cc0 1395 c4be
00000390: e546 a9bf 255c 3bc1 d264 11c0 4031 2abf
000003a0: 08e3 05c0 fc3e 5e40 0d56 61bf 90d9 54bf
000003b0: 4dde 1ac0 2580 1a40 4d0b 59be 2b88 8abf
000003c0: cc4a abbf 3ea8 5d3e 7572 ab3d b5f0 62be
000003d0: b1dc 5e3f bc06 2ac0 a458 87bf 4c49 89c0
000003e0: 948b acbf 08e9 fd3e 5abe 8e3f 5a85 30bf
000003f0: 4098 55bf 0d84 1c3e a33c 6f3f 8ea7 cdbf

bn1.running_var f4 [400]
7.6025214 7.9426622 29.581867 19.813278 6.783582 16.42953 8.183525 25.001892
10.889454 10.668586 1.464817 11.958097 27.82586 11.888645 8.063223 14.785092
18.904902 8.166969 0.19724639 5.63003 12.680438 7.793982 8.235549 29.380632
10.548081 27.8644 21.038786 13.341116 11.83307 12.885696 23.067951 0.0720444
10.687029 9.754232 4.0969586 15.265952 11.565148 20.864376 21.240711 26.341806
9.739471 7.6307497 15.130446 7.423343 8.070407 9.126843 5.279759 22.908043
27.79123 13.182587 8.684468 1.2541903 13.277129 24.534159 32.615734 15.439996
8.274305 13.977235 5.2255807 10.983018 17.527702 26.859913 14.948227 28.000141
7.529708 14.427082 18.373661 14.997486 19.544983 0.12584998 14.01162 20.983385
4.5427127 2.7600563 10.877144 8.517245 10.136174 26.10347 8.597625 10.652709
14.25494 7.165399 12.6948595 7.4545135 55.466816 10.090661 4.8928914 7.968683
4.594262 8.352784 9.623298 23.594296 8.164946 26.055952 6.0976458 10.9889555
1.7899985 16.007793 12.835409 8.166495 8.608606 9.934701 10.734819 6.079659
28.713383 17.24944 0.8628889 16.22007 11.353021 10.49249 4.9990726 9.649888
16.925867 10.650549 10.037322 38.411854 14.417789 4.570551 14.63558 24.254135
8.640706 3.5099912 5.7070427 11.6087265 10.39265 16.780857 23.233212 7.693895
20.320414 17.398209 3.223073 23.456833 9.749476 23.141811 13.118041 65.394135
23.88689 10.966683 10.565537 21.186003 13.097135 19.806683 26.764803 31.781338
8.487243 6.5105386 40.94225 12.226684 3.8093503 12.236811 10.449333 10.523994
8.924978 34.31021 2.2617083 9.302368 19.503119 9.440229 10.461546 15.759312
8.617265 10.318471 7.824777 7.675832 10.4309635 19.423784 13.806002 29.151114
11.420966 12.179846 11.164021 13.790406 4.4504876 27.869549 12.124078 13.268557
24.286709 11.920992 11.800826 5.5074677 15.780411 14.937957 7.8201404 9.454864
15.093608 10.464687 19.417984 22.095232 11.942432 7.6394634 17.366417 14.051804
24.40787 4.435992 16.548044 9.031664 48.466187 40.594353 28.957724 17.713707
9.416199 9.297303 13.951338 1.7302381 1.2544737 9.939516 21.12083 17.628382
22.291021 17.430956 3.6984684 14.446293 16.523697 6.8442454 36.318924 30.91839
9.814149 53.77765 18.10024 8.066453 11.825232 3.1722288 5.313247 15.026773
14.324001 7.610203 7.011467 0.2851805 15.245692 12.680048 24.244112 28.215927
5.3750663 11.27543 15.194079 13.20034 25.059746 13.063426 6.809195 8.995459
12.554265 10.394337 13.811265 10.704777 27.270977 26.46123 15.42442 36.807022
12.565668 4.763788 16.010832 9.026601 8.693887 3.4977212 18.35435 7.8438087
00000000: db47 f340 4a2a fe40 aaa7 ec41 9881 9e41
00000010: 1b13 d940 ad6f 8341 b8ef 0241 e003 c841
00000020: 343b 2e41 87b2 2a41 207f bb3f 5e54 3f41
00000030: 5c9b de41 e437 3e41 f602 0141 bd8f 6c41
00000040: 3d3d 9741 e8ab 0241 f5fa 493e 3529 b440
00000050: 13e3 4a41 4d68 f940 cfc4 0341 890b eb41
00000060: f1c4 2841 4bea de41 6f4f a841 3675 5541
00000070: 4154 3d41 d02b 4e41 2a8b b841 048c 933d
00000080: 12fe 2a41 5611 1c41 491a 8340 5741 7441
00000090: d90a 3941 3eea a641 faec a941 05bc d241
000000a0: e0d4 1b41 1a2f f440 4f16 7241 078c ed40
000000b0: 6320 0141 8d07 1241 c9f3 a840 ac43 b741
000000c0: 7054 de41 e0eb 5241 95f3 0a41 4f89 a03f
000000d0: 1f6f 5441 f545 c441 8376 0242 390a 7741
000000e0: 8e63 0441 c1a2 5f41 f537 a740 71ba 2f41
000000f0: bc38 8c41 1ae1 d641 f02b 6f41 4a00 e041
00000100: 5ef3 f040 54d5 6641 42fd 9241 b4f5 6f41
00000110: 205c 9c41 d1de 003e 982f 6041 f9dd a741
00000120: e75d 9140 c3a4 3040 c808 2e41 a346 0841
00000130: c52d 2241 e8d3 d041 df8f 0941 7f71 2a41
00000140: 3c14 6441 f34a e540 251e 4b41 608b ee40
00000150: 05de 5d42 5973 2141 9192 9c40 73ff fe40
00000160: 3204 9340 01a5 0541 07f9 1941 1ec1 bc41
00000170: 9ea3 0241 9772 d041 ea1f c340 c3d2 2f41
00000180: ac1e e53f f60f 8041 d65d 4d41 f7a9 0241
00000190: dabc 0941 89f4 1e41 d2c1 2b41 918c c240
000001a0: 02b5 e541 dafe 8941 49e6 5c3f b4c2 8141
000001b0: f9a5 3541 3de1 2741 67f8 9f40 f165 1a41
000001c0: 2d68 8741 a668 2a41 df98 2041 bda5 1942
000001d0: 44af 6641 f441 9240 562b 6a41 7808 c241
000001e0: 5540 0a41 b2a3 6040 18a0 b640 58bd 3941
000001f0: 4b48 2641 323f 8641 9edd b941 6334 f640
00000200: 3590 a241 882f 8b41 d446 4e40 98a7 bb41
00000210: dbfd 1b41 6e22 b941 7fe3 5141 ccc9 8242
00000220: 5a18 bf41 8977 2f41 710c 2941 ef7c a941
00000230: dd8d 5141 1674 9e41 511e d641 2e40 fe41
00000240: bfcb 0741 5556 d040 ddc4 2342 7fa0 4341
00000250: 65cc 7340 fac9 4341 7830 2741 4862 2841
00000260: b6cc 0e41 a83d 0942 d4bf 1040 80d6 1441
00000270: 6306 9c41 2e0b 1741 7e62 2741 2426 7c41
00000280: 51e0 0941 7518 2541 9364 fa40 6aa0 f540
00000290: 3ae5 2641 e963 9b41 62e5 5c41 7b35 e941
000002a0: 47bc 3641 a6e0 4241 d49f 3241 81a5 5c41
000002b0: 656a 8e40 d6f4 de41 39fc 4141 024c 5441
000002c0: 2e4b c241 62bc 3e41 2fd0 3c41 2d3d b040
000002d0: 907c 7c41 df01 6f41 973e fa40 1f47 1741
000002e0: 6b7f 7141 5c6f 2741 0858 9b41 09c3 b041
000002f0: 3414 3f41 7c76 f440 6cee 8a41 30d4 6041
00000300: 5143 c341 a5f3 8d40 6562 8441 b281 1041
00000310: 60dd 4142 9e60 2242 6ba9 e741 acb5 8d41
00000320: c0a8 1641 c1c1 1441 ae38 5f41 7178 dd3f
00000330: 9892 a03f 4208 1f41 76f7 a841 ed06 8d41
00000340: 0354 b241 9972 8b41 b5b3 6c40 0424 6741
00000350: 8830 8441 0f04 db40 9446 1142 dd58 f741
00000360: c106 1d41 501c 5742 4bcd 9041 3110 0141
00000370: 2634 3d41 cc05 4b40 1f06 aa40 aa6d 7041
00000380: 1c2f 6541 c886 f340 f05d e040 2e03 923e
00000390: 5bee 7341 7ae1 4a41 f1f3 c141 38ba e141
000003a0: 8b00 ac40 2968 3441 f31a 7341 9834 5341
000003b0: 5c7a c841 cb03 5141 ede4 d940 66ed 0f41
000003c0: 45de 4841 344f 2641 f1fa 5c41 c446 2b41
000003d0: f62a da41 99b0 d341 6dca 7641 643a 1342
000003e0: fa0c 4941 f470 9840 2f16 8041 f56c 1041
000003f0: 291a 0b41 aada 5f40 b5d5 9241 7b00 fb40

fc2.weight f4 [300, 404]
-0.12579675 -0.097508565 0.028861474 -0.025520138 -0.06289758 0.09176891 0.0022903627 0.15219873
-0.14472379 0.022776194 -0.07122055 -0.040920686 -0.17435999 0.1798 0.05122267 -0.13188669
-0.22387093 -0.010829599 -0.033839993 -0.1040631 0.091550924 -0.14985666 -0.14540087 -0.013873375
0.043808863 -0.07661915 -0.22852969 0.043239865 -0.21290728 0.2336073 -0.07839555 -0.0062458846
0.124293976 0.02956126 0.17143226 0.103140526 -0.103136495 0.118642114 0.01198788 0.02533857
0.15868406 0.043038968 -0.26029533 -0.11115911 0.11937196 0.03170596 -0.0683638 0.09213652
-0.06977962 -0.13784167 -0.069714576 -0.23180984 -0.009076015 -0.09685399 -0.10540597 -0.19014023
0.052329503 0.073773414 -0.1603192 -0.09782363 0.120988645 -0.09913692 -0.11647781 -0.10143018
-0.0015435987 -0.1378089 0.0952033 -0.16789697 -0.15912685 0.011782763 -0.19639121 0.03404173
-0.14221133 0.0727107 0.050918728 0.14992027 -0.18255185 -0.027012473 -0.17601082 0.029280644
-0.109660365 -0.11339772 -0.03833412 -0.0047055166 0.053487856 -0.18263592 -0.041367453 0.012617283
0.0988488 0.041443326 -0.14659616 0.038952384 0.028367488 0.3976767 -0.2317106 -0.0024710495
-0.20795582 -0.12336491 -0.09974138 -0.21286719 0.032790735 -0.055307932 -0.23001559 -0.030982247
-0.0076617682 -0.16226475 0.04183939 -0.19769058 0.014569078 -0.0383775 -0.33442807 -0.0072109024
-0.18273401 0.03199872 0.15224703 0.16547619 0.08797565 0.048782963 -0.056025177 -0.22146378
-0.10359266 0.100369096 -0.17296635 -0.027813025 0.11882784 0.018915199 -0.279618 -0.018413458
-0.15110841 -0.03975839 -0.10494172 -0.017914431 -0.13927034 0.04853154 -0.07191151 -0.16263512
-0.17637835 -0.030417278 -0.04877608 -0.29964668 0.14858401 -0.17870727 -0.21389621 -0.16653128
0.13217399 0.045051396 -0.07956008 -0.10282565 -0.050200645 -0.13296565 -0.20972304 -0.25040308
0.0118908435 0.19533171 -0.23020388 -0.25153527 0.14414467 -0.111347005 -0.16458893 -0.0030260033
-0.2776107 0.03700843 -0.15079467 -0.13516837 -0.2666373 -0.10842607 0.18430948 0.07986762
-0.075482085 -0.05554757 -0.07860911 0.039966647 -0.12496883 0.27475652 0.03231721 -0.11931301
-0.11220994 0.09979072 -0.039722096 -0.025834903 -0.06117297 -0.018040365 -0.111964256 -0.03282807
-0.09125201 0.06030909 0.1943834 0.13866383 -0.14551856 0.05434768 0.049982008 0.02961862
-0.15620692 -0.018329738 -0.110161066 0.06026142 0.072005294 -0.09502258 -0.23232852 0.12288909
-0.13635999 0.041875515 -0.18249637 0.019657157 -0.08933342 -0.15703961 -0.019651202 -0.06685022
-0.115420245 -0.13424042 0.0973539 -0.40623254 0.09393938 -0.0512562 0.12238323 -0.085630514
-0.19465747 0.071650565 -0.0023935018 0.03723397 -0.14352319 -0.009592068 -0.104206525 -0.046636477
-0.09413167 -0.024745481 0.21071047 0.027348295 0.009483044 -0.17108779 -0.09111433 0.2719187
0.24230306 0.116797864 0.022636313 -0.14124835 0.05552412 0.20718022 -0.22028013 0.12448697
-0.057753347 -0.12308653 -0.123745404 -0.19236064 0.020984683 -0.03611008 -0.0820354 -0.11915405
-0.23238774 -0.08062548 -0.10047044 0.1851547 0.013689433 -0.08243011 0.041378606 -0.053798627
00000000: ddd0 00be 92b2 c7bd e66e ec3c 9c0f d1bc
00000010: 72d0 80bd 57f1 bb3d e919 163b fcd9 1b3e
00000020: 7932 14be 2495 ba3c 14dc 91bd 739c 27bd
00000030: 6d8b 32be 7e1d 383e ddce 513d 4e0d 07be
00000040: 6c3e 65be a16e 31bc ce9b 0abd 091f d5bd
00000050: 0d7f bb3d 0674 19be f7e3 14be 274d 63bc
00000060: ec70 333d 80ea 9cbd b003 6abe 491c 313d
00000070: 5e04 5abe c136 6f3e d98d a0bd 47aa ccbb
00000080: d78d fe3d 752a f23c f08b 2f3e 573b d33d
00000090: 3a39 d3bd a3fa f23d d068 443c d592 cf3c
000000a0: 137e 223e a149 303d 6e45 85be 63a7 e3bd
000000b0: 4979 f43d 1cde 013d 5202 8cbd 12b2 bc3d
000000c0: 9ee8 8ebd 5e26 0dbe 84c6 8ebd 8f5f 6dbe
000000d0: 91b3 14bc 625b c6bd 16df d7bd 1fb4 42be
000000e0: 7657 563d 8416 973d b72a 24be c157 c8bd
000000f0: e5c8 f73d 4c08 cbbd eb8b eebd a0ba cfbd
00000100: 9452 caba c71d 0dbe f3f9 c23d 2fed 2bbe
00000110: 26f2 22be 7d0c 413c c71a 49be 576f 0b3d
00000120: d99f 11be 59e9 943d 2890 503d b384 193e
00000130: dfee 3abe 4349 ddbc 2e3c 34be f6dd ef3c
00000140: 9d95 e0bd 103d e8bd 3d04 1dbd bc30 9abb
00000150: 1516 5b3d e904 3bbe eb70 29bd b8b8 4e3c
00000160: 3d71 ca3d 7ac0 293d 4e1d 16be 898c 1f3d
00000170: ef62 e83c 489c cb3e 8b45 6dbe 55f1 21bb
00000180: 5ff2 54be bea6 fcbd 3545 ccbd dbf9 59be
00000190: 944f 063d 928a 62bd 3589 6bbe 7bce fdbc
000001a0: 920f fbbb bb28 26be c85f 2b3d 666f 4abe
000001b0: 24b3 6e3c ba31 1dbd 283a abbe 6f49 ecbb
000001c0: a01e 3bbe 1711 033d a5e6 1b3e 9772 293e
000001d0: 942c b43d a5d0 473d a87a 65bd 67c7 62be
000001e0: 6328 d4bd 508e cd3d 171e 31be 24d8 e3bc
000001f0: 035c f33d 0cf4 9a3c 172a 8fbe d2d7 96bc
00000200: 2abc 1abe b2d9 22bd afeb d6bd 49c1 92bc
00000210: e29c 0ebe 02c9 463d 5746 93bd d289 26be
00000220: 879c 34be a82d f9bc 6dc9 47bd 4a6b 99be
00000230: 6826 183e 0aff 36be 9c07 5bbe 2d87 2abe
00000240: 9e58 073e d087 383d 65f0 a2bd 4196 d2bd
00000250: 319f 4dbd 2628 08be a3c1 56be d534 80be
00000260: d0d1 423c 0905 483e 91ba 6bbe 3bc9 80be
00000270: a99a 133e e609 e4bd 008a 28be e94f 46bb
00000280: fd22 8ebe 2796 173d eb69 1abe 9469 0abe
00000290: af84 88be 7d0e debd a0bb 3c3e a291 a33d
000002a0: 5a96 9abd d985 63bd d0fd a0bd 11b4 233d
000002b0: a8ef ffbd e3ac 8c3e 0d5f 043d 615a f4bd
000002c0: 53ce e5bd 145f cc3d a3b3 22bd b8a3 d3bc
000002d0: 8290 7abd 63c9 93bc 844d e5bd ba76 06bd
000002e0: 55e2 babd aa06 773d 710c 473e e4fd 0d3e
000002f0: d102 15be ac9b 5e3d efb9 4c3d c0a2 f23c
00000300: b5f4 1fbe 3f28 96bc 209c e1bd aed4 763d
00000310: 8377 933d 339b c2bd 87e7 6dbe 46ad fb3d
00000320: f4a1 0bbe a985 2b3d 54e0 3abe 0c08 a13c
00000330: 71f4 b6bd fece 20be 8ffb a0bc c5e8 88bd
00000340: 7361 ecbd 5276 09be 7b61 c73d b6fd cfbe
00000350: 4a63 c03d 05f2 51bd 0fa4 fa3d 0d5f afbd
00000360: 4a54 47be 88bd 923d 4cdc 1cbb a682 183d
00000370: bef7 12be 0d28 1dbc 3b6a d5bd e405 3fbd
00000380: 1bc8 c0bd 09b7 cabc 7cc4 573e 8809 e03c
00000390: c55e 1b3c a331 2fbe 269a babd ee38 8b3e
000003a0: 4b1e 783e b833 ef3d ca6f b93c 68a3 10be
000003b0: 426d 633d 0d27 543e 1d91 61be 06f3 fe3d
000003c0: c68e 6cbd ca14 fcbd 3b6e fdbd 30fa 44be
000003d0: 12e8 ab3c 2ae8 13bd 2d02 a8bd 0a07 f4bd
000003e0: 0df7 6dbe f91e a5bd 72c3 cdbd 3299 3d3e
000003f0: a549 603c 1ed1 a8bd 9d7c 293d f35b 5cbd

fc2.bias f4 [300]
-0.046260692 -0.04941983 -0.048298918 -0.020384993 -0.044096086 0.016220337 -0.03946254 -0.044252142
0.043761086 -0.0068982877 0.010996765 -0.018654115 -0.026896363 0.033932462 0.014777577 0.012774811
0.031670082 -0.02015655 0.036208577 -0.045076046 -0.027902214 -0.009490941 -0.025046468 0.00326263
-0.0023420195 0.02621562 0.048883595 0.04417233 -0.032284185 -0.044381253 0.04150968 -0.015098342
-0.034479976 -0.034744874 0.019114712 0.035350036 -0.022113917 0.01775179 0.02931492 -0.038652416
0.022531489 -0.0075721224 -0.042471673 -0.029062135 0.04769104 0.02595788 0.048206326 0.032009494
-0.031580575 0.03000129 0.040797584 0.01813271 0.035612255 -0.0023375968 -0.022300933 -0.002360314
-0.0335598 -0.03305334 -0.0028397734 0.002260337 -0.012697274 -0.029661471 0.018994194 0.0017912169
-0.037619118 0.045256626 0.03143824 0.0035449495 0.013738873 0.014155947 0.027932063 0.017580267
0.007779663 -0.047586933 -0.003002999 -0.010404528 -0.000955664 -0.025052777 0.036446866 -0.0320078
-0.012592918 -0.029236278 -0.03773206 0.04659052 0.04456984 0.03860053 0.020650048 0.010772573
0.026721071 -0.032251216 -0.014352287 0.0009419353 -0.0043727825 -0.022001443 -0.019683836 0.0049066283
-0.02702973 -0.017729001 0.049416266 0.0399429 -0.035068676 0.044462185 0.04215852 0.00045010657
-0.012706194 0.047675885 0.045930393 -0.04403004 0.0039655715 -0.027864581 -0.041951824 0.03225313
0.026950274 -0.04061958 -0.030998947 0.027684629 0.04792647 0.037333548 -0.01744121 -0.043171797
0.013434958 -0.039694328 0.037705526 -0.022958182 -0.032998417 0.018633144 -0.030204415 -0.024945397
-0.012839061 0.041602295 0.044168293 0.0059552323 0.025747312 -0.038546294 0.021610454 -0.032160744
0.03785322 0.0315026 -0.009315626 0.023591556 -0.039353866 0.048108373 -0.008874904 0.006166304
0.018651787 0.047420736 0.013558081 0.003094189 -0.047089357 -0.04507888 -0.023789572 0.026325012
0.046993088 -0.038841873 -0.009978199 0.04056679 -0.00023128424 -0.0010094483 -0.011099873 -0.004723008
-0.04948877 -0.030400531 -0.005870617 0.046336375 0.038915504 0.037821684 0.018006912 -0.013739796
0.0061216857 0.02168774 -0.01103435 0.025483212 -0.03392608 -0.044674657 -0.012558343 -0.010966455
-0.041936602 0.013179438 -0.00078785047 -0.048688445 0.048604008 0.0078074066 0.016028581 0.04112101
-0.014072832 0.008703023 0.021587772 0.047467045 -0.03960366 -0.03193474 0.01786756 0.015417923
0.029136334 0.007664599 -0.018678783 -0.030777812 -0.046833698 -0.04803622 -0.0039411974 0.013243725
-0.0026741081 -0.010988035 0.04130407 -0.021133203 -0.03298784 -0.037810642 0.018624464 0.02150123
0.012658904 0.0040237233 0.013755339 0.03196622 0.0125132855 0.030667791 -0.04133492 -0.01658678
-0.010539643 0.011698333 -0.03631831 -0.016591432 -0.044641342 -0.0070446236 -0.027362682 0.02360695
0.04184427 -0.005171134 0.042311754 0.045240186 0.0013915275 0.014227685 -0.0076725334 -0.0015246358
-0.014729978 -0.0106641855 -0.041558318 -0.028485266 -0.021957178 -0.020476824 0.006718846 -0.047034264
0.03274511 -0.04242314 0.034807246 -0.028965883 -0.045610406 0.0106127625 -0.049834725 -0.031661958
-0.014842502 -0.04911618 -0.04192456 -0.044963002 -0.0020617947 -0.035295464 0.02377913 -0.038010024
00000000: da7b 3dbd 736c 4abd 16d5 45bd 6efe a6bc
00000010: 199e 34bd 83e0 843c 79a3 21bd bc41 35bd
00000020: d33e 333d 080b e2bb c72b 343c 84d0 98bc
00000030: c355 dcbc c4fc 0a3d a61d 723c 714d 513c
00000040: 7db8 013d 591f a5bc 724f 143d a9a1 38bd
00000050: 2f93 e4bc e47f 1bbc 402e cdbc d9d1 553b
00000060: 917c 19bb 24c2 d63c 2a3a 483d 0cee 343d
00000070: 6c3c 04bd 1ec9 35bd 0e06 2a3d 095f 77bc
00000080: e03a 0dbd a450 0ebd 7596 9c3c 33cb 103d
00000090: 3f28 b5bc 346c 913c d825 f03c ff51 1ebd
000000a0: f593 b83c 911f f8bb c7f6 2dbd b713 eebc
000000b0: ae57 433d 9fa5 d43c ff73 453d 631c 033d
000000c0: a25a 01bd 44c5 f53c 5e1b 273d 0d8b 943c
000000d0: 28de 113d 5e32 19bb 72b0 b6bc 7faf 1abb
000000e0: 0076 09bd f062 07bd 7e1b 3abb 2922 143b
000000f0: 3a08 50bc 9dfc f2bc b699 9b3c 44c7 ea3a
00000100: 8116 1abd 035f 393d 62c5 003d 6252 683b
00000110: 0319 613c 58ee 673c c8d1 e43c 7e04 903c
00000120: 8bec fe3b 84ea 42bd f6cd 44bb c177 2abc
00000130: 8785 7aba 7b3b cdbc 4f49 153d 9c1a 03bd
00000140: 8752 4ebc eb80 efbc ef8c 1abd b3d5 3e3d
00000150: dd8e 363d 971b 1e3d 4a2a a93c 727f 303c
00000160: 26e6 da3c da19 04bd db25 6bbc 35ec 763a
00000170: 8f49 8fbb 5f3c b4bc ff3f a1bc c8c7 a03b
00000180: 746d ddbc 693c 91bc b668 4a3d 2b9b 233d
00000190: 2ca4 0fbd fb1d 363d 6aae 2c3d 48fc eb39
000001a0: a42d 50bc ca47 433d 8221 3c3d d858 34bd
000001b0: a0f1 813b 4344 e4bc add5 2bbd dc1b 043d
000001c0: d2c6 dc3c b760 26bd 81f1 fdbc e0ca e23c
000001d0: 8c4e 443d 10eb 183d dee0 8ebc e9d4 30bd
000001e0: 4c1e 5c3c 8596 22bd 1c71 1a3d cc12 bcbc
000001f0: 5929 07bd 89a4 983c 406f f7bc 4a5a ccbc
00000200: ed5a 52bc 2b67 2a3d d0e9 343d 1c24 c33b
00000210: 07ec d23c b8e2 1dbd 6808 b13c fcba 03bd
00000220: fa0b 1b3d df08 013d 91a0 18bc 1443 c13c
00000230: 8531 21bd 490d 453d 0c68 11bc b50e ca3b
00000240: a2cb 983c 3f3c 423d b722 5e3c e1c7 4a3b
00000250: c5e0 40bd a2a4 38bd 59e2 c2bc 8da7 d73c
00000260: d37b 403d a818 1fbd 9a7b 23bc 5d29 263d
00000270: e484 72b9 774f 84ba 3edc 35bc 76c3 9abb
00000280: bdb4 4abd 890a f9bc 4e5e c0bb 36cb 3d3d
00000290: dd65 1f3d e9ea 1a3d 3b83 933c e21c 61bc
000002a0: 6c98 c83b 7daa b13c 6bc9 34bc 2bc2 d03c
000002b0: 13f6 0abd c6fc 36bd 82c1 4dbc a5ac 33bc
000002c0: b7c5 2bbd 92ee 573c c087 4eba 896d 47bd
000002d0: ff14 473d 46d5 ff3b 5f4e 833c 816e 283d
000002e0: bc91 66bc 2097 0e3c d7d8 b03c ce6c 423d
000002f0: 7337 22bd 00ce 02bd fd5e 923c 759b 7c3c
00000300: 52af ee3c 5127 fb3b 3f04 99bc c021 fcbc
00000310: b1d4 3fbd a1c1 44bd 2925 81bb 35fc 583c
00000320: 1740 2fbb 2907 34bc 752e 293d 8a1f adbc
00000330: 421e 07bd 55df 1abd 5592 983c 5923 b03c
00000340: 4b67 4f3c 70d9 833b 135e 613c 03ef 023d
00000350: 8604 4d3c 053b fb3c ce4e 29bd 00e1 87bc
00000360: 77ae 2cbc 5daa 3f3c 82c2 14bd c1ea 87bc
00000370: d7d9 36bd 96d6 e6bb b427 e0bc 5d63 c13c
00000380: e664 2b3d 9e72 a9bb 174f 2d3d c64d 393d
00000390: ea63 b63a 3c1b 693c e069 fbbb 4ad6 c7ba
000003a0: 0156 71bc d6b8 2ebc 0e39 2abd ef59 e9bc
000003b0: 8adf b3bc 03bf a7bc c429 dc3b 00a7 40bd
000003c0: bd1f 063d e3c3 2dbd 0b92 0e3d dc49 edbc
000003d0: fad1 3abd 27e1 2d3c 7f1f 4cbd f8af 01bd
000003e0: f72d 73bc 0c2e 49bd 16b9 2bbd 202b 38bd
000003f0: 2d1f 07bb fa91 10bd 73cc c23c 66b0 1bbd
