checkpoint_actor.pth (torch_old, 91643 bytes, 14 tensors)

model.0.weight f4 [128, 33]
00000000: a5cf a83e e6d1 4e3f f9f7 3f3f 778d a6bf
00000010: f46a cbbe 827f 0d3e 1876 f73e b76c 823d
00000020: a761 253d ebec 4a3f 2c33 343e e339 113f
00000030: 79ed 28bd 02d4 fb3c a04b 4e3e eb7c 0e3f
00000040: 093b 363e 013a 57bf 2aa9 2c3f 3210 89bd
00000050: 6038 86be ea1d 9f3e db02 ca3d ca1f 013d
00000060: 355d 353e d5cd 0e3f 7378 d13e 79d3 0f3f
00000070: 375c 43bf 90b8 193e e23d aabe a8f6 ad3c
00000080: 2f5b 5e3f 8c5d b43f 2cd1 133e e428 b03f
00000090: 38b9 013e e611 1c3d 3408 05be 550e 743e
000000a0: d552 373d 6a02 a2be 5268 bdbd dc59 ba3e
000000b0: 6892 913d 231a e43d a219 46bf cee9 f1be
000000c0: e1b6 28bf 6122 093f 80ba f8bd b883 c2be
000000d0: f7a4 babd c2bc 87bc 3f53 53be 2c38 e8bd
000000e0: e77b 36be 0ac8 50bd de80 8bbd 1380 0b3e
000000f0: fd75 b1bf 18ae 623d 6f9f 0dbe ed75 9d3f
00000100: dc0c 923d f67b b63e a183 973f fafe 143f
00000110: 68ff 91be acea 64bf 2897 493f 8ca2 03bf
00000120: 6637 8abf 879c 1bbe 8f24 9fbf c0ba 94be
00000130: bcea 043f 2f56 8d3e 212d 583d 0986 c7bd
00000140: 741d 24bf da3b 6b3e 4fd5 8ebf 4d98 2dbf
00000150: f8ef 023f 7ec2 7dbf a60d 803e 1a7c 5f3e
00000160: 5811 da3d 17a1 df3e f450 06bf 365c c5bd
00000170: 4673 5dbe de96 0a3f 976d 293e 802e b23c
00000180: de78 cabe b829 79bd 21b0 823f 9a8f b0bd
00000190: 6907 e23d 081c 18bf 52ae 60bf 71f0 333f
000001a0: 9fc9 dfbe 6145 4abd 0794 9b3d 675f 563e
000001b0: f4bb d03d aab6 e33d 9b69 5abd d158 3ebd
000001c0: 0b78 82be daa0 00bf e35d 623f ff32 d93f
000001d0: 4eaa 25bd 069b d23e a3c8 0340 c803 983d
000001e0: f3bd 803d 47ea 85be 4002 81bd f50a 37bd
000001f0: 482c 073f a90f 483e 5305 943f 11e8 a43c
00000200: 7851 e2bc 8f99 6cbf dcca 1c3e 88da 193f
00000210: 76cc 933e 6194 323f f18a ebbc f775 d03e
00000220: ec54 e73d f490 283f 076b 973f 7c15 dd3d
00000230: b704 6dbe f976 283e 2a82 8f3e c366 473e
00000240: 871c 10be 1d81 443e dbfe 4cbf 222a 2ebe
00000250: 2b63 63be aad6 4c3d fd89 43bf 075e 9bbe
00000260: 0052 73bd 3f22 b53c 8af5 35be 5e4d 383d
00000270: 6644 4dbe 6ad4 b5bd d17b 01bf fbbb 5f3f
00000280: 3dd2 293f 2c50 053d 4465 3abf 00e6 143e
00000290: 2d48 3b40 61ca d53d 617c bb3e bad2 653d
000002a0: e6bc 94bd 214c 5e3f 9020 aa3e 6080 063f
000002b0: 0b3d ebbe 2f9f 9cbe 7d99 b1ba b4c5 ee3c
000002c0: 4ff5 6f3d e051 733d 9b46 983d e6b5 4fbe
000002d0: 8264 e4bb 29a3 283e 0290 d03d 1710 9d3d
000002e0: 35c3 9bbe bc96 de3d aebd 70bd 6daf 1abb
000002f0: f0c3 88bc 010b a6ba e846 df3d 1ebf b1bd
00000300: 036d 173e d7fa 87be 50a1 14bd 9452 543d
00000310: 6ca3 053e 2a05 bc40 d3d2 34bf 0092 16bd
00000320: 892c 643d 68cc c7bd 6d99 7bbf 190e 5a3f
00000330: cb51 50bf 4b35 173f f342 633d c4cb 7d3d
00000340: 6e0b abbe 1485 b23e 89c1 ab3d abb9 02bf
00000350: 0213 0abf ee68 5b3e 9417 983e 9541 88bd
00000360: cb3c cb3f 4ffb bdbe 3014 41be eb16 ab3d
00000370: 1840 78be 1f8e 8fbe f61b 3c3f 1292 d5be
00000380: fe48 4e3f 5adc 353f daba f83c f014 35bc
00000390: 0a60 70bf 8f1c 43be 14c8 2ebe d1e9 e83e
000003a0: 138b 253f 6fe5 ba3c b05b 7abf 3211 7e3f
000003b0: 07c7 24bf 37c0 be3f 3cc4 b43d b1ae 15bf
000003c0: d9f5 843e 3de3 693e 0e9c 86bd 493d fabd
000003d0: 7735 043e 5484 22bf b931 40be 1e55 67be
000003e0: 704d 823f dcc4 e1bf 4379 133f ffde 3abd
000003f0: eff0 be3b 6354 4c3c 3081 bfbd cc95 32be
0.3297092 0.8078903 0.7498775 -1.3011922 -0.39730036 0.13818172 0.48332286 0.06368392
0.04037633 0.7926776 0.17597646 0.56728953 -0.041242097 0.030740742 0.20146036 0.5565936
0.17795958 -0.8407288 0.67445624 -0.06692542 -0.26214886 0.3107751 0.09863826 0.031524457
0.17711337 0.55782825 0.40912208 0.56182057 -0.76312584 0.15011811 -0.33250338 0.021235779
0.86857885 1.4091048 0.14435261 1.3762479 0.12668312 0.038103007 -0.1299141 0.23833592
0.04475673 -0.31642467 -0.09248413 0.36396682 0.07108003 0.11137798 -0.7738286 -0.4724869
-0.6590405 0.53568083 -0.12144947 -0.37991118 -0.09113496 -0.016569499 -0.20637225 -0.11338839
-0.17820702 -0.050972022 -0.06811689 0.13623075 -1.3864132 0.05534181 -0.1383035 1.2301613
0.07131359 0.3564145 1.1837045 0.58201563 -0.28515172 -0.8942058 0.7874627 -0.514199
-1.0798156 -0.15196429 -1.2433032 -0.2904873 0.51920676 0.27604815 0.052777413 -0.09742362
-0.6410744 0.2297205 -1.1158847 -0.6781052 0.51147413 -0.99124897 0.25010413 0.21824685
0.10647839 0.4367759 -0.52467275 -0.096367285 -0.21626005 0.54136455 0.16545711 0.021750689
-0.3954534 -0.0608308 1.021 -0.0862114 0.110365696 -0.5941777 -0.8776599 0.7028876
-0.43708512 -0.04938257 0.07596593 0.2093483 0.10192099 0.11118825 -0.05332337 -0.04647142
-0.2548221 -0.5024544 0.8842451 1.6968688 -0.04044562 0.41133898 2.059121 0.07422596
0.0628623 -0.26155302 -0.06299257 -0.044688184 0.5280194 0.19537224 1.1564125 0.02013019
-0.027626738 -0.9242181 0.1531176 0.6009908 0.2886693 0.6975766 -0.028752776 0.40715
0.112954944 0.6584618 1.1829537 0.107951134 -0.2314633 0.16451634 0.28028995 0.19472794
-0.14073382 0.19189878 -0.8007638 -0.1700826 -0.22205798 0.050009407 -0.7638243 -0.30345175
-0.059404373 0.022111056 -0.17769447 0.044995658 -0.20045623 -0.088784054 -0.50579554 0.8739621
0.66336423 0.03254716 -0.7281077 0.14540863 2.9262803 0.10438991 0.3661833 0.056109168
-0.07262592 0.86834913 0.33227968 0.52539635 -0.4594501 -0.30590197 -0.0013549771 0.029147007
0.058583554 0.059404254 0.07435342 -0.20284232 -0.0069699893 0.1646849 0.10183717 0.076690845
-0.3042237 0.10868594 -0.058774643 -0.0023603097 -0.016694993 -0.0012668074 0.10902196 -0.08679031
0.14787678 -0.26558563 -0.036286652 0.051836565 0.13050622 5.8756304 -0.7063419 -0.03676033
0.055706535 -0.09755784 -0.98280984 0.8517776 -0.81374806 0.59065694 0.05548377 0.061961904
-0.33407158 0.34867156 0.08386523 -0.51064557 -0.53935254 0.21426746 0.2970549 -0.06653134
1.5877928 -0.37105796 -0.18855357 0.08353981 -0.242432 -0.28038117 0.73480165 -0.41713005
0.8058013 0.71039355 0.030362535 -0.011052355 -0.93896544 -0.19053863 -0.17068511 0.45490888
0.64665335 0.02281448 -0.97796154 0.9924499 -0.6436619 1.4902409 0.08826491 -0.5846968
0.25968817 0.22840591 -0.06572734 -0.122187205 0.1291102 -0.63483167 -0.18768968 -0.22591063
1.0179882 -1.7638202 0.57606906 -0.045622822 0.0058270614 0.012471291 -0.093508124 -0.17439955

model.0.bias f4 [128]
00000000: cbd6 8fbe f301 ba3f 876f eebe 5613 5dbf
00000010: f1b7 35bf 0140 383c ad25 45bf 4720 2cbf
00000020: a3b2 923f cf3a f3be d029 87bf 037f 59bf
00000030: 0eb6 fb3e e103 54bf 72d8 e43b 5988 a3be
00000040: 06ef 07bf ba97 17bf 2535 90bf 4d0a 0dbf
00000050: 6f0a 0cbc dd38 91bf e691 313e 2bbb af3d
00000060: cffc dcbe f1bd 8a3d 1782 bbbe f63e 41be
00000070: 4da0 793f 6673 da3e 810f 7bbf 8a79 d4be
00000080: 07dd 4cbd 41c4 7a3e ad39 1bbf db4c 09bf
00000090: 123f 31bd ce3a 37bf 1e25 66bf 29bf 95bd
000000a0: 3d24 86bf 171d ddbe 74ac ec3c f690 f4bd
000000b0: 0fb8 bcbc b96b 15be 062a 163f 2923 83bf
000000c0: caf5 663d afc5 47be 8ea5 75bf 7225 91be
000000d0: 7356 fb3b 5ec0 c63d 55a9 fbbd ada1 353e
000000e0: 5932 e33d 71cb babd 070d 57bf 9b4a dbbe
000000f0: f23f 093f 91dd 9bbe c09f 31bf 06a6 12bf
00000100: 895e d93d 720c 28bf f71d e6be 741c 2cbf
00000110: 61dc 163d b89d 7ebe 0c73 0bbf 2d5d 91be
00000120: 46e9 1cbf 1aa7 95bf 57f8 4bbf 4e84 5d3e
00000130: f11f e6bc 309a 60be 28f1 6fbf 9902 98bc
00000140: 578b 8fbe bd56 38bf b00d 7bbc 3d8f 1abf
00000150: 2573 27bf d596 ec3e 07db 03bf 7c40 5bbf
00000160: 76db 62bf 4612 83be ebbd 333e 969d 63be
00000170: b4cd f1be b0a5 0d3e 8e42 e1be 9600 b63c
00000180: 366c 9c3e e8a4 663e 7b26 5abe 3188 26bf
00000190: 8154 dcbe ef6c 4fbf 7e9b 523f c4ac 3cbe
000001a0: db96 8bbf 3f20 97be 4b78 3f3e 5f08 063e
000001b0: 5e8b a7bd 3a8e 2abf 1ef3 cebf db71 2fbf
000001c0: d042 84bf b1d4 4dbe 7d55 12bf 1c7f babc
000001d0: d98f 1c3f 2e14 393f 3140 acbe b0d6 0bbf
000001e0: 2025 22bd 28ec 88be f5c2 07bf 8781 3fbf
000001f0: 79c6 61bf f3d3 18bf f354 1a3f fc1c 8cbf
-0.28093562 1.4531845 -0.46569464 -0.8635763 -0.709838 0.0112457285 -0.77010614 -0.6723675
1.1460766 -0.47505805 -1.0559635 -0.8495943 0.49162334 -0.8281842 0.00698381 -0.31939963
-0.53099096 -0.5921589 -1.1266218 -0.5509384 -0.008547409 -1.1345478 0.17340812 0.08580621
-0.43161628 0.0677451 -0.36622688 -0.18871674 0.97510225 0.42666167 -0.9807053 -0.41498977
-0.050015476 0.24488927 -0.6063488 -0.536329 -0.04327304 -0.71574104 -0.89900386 -0.073118515
-1.0479809 -0.43186256 0.028890826 -0.119417116 -0.023036985 -0.14591874 0.5865787 -1.0245105
0.056386746 -0.19509004 -0.9595574 -0.2834888 0.0076702177 0.0970466 -0.12288157 0.17737456
0.110935874 -0.091208346 -0.84004253 -0.42830357 0.536132 -0.3044248 -0.69384384 -0.5728458
0.10613734 -0.6564399 -0.44944736 -0.67230916 0.036831263 -0.24864852 -0.5447242 -0.283914
-0.61293447 -1.169162 -0.7967581 0.21632501 -0.028091403 -0.21933818 -0.9372735 -0.018555926
-0.28035995 -0.7200735 -0.015323088 -0.60374814 -0.6541007 0.46208826 -0.51506084 -0.8564527
-0.8861612 -0.2559988 0.17552917 -0.22228083 -0.47227252 0.13832736 -0.4399609 0.022217076
0.30551308 0.22523844 -0.21303742 -0.6505156 -0.4303322 -0.81025594 0.8226851 -0.1842528
-1.0905412 -0.2951679 0.18698232 0.13089131 -0.08180879 -0.6662327 -1.6167943 -0.68533105
-1.033289 -0.20100667 -0.57161695 -0.022765689 0.61156994 0.72296417 -0.33642724 -0.5462446
-0.039586186 -0.26742673 -0.53031856 -0.7480702 -0.8819347 -0.5969841 0.6028587 -1.0946345

model.2.weight f4 [128]
00000000: 1329 c03e 60ae a43f 96b0 303f 8507 e93e
00000010: bc28 5b3f 2146 9d3f 2b50 533f d67a 453f
00000020: 6c32 a43f b850 463f ecdc 2a3f ecf1 653f
00000030: 451e ba3f 6985 4d3f 3875 d93e d1c8 5d3f
00000040: 6a9c 233f 56e7 623f 1eb2 e13e bf98 2a3f
00000050: a3d6 763f 9298 45bf 5e2c 2b3f 3d72 bd3e
00000060: 4546 1c3f 903a 013f 88c7 5b3f 1c42 283f
00000070: b877 a33f 372d 853f c19a 2c3f fddb 343f
00000080: f137 503f e20c 133f 58e9 393f 6b0b 833f
00000090: 54a1 a83f fdd2 383f ad54 f33e 8ec3 513f
000000a0: 8e44 133f 21f8 843f b919 7d3f 1644 863f
000000b0: 4d8f 0e3f 79a8 653f 87b3 253f 1140 0f3f
000000c0: da28 093f b70f 5f3f ac6f 4d3f 2c7f 6b3f
000000d0: 2d05 2a3f 0540 6f3f e806 2b3f 3796 5e3f
000000e0: 2296 093f bf3c ed3f dbd5 553f 2220 5d3f
000000f0: 1e1f fc3e 1ec2 6e3f 75f4 603f 85a2 143f
00000100: a4a4 623f 29a3 3b3f 5248 b33f 42d3 093f
00000110: a541 5c3f dc90 283f 5540 5b3f 0de8 e53e
00000120: 2912 463f bfe2 4a3f 77c2 633f 26df 7b3f
00000130: 8596 493f ba31 523f 41ee 4d3f 1d05 303f
00000140: 593a 663f a35f 803f a542 583f ba04 c83f
00000150: 6c60 133f f8da 443f 9051 613f 6cc9 033f
00000160: deab 1f3f b3da 653f d122 853f a852 5c3f
00000170: 84d5 453f 617a 163f d3f4 b43e 3482 003f
00000180: de5f 113f d005 463f 4d60 d63f d0a2 393f
00000190: f67c f73e 6290 6d3f 3c65 aa3f 5345 453f
000001a0: 47d0 533f ee3e 1b3f 14eb 3a3f 42ef 453f
000001b0: fae6 913f f075 163f 960a 2e3f 7aad 963f
000001c0: 22a9 403f 3823 803f 8296 633f 7329 413f
000001d0: 28d9 9b3f 4030 e53f 122e 9d3f 1f7b 423f
000001e0: 56e9 213f dfc3 273f 3251 853f 43b2 5ebf
000001f0: f0e7 363f 5f59 463f 7020 9e3f 91d6 453f
0.37531337 1.2865715 0.6901945 0.4551355 0.8560903 1.2287027 0.825442 0.7714056
1.2827888 0.7746692 0.6674335 0.8982227 1.4540488 0.8028169 0.42472243 0.86634547
0.63910544 0.8863424 0.44081205 0.6663932 0.9642126 -0.7718593 0.66864574 0.3700122
0.6104472 0.50479984 0.85851336 0.65725875 1.277091 1.0404423 0.67423636 0.70648175
0.8133536 0.5744153 0.7262168 1.023786 1.3174233 0.7219694 0.4752554 0.8193902
0.5752648 1.0388223 0.98867375 1.0489528 0.5568741 0.89710194 0.6472706 0.5595713
0.5357796 0.87133354 0.8024852 0.91990924 0.6641415 0.9345706 0.66807413 0.8694796
0.5374471 1.8534163 0.8352944 0.86377156 0.4924249 0.9326495 0.8787301 0.58060485
0.8853247 0.7329584 1.4006445 0.5383798 0.86037666 0.6584604 0.8564504 0.44903603
0.7737146 0.7925224 0.88968605 0.9838737 0.787453 0.82107127 0.8044167 0.687578
0.8993278 1.0029186 0.8447669 1.5626442 0.57569003 0.7689662 0.8801508 0.5147922
0.62371624 0.89786834 1.040125 0.86063623 0.77278924 0.58780485 0.35343036 0.50198674
0.56786907 0.7735262 1.6748139 0.7251406 0.48337525 0.92798436 1.3312144 0.77058905
0.8273968 0.606429 0.7301495 0.77318203 1.1398613 0.5877371 0.679849 1.1771691
0.75258076 1.0010748 0.8890153 0.7545387 1.2175646 1.790535 1.2279685 0.7596912
0.6324667 0.6553325 1.0415404 -0.86990756 0.7144766 0.7748012 1.2353649 0.7728053

model.2.bias f4 [128]
00000000: 8d8f 3abc bd4e 8dbe 1cc6 7a3c 061e e7be
00000010: 44d0 783e 2f40 273e 5990 703e c8b5 053f
00000020: 8eda 223f 4e67 7f3e 687d 853d 696b a13e
00000030: 682e bcbd 7241 f73e ff56 a73e 1584 a4be
00000040: d249 033e c7cc 6e3e 571f 9f3f a974 433e
00000050: f5dd bbbb cd10 4d3f a27e 0f3e 4823 ac3d
00000060: ef28 103e 702c 8f3d 8579 a93e 5d2e 343e
00000070: fe64 0d3f 7be5 fc3e f0d8 c03e f62b 083f
00000080: ced8 f53e 1173 c43e 5a95 fd3e 8fd4 513e
00000090: 908b 67be 49b6 0ebd ebb6 243e 2e86 e83b
000000a0: 236f db3e e909 013d ced3 15bf 2bbc 04be
000000b0: 9f01 2f3e 8c38 20be ac23 133f 23ec 20bf
000000c0: 4baf 5e3d bd56 753e 1239 0a3e b8f4 773e
000000d0: 97ed cc3d 98ed d93e faa7 20be ae18 48be
000000e0: f0ed 913e d7be ebbd 1b88 7fbd e0a4 3b3d
000000f0: d877 f6be fdc4 02be e719 663e 0cd7 483e
00000100: c239 61be 650c 853d 00b8 5e3e b631 853e
00000110: 040f fd3e b366 40be 23f1 823e 69c6 b1bd
00000120: 84a2 203e 2008 143f af82 0fbe 4dc4 b7bc
00000130: a45b 72bd f2af e43e 3eb6 fbbd 42d1 0b3f
00000140: eb5e 9bbd cd0f 2c3f a773 103e 4227 cc3e
00000150: 725b 193e 9c2e 50be c57b 473e ad66 42be
00000160: fd34 94bc 0d65 323e d30e 253e e416 293e
00000170: 77ee e53e bde5 823e 8fc2 9f3f 8aea 2bbd
00000180: 165b bc3c d11d b1be c460 553f 1fe1 213e
00000190: dcb7 afbd ead4 793e 1209 733f 67b2 263e
000001a0: c7c3 e93e b4d0 35bc aa7d 073f 5238 3c3e
000001b0: 5815 11bf 126c 723e 9151 b03e 20f5 5abe
000001c0: d978 7cbe 8963 0a3d bb6a 913e 8769 87be
000001d0: 87e7 73be 6826 463e 0f1c b23d 97b7 1a3f
000001e0: 2601 9e3e edcf 283e 4ae8 803f ee0e 53bf
000001f0: 99cc bf3e 987d 003f a08c 94bc c3cd 803e
-0.011386764 -0.27599135 0.015306022 -0.45140094 0.24298197 0.16333078 0.23492564 0.522305
0.6361474 0.24941751 0.0651806 0.3152726 -0.09188539 0.48292118 0.3268356 -0.3213202
0.12821129 0.23320304 1.2431439 0.19087471 -0.0057332464 0.8010376 0.1401315 0.08405167
0.14078115 0.06990898 0.33100525 0.17595811 0.55232227 0.4939383 0.3766551 0.5319208
0.4801697 0.3836904 0.4952801 0.20491241 -0.22611833 -0.03484181 0.16085403 0.0070960736
0.42858228 0.03150359 -0.58526313 -0.12962405 0.17090462 -0.15646571 0.57476306 -0.62860316
0.05436639 0.2395887 0.13498333 0.24214447 0.10006254 0.42564082 -0.15689078 -0.19540665
0.28501844 -0.11511009 -0.06238566 0.045811534 -0.4813831 -0.12770458 0.22470818 0.19613284
-0.21994689 0.06496505 0.21749878 0.2601449 0.4942552 -0.18789177 0.25574598 -0.08680422
0.15686995 0.578249 -0.14014696 -0.02243247 -0.059169427 0.44665486 -0.12290619 0.5461618
-0.075864635 0.6721161 0.14106618 0.398737 0.1497629 -0.2033028 0.19480808 -0.1898448
-0.018091673 0.1742136 0.16118936 0.16512638 0.44908497 0.255659 1.248125 -0.04197172
0.022992652 -0.3459306 0.8335078 0.15808533 -0.0857999 0.24397627 0.94935715 0.16278993
0.4565718 -0.011097122 0.52926123 0.1838086 -0.5667319 0.23674038 0.3443723 -0.2138257
-0.24655475 0.03378633 0.2840174 -0.26447698 -0.2381879 0.19350588 0.08696758 0.60436386
0.3086025 0.16485567 1.0070889 -0.82444656 0.37460783 0.5019164 -0.018133461 0.25156984

model.2.running_mean f4 [128]
00000000: 33df 933e 6706 a140 d318 423f 6328 303f
00000010: d62b b33f 227b a93f ffca b13f 2b2d 243f
00000020: bb46 b740 9fdf 1240 b8a8 9f3f 2063 483f
00000030: d2b2 2d40 b089 233f 3031 c13f 2836 6e3f
00000040: fd01 443f ff9b a93f 582f df3f cb99 dd3f
00000050: 7fa9 533f b4d2 1d3f 212f 963f dcc1 533f
00000060: d004 993f bdb0 973f 2c82 b33f 809a 933f
00000070: b82d bc40 c6fb d83f 7432 0740 2580 be3f
00000080: 6f35 ce3f b6c3 e83f aad5 c43f 7f39 a13f
00000090: 2560 0d40 6239 543f f5bc b23e 3e81 9840
000000a0: 2efc d03e 8e5b 953f d0c3 ee3f c4b7 9f3f
000000b0: 1cf0 b83f e420 b13f 4e98 ac3f bf3f 803f
000000c0: a0e2 3e3f 647c f83f cbb7 253e 082b c93f
000000d0: 9e19 0740 cd11 1f3f 838c 0e40 709a 8b3f
000000e0: d9ea 5c3f f45e e13e b64b 0f3f c73e 1a40
000000f0: 7eef 0d40 98b9 c43f cb6a 5b3f 2b26 ac3e
00000100: 5e10 913f 505a 0640 6252 3d3f b109 0d3f
00000110: a7c4 df3f 73b9 e43f 20e1 be3f 293c 3d3f
00000120: 7f9d 863f d3d0 3a3f 4ca2 163f 49ee a53f
00000130: 272c ce3f 1a78 833f 10f6 2c3f 256c b13f
00000140: 0019 863f 2b34 d93e e567 0d40 b9cb 1a3f
00000150: 8212 fb3e 4c5a 2640 1bca 0140 b04a de3e
00000160: 078e df3e bf58 193f ec5a 803f d179 223f
00000170: c882 a03f 514d 1d40 ef98 023f 36e4 2640
00000180: 57a3 893f 629e 0140 802a d53f 2b33 4d3f
00000190: 6624 1b40 c474 d63f 2f36 8e40 6c14 c33f
000001a0: f6ff 9f3f 9afe 743f c7b5 2b3f 3927 373f
000001b0: a596 a93f c7d3 1a3f 9c02 7c3f bdef 933e
000001c0: 55a7 3b3e 216e 903f 0aa2 ab3f 9dac 863f
000001d0: 07e4 1f40 c6d7 5340 b2f7 133f d54e 443f
000001e0: 3703 df3f 505b 4f3f 6b9c 113f 37e3 bd3f
000001f0: 7f4e 8d3f 09a4 b93f 71e6 4240 e5a8 2e3f
0.28881225 5.0320315 0.7581913 0.68811625 1.3997753 1.3240702 1.3890074 0.6413142
5.727384 2.2948987 1.2473364 0.7827625 2.7140393 0.6388197 1.5093136 0.93051386
0.76565534 1.3250731 1.7436323 1.7312559 0.82680506 0.6164963 1.1733133 0.8271768
1.1954594 1.1850811 1.40241 1.1531525 5.880581 1.6951835 2.1124544 1.4882857
1.6110057 1.8184726 1.5377705 1.2595671 2.2089932 0.8290006 0.34909788 4.7657766
0.40817398 1.1668565 1.8653507 1.2477956 1.4448276 1.3838162 1.348398 1.0019454
0.7456455 1.9412961 0.16183393 1.5716257 2.1109385 0.62136537 2.2273262 1.0906506
0.8629585 0.44017756 0.559749 2.4100816 2.2177424 1.5369139 0.8570983 0.3362287
1.133312 2.0992622 0.7395383 0.5509291 1.7481889 1.7869095 1.4912453 0.7391992
1.0516814 0.7297489 0.58841395 1.2963344 1.6107224 1.0271027 0.6756296 1.3861128
1.0476379 0.42422614 2.2094662 0.60467106 0.49037558 2.5992613 2.0279605 0.43416357
0.43663046 0.5990104 1.0027747 0.6346713 1.2539911 2.457844 0.5101461 2.607679
1.0752972 2.025292 1.6653595 0.801562 2.4240966 1.6754384 4.444114 1.5240607
1.2499988 0.9570099 0.67074245 0.71544224 1.3249098 0.60479397 0.9844148 0.28893843
0.18325551 1.1283609 1.3408825 1.0521427 2.4982927 3.3100448 0.5779983 0.7668279
1.7422856 0.80998707 0.568793 1.4834965 1.103958 1.4503185 3.045315 0.6822646

model.2.running_var f4 [128]
00000000: 6411 bd3f 83b7 4b40 1a7b 4840 7ae9 2040
00000010: 67c5 a840 c17b 7140 118d fa40 a973 0940
00000020: b962 d040 c8a0 2b41 1017 b340 201c f43f
00000030: 557f fe40 f17f 1f40 b79e ed40 1083 9b40
00000040: 37ae 2c40 6002 8340 03f4 e440 bf4f 0841
00000050: 1c91 b940 fe99 1040 e6e1 7540 c308 2c40
00000060: 9de4 a940 e6a1 6840 82b6 9140 f2d7 2d40
00000070: 6e4f 0541 2558 6040 e895 0741 98ab 7e40
00000080: b2ea b740 12be e340 86df a340 63b9 9940
00000090: 6e12 0941 e461 2140 aff2 6d3f e410 b341
000000a0: 6265 da3f ada2 7540 5072 ab40 a19f a740
000000b0: 1ca9 a940 4382 5e40 352b 9540 4d0f 7b40
000000c0: 81e0 4640 abff e140 6dd2 293f 9334 d340
000000d0: f466 9640 7db0 5040 39f0 2041 99ac 9f40
000000e0: c5e6 4d40 6da1 c03f a6c0 0640 4cc7 2c41
000000f0: 6882 0741 d6e8 9640 8cad ad40 2955 a73f
00000100: 1aca 9640 03a5 3441 61db ec3f d308 1940
00000110: e9aa 0e41 3406 b940 d9d0 d640 9b7f 3840
00000120: 4b27 6140 33de 1c40 57c5 d33f 388f a140
00000130: af76 8740 ea40 2a40 b864 2a40 3211 a640
00000140: e8f2 3c40 87fd dd3f 94da 1a41 ade1 ac3f
00000150: 154c 4640 12aa 8241 444b 0141 e4da c43f
00000160: e2c6 e33f a405 f33f 5fcb 3f40 a7d9 3440
00000170: 8855 8a40 c6a8 3041 eb3a 6740 f0b9 4941
00000180: 3908 4e40 bda1 5241 9038 bb40 c127 8440
00000190: 06c4 6541 6786 dd40 e346 af40 9b38 9a40
000001a0: fd27 8940 ec93 8840 21b6 5340 3af4 0640
000001b0: f144 ac40 7275 d83f 5a9a 4b40 2cf1 803f
000001c0: defe 0d3f 04b9 7840 8249 8c40 4f42 6040
000001d0: 8a17 cb40 33ba 7740 8d01 2540 d884 5c40
000001e0: f269 0f41 3bc8 9a40 3828 ff3f bb16 8a40
000001f0: d8eb ba40 f247 c240 fa81 6640 7f75 fd3f
1.4770932 3.1830757 3.1325135 2.5142503 5.274097 3.7731783 7.82972 2.1476843
6.512051 10.726753 5.5965652 1.9071083 7.9530435 2.492184 7.4256244 4.859749
2.6981332 4.09404 7.1547866 8.519469 5.7989635 2.259399 3.8419127 2.6880348
5.309157 3.6348815 4.553529 2.7163053 8.331892 3.50538 8.474098 3.9792233
5.7473993 7.116952 5.1210356 4.80388 8.566999 2.5215998 0.9294843 22.383247
1.706219 3.838054 5.357704 5.238236 5.301893 3.4767005 4.6615243 3.922809
3.1074526 7.0624595 0.6633671 6.6001678 4.7000675 3.260772 10.058648 4.989819
3.21721 1.5049263 2.1055083 10.798656 8.469337 4.7159224 5.427435 1.3072864
4.7121706 11.290286 1.8504449 2.3911636 8.916726 5.782007 6.712994 2.8827884
3.5180233 2.451062 1.6544598 5.0487328 4.2332377 2.660212 2.6623974 5.189599
2.9523258 1.7342995 9.678364 1.3506371 3.0983937 16.333042 8.080875 1.53793
1.7795069 1.8986096 2.9967878 2.8257844 4.322941 11.041204 3.612971 12.607895
3.2192519 13.164487 5.8506546 4.129853 14.360357 6.9226565 5.477403 4.81941
4.2861314 4.268057 3.3079913 2.1086564 5.3834157 1.6910841 3.1812959 1.00736
0.5546702 3.8862925 4.383973 3.5040472 6.3466234 3.8707397 2.5782197 3.4456081
8.963366 4.836942 1.9934149 4.3152747 5.8412895 6.0712824 3.6016831 1.9801482

model.3.weight f4 [128, 128]
00000000: b564 983d 5526 433e a162 1b3e 12cc 38bf
00000010: cb1e 3dbf d4d8 233f a1c0 b23f 5366 26be
00000020: e89d 4dbf dd70 af3e 1e0b 8e3c d171 a4be
00000030: 8241 123e 5001 12bf 4f36 4a3f 29fc 20bf
00000040: 9f8d afbe af67 1ebf 859b 35bf ccd3 ff3d
00000050: 1a37 543d b060 133e 1b6d 03bf 3aeb 1dbf
00000060: 3bff 1ebe e232 c53e d8b3 f6be 8d14 40bd
00000070: 33f3 fcbd 2cf8 3d3c f5a4 823d bcc0 483e
00000080: 8026 9b3e 0c99 10bf a835 1e3d f52a 903e
00000090: 74d3 bebe 689d 4dbf 67e0 68bf 0e42 5ebf
000000a0: 7329 123e 2f3d 3d3f 5fd4 423e d9ee 70be
000000b0: c6a4 31be 4edb 4ebf 4d24 34bf c4ae f43e
000000c0: 8d6d acbe cc39 6e3e 6610 d3be fb28 8fbe
000000d0: b939 7c3f d81e 533b bb1f 9fbe f5f1 c73d
000000e0: 07b2 87bf 3311 5e3f 8d54 2abf 2c2e e63e
000000f0: 59ce d13e 835d cc3e a83e 2dbf a088 62be
00000100: 6fca 4c3d 99da f9be 2fee 603f 613f 55bc
00000110: 196f 64bf dfe6 833f 0e1f df3e a79b 3e3d
00000120: 6c44 d73e 4199 d8bf e1c8 213e ed7c 36bf
00000130: e23d 863e 1cec 7abd 0387 4c3d e498 d53d
00000140: 789e 6d3e 16ae 2d3e 3026 8cbf 7117 dd3b
00000150: e12f 1fbe 6df4 9d3c 161b 30bc 3664 64be
00000160: 9972 95be 4d55 073f f71c ef3e a6f0 ef3e
00000170: 2513 c43e 1ee0 723e f4e3 e6be 2b56 8d3e
00000180: 6dea 003e 6d48 8dbd 8428 10bf 1834 b7be
00000190: dc65 b83c 4ac5 5abe a71a 83be c378 b6be
000001a0: f025 40bf 0eba 81be 0597 fd3d cfbc 5f3f
000001b0: 2a06 7bbe 8720 cdbf 87b8 b4bf eb11 edbe
000001c0: 8fa8 a53e 027b ad3e 6f5e 083f 967c a33e
000001d0: 2499 38bf 253a ad3e f676 d53e cddf 873d
000001e0: 8b66 413f 1e48 d53e 8227 843e 7da7 e0be
000001f0: fc29 8a3f 0301 613f 2d98 633e 9d4d 503e
00000200: 65de b73e 9e8a b43e 187f 6abe ad76 2bbe
00000210: e49a a3bf 0d77 88bd 6adc 803e 8cea 43be
00000220: 671a 5fbf 50ba b2be 8ade 513f a006 083f
00000230: 89b9 9ebe 59f2 c1be cfa7 8dbe 4c63 e33e
00000240: 73a4 b83e c9a2 4abf de92 efbe b118 d4bd
00000250: 81c1 2e3f 5e86 d7bd 8520 f93e c57a e63d
00000260: be78 5c3f 1411 63be a4d7 adbe 6b25 763e
00000270: d70f 30be a176 74be 73b1 b03e 3f96 053d
00000280: 8ebe 143d 09b8 a0bf dee6 88bf 78ea 463f
00000290: d188 2d3f d250 9fbe 75d4 a83e e0ea 44bf
000002a0: 0f41 99be f559 32be 3832 4d3c 8335 fb3e
000002b0: 0e6a 2bbd 9284 663e 00ca 9fbe a29c a33e
000002c0: f544 053e c694 21bf 323a 5fbe d466 b1bf
000002d0: 1849 533d 7973 a43e 7363 68be 596d b53e
000002e0: 82d9 d23e ce38 263f 1d41 0c3e 42b3 e73e
000002f0: a597 ff3d d736 81bf 5842 f43d 1a79 eebe
00000300: 7fcd e23d a7b3 30bf dafd c03e ecf0 dd3e
00000310: 761b adbd d27e 083e c836 d7be 2f72 fa3e
00000320: 3765 24be 4b6d cbbe e18e 8a3e 337b 18bf
00000330: 14e9 b5be f24f f43e 58e4 343f 5f99 fabe
00000340: 173f 96be 7afd 8fbf b787 45be 3680 013e
00000350: d0d1 94be 446b 3dbf 86f0 a2bc b1ec cc3e
00000360: a593 873e d2bd d73d 68a1 693e bf62 983d
00000370: e236 023e 9804 03bf 9b92 46be 69e7 9f3e
00000380: af25 a9bc be6c d43e 29de 9fbf db7e 173f
00000390: e8a4 023f 6c3a f83d 6cc8 a4bd 9eaa 42bf
000003a0: 220a c9bf 2ebb 833e 91f9 9e3d c51f 10bf
000003b0: 180d bebe 440b 073e 0692 99be 0ce0 d93d
000003c0: 584c 4c3f 1978 273f 1cf7 afbe 32d1 973e
000003d0: 3001 993e 1603 863e 15ea e6be 0d60 883e
000003e0: 79a1 f03e 88bb 3abf 026d 11bf 7981 a8be
000003f0: 38e6 6c3d f348 2b3e 8f9b ab3e 8f2e 93be
0.07441083 0.19057591 0.15174343 -0.72186387 -0.7387511 0.6400273 1.3965036 -0.16249971
-0.8031907 0.34265795 0.017339285 -0.32118085 0.14282802 -0.5703325 0.7898912 -0.62884766
-0.34287736 -0.6187696 -0.7094043 0.12491569 0.05181036 0.14392352 -0.51338357 -0.6168705
-0.1552705 0.38515383 -0.48184085 -0.0468946 -0.12351074 0.011594813 0.06379119 0.19604772
0.3030281 -0.5648353 0.03862539 0.28157774 -0.372707 -0.8031831 -0.9096741 -0.8681954
0.14273624 0.73921484 0.19026326 -0.23528613 -0.17348012 -0.8080338 -0.7036789 0.47789586
-0.3367733 0.23264235 -0.4122345 -0.27960953 0.9852558 0.003221443 -0.31078896 0.097629465
-1.0601205 0.86744994 -0.66535264 0.449571 0.40977743 0.39915094 -0.6767373 -0.22122431
0.049997743 -0.4879959 0.8786344 -0.013015599 -0.8923202 1.0304831 0.4357838 0.04653516
0.4204439 -1.6921769 0.15799285 -0.7128437 0.26219088 -0.061260328 0.049933445 0.10429552
0.23204982 0.1696094 -1.0949154 0.006747179 -0.15545608 0.01928159 -0.010748645 -0.22303852
-0.29188994 0.52864534 0.46701786 0.46863288 0.38295856 0.23718306 -0.4509579 0.27604803
0.12589426 -0.0689858 -0.5631182 -0.35781932 0.022509508 -0.21364322 -0.25606272 -0.3563901
-0.7505789 -0.2533726 0.1238232 0.87397474 -0.2451407 -1.6025552 -1.4118813 -0.46302733
0.32355163 0.3388291 0.53269094 0.3193099 -0.72108674 0.33833423 0.41692322 0.066344835
0.75547093 0.41656584 0.25811392 -0.43877783 1.0794063 0.8789217 0.22226019 0.20342107
0.3591186 0.35262007 -0.22900045 -0.1674449 -1.2781644 -0.06663332 0.25168163 -0.19132441
-0.8714966 -0.3490777 0.8198019 0.5313511 -0.31000927 -0.3788021 -0.2766709 0.44411695
0.36062965 -0.7915464 -0.46791738 -0.10356272 0.68264014 -0.105236754 0.48657623 0.11253885
0.8612174 -0.22174484 -0.33953583 0.24037711 -0.17193542 -0.23873378 0.34510383 0.03261399
0.03631454 -1.2556163 -1.0695455 0.7770152 0.6778689 -0.31116349 0.32974592 -0.7692089
-0.29932448 -0.17417128 0.01252418 0.49064264 -0.04184919 0.22511509 -0.312088 0.3195544
0.13014586 -0.63117635 -0.21799543 -1.3859506 0.05158338 0.3211935 -0.22694187 0.35434988
0.4118157 0.6493043 0.13696714 0.4525395 0.12480096 -1.0094861 0.119267166 -0.46576768
0.110743515 -0.6902413 0.37693673 0.4334787 -0.084525034 0.13329628 -0.42033982 0.4891524
-0.16054235 -0.3973182 0.27062133 -0.5956299 -0.35529387 0.47717243 0.70660925 -0.48945138
-0.2934501 -1.124923 -0.19290052 0.12646565 -0.29066324 -0.739918 -0.019890081 0.4002433
0.2647983 0.10534252 0.22815478 0.07440709 0.12716249 -0.51178885 -0.19391863 0.3123124
-0.020647852 0.41489214 -1.2489673 0.5917794 0.51032877 0.12120518 -0.0804604 -0.7604159
-1.5706217 0.25728744 0.07762445 -0.56298476 -0.37119365 0.13187891 -0.2999422 0.10638437
0.7980399 0.6541763 -0.34368217 0.2965179 0.29883718 0.2617423 -0.45100465 0.2663578
0.46998194 -0.729424 -0.5680696 -0.3291128 0.05783674 0.16727047 0.3351712 -0.2874646

model.3.bias f4 [128]
00000000: 51db fcbd deab a2be 7afb a9be f30b 09bf
00000010: 6359 b8be e9fd c7be da89 c1bd 2f3a 09bf
00000020: 2f5c 37bf 47ab 08bf 175c 5ebf fa2e 36bf
00000030: 812e 23bc 7e96 c93d 5911 1abf 72fc 80be
00000040: bfaa 3ebf ba48 2a3e 366b 1fbf d24f 00bf
00000050: cb3c 533f 854b 40bc dc44 14bf 90a0 1ebe
00000060: 0da7 073e c817 8abe eb76 4a3e 48f8 47bf
00000070: e2db 20bf 7dfe 4dbf 9ba3 ebbd 7260 98bc
00000080: 853f 25bf 5624 b1bf 6bcb 0ebf 5b8d 1bbe
00000090: c6df f23c c8ae b1be 72d0 c5be 7e18 aa3d
000000a0: 9b73 85bf cdd8 12bf d131 0dbf d52f 0dbf
000000b0: bfcc 31bf cf1b e4be 4748 f1bd 7011 0fbf
000000c0: 6181 c9bd cd24 79bf 16e8 70bf 1fcd c2be
000000d0: cb61 ebbe ae20 17bf 8b24 95be 2765 46bf
000000e0: eb8a 29bf 4fb7 28bf 4afd 23be 8d0d 5abd
000000f0: 6e34 35bf 3ddb c5be 7fca 1cbf 5a3b 66be
00000100: 7240 b5bd 0ea3 f6be cbcd b7be 842a 41be
00000110: 60d3 38bf dd58 343e 1ffd a0be f28a 25bf
00000120: 4bbe 38bf cee9 29bf d927 74bf 3a5f fabe
00000130: f857 cfbe 01a1 6b3e 6e92 1ebe c852 593f
00000140: 86f6 50bf 162b c7be 42bb 47bf 3240 6dbe
00000150: 9354 dcbe 25ac 343d 9ad3 db3a d733 8cbf
00000160: c2f2 0dbf 34d9 2bbf 4400 3ebe 7c7e d3be
00000170: a591 cdbe 4191 f7be f2df 71be 7a83 0cbf
00000180: 9ba5 e3be 2c1d 33bf 6349 80be f4d5 e0be
00000190: 645d 09bf 1c61 3040 1cd1 62bf 52d3 50bf
000001a0: 949f 6dbf 380f 13be bc54 953d 16a7 4ebf
000001b0: bda4 01bf 46d3 3c3f a332 a7be f4e4 16bf
000001c0: e9c7 2540 9a4f cd3d dff3 50bf 0ffb 243e
000001d0: 007e 37bf d5d1 e83e 684a 953e d6a2 93bd
000001e0: 4b4a 373e 7525 44bf ab25 9dbe ff50 4cbf
000001f0: bf49 a8bd 6889 73bd a8aa b9bd e090 51be
-0.12346519 -0.3177175 -0.33199674 -0.5353386 -0.36005697 -0.39060906 -0.09450121 -0.53604406
-0.71625036 -0.5338635 -0.8685927 -0.7116543 -0.009959818 0.09843157 -0.6018272 -0.251926
-0.7447929 0.16629305 -0.62272966 -0.50121796 0.8251464 -0.011736755 -0.5791757 -0.15490937
0.13247319 -0.2697127 0.19771926 -0.7811322 -0.62835515 -0.80466443 -0.11505815 -0.018600676
-0.6455005 -1.3839214 -0.5577914 -0.15190642 0.02964772 -0.3470366 -0.38635594 0.08305453
-1.0425905 -0.5736206 -0.5515414 -0.5515111 -0.6945304 -0.44552466 -0.11781364 -0.5588598
-0.0983913 -0.9732178 -0.94104135 -0.3804712 -0.45973048 -0.5903424 -0.29129443 -0.77498096
-0.66227597 -0.65904707 -0.16014591 -0.05323558 -0.70783126 -0.38643828 -0.61246485 -0.22483578
-0.088501826 -0.48171276 -0.35899195 -0.18863875 -0.7219753 0.17612024 -0.31443116 -0.6466514
-0.72165364 -0.6637238 -0.953733 -0.48900777 -0.40496802 0.23010637 -0.15485546 0.8489194
-0.81626165 -0.3890006 -0.7802011 -0.2316902 -0.43033275 0.044109482 0.0016771436 -1.095332
-0.55448544 -0.671283 -0.18554789 -0.41307437 -0.4015018 -0.48353007 -0.23620585 -0.5488812
-0.44462284 -0.6996639 -0.2505599 -0.43913233 -0.5365813 2.755927 -0.88600326 -0.8157245
-0.9282162 -0.14361274 0.072915524 -0.807237 -0.50641996 0.7375988 -0.3265582 -0.58943105
2.5903265 0.100249484 -0.8162212 0.16111396 -0.71676636 0.4547259 0.2915833 -0.07208793
0.17899434 -0.76619655 -0.306928 -0.7981109 -0.08217191 -0.059457213 -0.09065753 -0.20465422

model.5.weight f4 [128]
00000000: 00bc 453f bf3d af3f 79bb 843f 5f5f 953f
00000010: 4c2e a23f c210 b03f 0168 a13f 7deb 973f
00000020: 1241 8f3f a991 d53f 23fe b63f 318a ba3f
00000030: f666 b73f bc92 a13f 5016 ba3f 2da7 2c3f
00000040: c6e9 543f d842 943f 7453 933f 8b49 a53f
00000050: 87b1 943f 6908 563f 5eab b33f 3b72 313f
00000060: 3dfb 583f 5d31 7a3f 347b a73f a3fd 923f
00000070: 0610 a93f 1340 923f 4df3 9d3f 8469 ad3f
00000080: db6d d93e f275 a23f 3c66 c63f 7dbb 7d3f
00000090: 4887 8e3f cc14 a63f 1949 a13f 6844 7d3f
000000a0: 8663 a23f 2107 c23f 5043 943f c9fc 9c3f
000000b0: 1359 b53f 6937 ef3f 7328 593f 25db 633f
000000c0: a093 783f 3e5d a23f b5fc b53f 3494 8f3f
000000d0: af34 833f 29d3 86bf a62a 993f 64ae 953f
000000e0: 520d ac3f 5408 af3f 8583 db3f aaf0 483f
000000f0: b6aa ab3f 8a9b d13f 1a97 993f b189 c33f
00000100: 54e5 973f 724c a93f d9a2 be3f 88ba a33f
00000110: 7d4c 8f3f 1545 b93f 1512 8f3f 6a32 aa3f
00000120: 095a a43f dc7f 8f3f 9ce9 8a3f 6ac1 6f3f
00000130: f6d8 c43f db44 a93f 98ee 6d3f c9fd a13f
00000140: de94 ae3f 141e a73f 44cd b73f d552 613f
00000150: bf06 b53f d62f 433f 94bd 763f dd40 233f
00000160: d159 953f 5ab4 a83f 9cbc a73f 203f be3f
00000170: 9c81 ac3f 6548 f43f 6cff a73f 2f8c 4c3f
00000180: b895 9e3f 5d00 b53f ae10 353f 6fb4 c63f
00000190: 07e1 933f 0726 763f 5217 933f 26d0 9c3f
000001a0: e315 893f f8f4 a03f 48fb 3b3f 98ae cf3f
000001b0: d29a c53f 1d43 823f 20de 9a3f d189 a33f
000001c0: ba36 163f 2b1a 703f 8143 973f 9437 8f3f
000001d0: 34eb 973f b354 923f 9793 4f3f 3c93 353f
000001e0: b580 793f 59f3 d03f 7eda 853f 3d8f 183f
000001f0: 520b 813f 61d1 9d3f 0311 ba3f b9c2 7d3f
0.7723999 1.3690718 1.0369712 1.166973 1.2670379 1.3755114 1.2609864 1.186874
1.1191733 1.6685077 1.4296306 1.4573423 1.4328296 1.2622905 1.4538059 0.6744259
0.8316921 1.1582899 1.1509843 1.2913069 1.1616677 0.8360658 1.4036672 0.69314927
0.8475836 0.9773157 1.3084474 1.1483654 1.3208015 1.1425804 1.2339875 1.3547826
0.42466626 1.2692244 1.549995 0.9911421 1.1135035 1.2975097 1.2600433 0.98932505
1.2686622 1.5158426 1.1583042 1.2264644 1.4167808 1.8688785 0.84827346 0.89006263
0.9710026 1.2684705 1.4217745 1.1217103 1.0250453 -1.0533191 1.196614 1.1693845
1.3441565 1.3674417 1.7149512 0.78492224 1.3411472 1.6375592 1.1999238 1.5276395
1.186686 1.3226454 1.4893447 1.27913 1.1195217 1.4474207 1.1177393 1.3296635
1.2839977 1.1210895 1.0852542 0.936545 1.5378711 1.3224138 0.9294219 1.2655574
1.3639181 1.3056054 1.4359517 0.88017017 1.4142684 0.76244867 0.96383023 0.6377085
1.1668035 1.3180039 1.3104434 1.4863014 1.3477054 1.9084593 1.3124824 0.79901403
1.238944 1.4140736 0.70728576 1.5523814 1.1553048 0.96151775 1.1491492 1.2251022
1.0709804 1.2574759 0.734303 1.6225157 1.5437872 1.0176731 1.2099037 1.2776433
0.58677256 0.9378993 1.1817476 1.1188836 1.1868653 1.1432098 0.8108458 0.70927787
0.97462016 1.6324264 1.0457304 0.59593564 1.008158 1.2329522 1.4536442 0.9912525

model.5.bias f4 [128]
00000000: 9b51 823d 8489 573e 34d0 0a3e ed8a 3f3e
00000010: 18de ac3e a9a9 833e 053d 943e 4d0e 833e
00000020: e254 283e 9a25 a03e d66c 413e 8497 893e
00000030: ac6f 913e 8558 203e 8ee5 583e 2f70 08be
00000040: 5b4b 19bc 7c77 9a3d a359 3e3e c65a 573e
00000050: 78ab 21be 86d9 823d 4b91 6d3e 91e5 a13d
00000060: f8a8 243e cc30 ad3d 209c 913d 17e2 4c3e
00000070: cf93 3b3e 76a4 4d3e d52a 2dbd 3481 9b3e
00000080: 59e5 013d 5717 4a3e 18af 8e3e 41c1 233e
00000090: 4c22 9a3d b8b1 b73e dcd8 843e 3f13 45be
000000a0: 80ef 2f3e 9f47 933e c994 6b3e 3d92 513e
000000b0: 53a1 2c3e 2137 c23e 522e a5bd 0249 293e
000000c0: 4e4e 253c 2feb 853e aa1f 443e 591c 423e
000000d0: 019d 7a3e 7625 2eb7 3b5e 693e 87db 173e
000000e0: 9e91 843e 6320 853e 73ff 6d3e aed8 203d
000000f0: df3c 783e 2120 803e f80b 3c3e 2b17 5c3e
00000100: 0584 0e3e 78b8 403e 5cc9 953e 970c 033e
00000110: 64dc 463e ba8e 683e a215 983e ad13 6a3e
00000120: ac77 a43c c5e6 5b3e 5c99 cc3d 9fd8 acbd
00000130: 70a4 7f3e e447 a13e d998 c43d 6e7e d1bd
00000140: b9cb 3a3e f391 8c3e e89b 773e 211f a53d
00000150: 2708 883e 931d 0c3e d18f 5dbd 10b3 023c
00000160: 0634 de3d 064e af3b 386a a13e 6f1b 813e
00000170: 6f41 793e 2b0c b23e fe6c 8e3e 84cf d1bd
00000180: 5148 d43d 3cb0 823e fcd5 8dbd 5757 323e
00000190: 6209 713e 180c a23b 51cb 223e d38b d03c
000001a0: 18f1 20be a716 7b3e b176 c0bc 76bf 9c3e
000001b0: 61a0 ad3e 8612 f5bd 32ca 793e c1c2 a03e
000001c0: 4f7e 24be 7ac3 0b3e 9cd6 8d3e f98a a43e
000001d0: 0990 4f3e 6d1b 83be 5cfc 5fbb a287 123c
000001e0: aed7 343e 3e5f b23e eea7 303e ed3f bbbd
000001f0: 517d 7e3e c43d 973e 674e a83e b640 1f3e
0.06363221 0.21048552 0.13555986 0.1870534 0.33763194 0.25715378 0.28952804 0.25596848
0.1643863 0.31278688 0.18889174 0.2687341 0.2840551 0.15658768 0.21181318 -0.13324045
-0.009356345 0.07542321 0.18588881 0.21030721 -0.15788066 0.063891456 0.23199956 0.079051144
0.16080081 0.08456573 0.071098566 0.20008121 0.18318103 0.20082268 -0.042277176 0.30372012
0.031712864 0.19735466 0.2786796 0.1599169 0.07526073 0.35877776 0.259467 -0.19245623
0.17181206 0.2876558 0.23005976 0.20465942 0.16858415 0.37932685 -0.080654755 0.16531757
0.01008947 0.26155993 0.19152704 0.18956126 0.24473955 -1.037993e-05 0.22789852 0.14829837
0.25892347 0.26001272 0.23241977 0.03926914 0.2424197 0.25024512 0.1836394 0.21493213
0.13917549 0.18820369 0.29255188 0.12797771 0.1942001 0.22710696 0.29704005 0.22859068
0.020076595 0.2147475 0.099901885 -0.08439755 0.24965072 0.3150016 0.09599466 -0.10229193
0.18241777 0.274551 0.24180567 0.08062578 0.2656872 0.13683157 -0.054092232 0.007977262
0.108497664 0.0053498773 0.3152635 0.25216243 0.24341367 0.34774908 0.2781753 -0.102446586
0.10365356 0.2552508 -0.0692558 0.1741613 0.23538736 0.0049452893 0.15897872 0.025457298
-0.1571697 0.2452036 -0.023494096 0.30614823 0.33911422 -0.11966424 0.24393538 0.31398585
-0.16063808 0.13648787 0.27702796 0.32137278 0.20269789 -0.25606862 -0.0034177518 0.00894347
0.176604 0.3483829 0.1725156 -0.09143052 0.24852492 0.2953931 0.32872316 0.15552029

model.5.running_mean f4 [128]
00000000: 01a1 6e3f 375f c73e a111 953f 5d1c b73e
00000010: 8f0e a83f 22a7 d33e 905a 423f af2c 4f3f
00000020: b7a2 bb3e 6a74 d53e f52b 023e ebc5 603e
00000030: 78db 0f3f 751f 5940 b065 8f3e 6850 0240
00000040: 90ee 143f 041b 7540 15e2 843e 8ed2 a43e
00000050: 3f83 2b41 24bc 943f f15a 9d3e 14b2 c83f
00000060: b066 8740 4111 453e a224 1d3f c811 9b3e
00000070: 88aa 603e 9111 a63e d722 323f 11e4 cf3e
00000080: c294 823c 2ebe 3e3e 6d1b dd3e 5c2f 073f
00000090: daba 5c40 c85a f53f 743d 583f 45da 3c40
000000a0: 8226 663e 558b 283f f647 693f a7df 3f3e
000000b0: ecd8 f63d c309 0c3f 5926 8d3f 7bfd c93e
000000c0: eb68 5940 7295 133f aeba a33e a673 913f
000000d0: 33da 8c3f 4e87 953e 0174 e73f 730a db3d
000000e0: a8ca c13e c3d9 473e cace 253f b022 ba3f
000000f0: c69b ab3e 43c8 483f e45c 143f 3460 8a3e
00000100: 2fd3 313f 1a38 603e d3ce 193f 2b13 6b3f
00000110: b88c d93e 0b04 0040 3a9f fb3f 3741 bd3e
00000120: e554 033d 3ec7 c83e f44b 6e3e 6148 aa3f
00000130: 16d6 6b3e 7f8b 8a3f abbb 5b40 a2f2 4841
00000140: d1f6 0e3e df64 873f e665 9f3e d4b9 703f
00000150: 641c 1f3f b582 fc3f 80d8 2440 482e 2026
00000160: a946 973f 0400 0000 0f5f 6a3f 738a ea3e
00000170: f18f 0d3f c2e2 e13e d548 1440 4f14 b93e
00000180: 02b6 833f 42a5 ce3e 63ff 8a3f 5568 263e
00000190: 4394 a93f 5874 6541 27cb b13d 0f7c 093e
000001a0: de92 cc3e 36fa 8b3f 4d20 cf40 6f22 073f
000001b0: 4cd6 1e3f d05e eb40 bab3 6c3f 59d2 373f
000001c0: 9c32 8541 84fc 343f 471f 223f efc2 0540
000001d0: 8d75 b53e 0783 2940 42da 3441 7983 6b40
000001e0: f5cc 3040 bae5 363f 0038 f93e 2ac1 fd3f
000001f0: f922 3a40 6484 c53f e894 2e3f 4a98 a53e
0.9321442 0.3893983 1.1646005 0.35763827 1.3129443 0.4133845 0.7591944 0.80927557
0.3664758 0.4169038 0.12712081 0.219505 0.5619426 3.392545 0.2800727 2.0361576
0.5817652 3.829774 0.25953737 0.3219189 10.7195425 1.1619916 0.30733445 1.5679345
4.231285 0.19244863 0.6138402 0.30287004 0.21940053 0.32435277 0.6958441 0.40603688
0.015940074 0.18627235 0.43184987 0.5280664 3.4489045 1.9168329 0.8446877 2.950822
0.22475627 0.65837604 0.9112543 0.1873766 0.12053093 0.54702395 1.1027328 0.39451203
3.3970287 0.5764991 0.31978363 1.1363418 1.1004089 0.29204792 1.8082277 0.106953524
0.37849927 0.19516663 0.6476866 1.4541836 0.33517283 0.78430575 0.5795424 0.27026522
0.69462866 0.21896401 0.60081214 0.91826123 0.42490172 2.0002468 1.9657967 0.36963817
0.032063384 0.3921451 0.23271161 1.3303338 0.23030886 1.0823821 3.4333293 12.559237
0.1396134 1.0577658 0.3113243 0.9403355 0.62152696 1.9727389 2.575714 5.5573874e-16
1.1818439 6e-45 0.915513 0.45808753 0.5529776 0.44118315 2.3169453 0.36148307
1.0289919 0.40360457 1.0859188 0.16250737 1.3248371 14.340904 0.08681326 0.13426231
0.399558 1.0935733 6.472693 0.52786916 0.6204574 7.355324 0.9246174 0.7180534
16.649712 0.7069781 0.63328975 2.0900228 0.35441247 2.6486223 11.303286 3.6798995
2.7625096 0.71444285 0.48675537 1.9824574 2.9083846 1.5431027 0.6819596 0.3234275

model.5.running_var f4 [128]
00000000: 4369 a440 9d92 4340 14bb 1241 e8d3 fa3f
00000010: b5bc 4941 6a0d 4340 44a1 e640 668d c540
00000020: 7a86 4140 ba5c 3340 9fde 3a3f f87b c23f
00000030: aa19 8a40 0cd3 9841 efa7 0840 738a 1041
00000040: a7d7 1f40 91a5 f541 e863 c93f 2814 0740
00000050: cc63 7842 0258 eb40 4590 0b40 ae73 1941
00000060: b5da 1642 6996 263f bbf2 0040 2243 1440
00000070: eba8 ae3f aa15 1740 b35f 6540 3c18 3c40
00000080: 12a0 8f3d add6 9a3f 3744 8440 b9ab 5040
00000090: 363a 9441 3c4c 8641 fb18 2341 2106 4c41
000000a0: afdd 0b40 ed8d d340 df8e 1141 34fb 5d3f
000000b0: d2c6 5d3f 0856 9b40 3716 7c40 4cdc 3840
000000c0: 436a ce41 74cf a640 730f 4440 c85d b240
000000d0: 160c 0e41 228d 793f 285f 4241 6627 383f
000000e0: 70a2 2640 37d8 8c3f 41d9 5b40 567f c140
000000f0: 9670 1b40 47df a540 c4f7 b740 2faf e63f
00000100: aa75 8040 f2fb c23f 4aa7 c540 c9fe a940
00000110: 6079 7b40 55f5 7441 3bc7 ae41 d141 3540
00000120: b203 763d 10ca 2540 045f d63f 3703 c940
00000130: 4387 c13f 2e5f d540 ce29 1d42 b345 7c42
00000140: e65b 2b3f 9d83 4041 868c 1340 7abb 8c40
00000150: e5d2 aa40 d63a 5241 920c 5541 de1d 2926
00000160: 4ff3 1741 0400 0000 fb1f d040 897d 2040
00000170: 67cd 9d40 21bb 8240 204d af41 bbc0 893f
00000180: 4362 d940 294f 5640 b792 b940 2cf4 1d3f
00000190: 01aa 2c41 fbad 7842 65b4 d03e 731f ad3e
000001a0: d0f4 733f 3ad9 2641 046c 3842 1cb9 ae40
000001b0: 3340 b440 fc4f fe41 0bf5 0a41 95ab dd40
000001c0: 620c 5142 0c16 6b40 b1a4 b340 ceac 9741
000001d0: 1f64 2040 81c6 3d41 3089 8042 c305 9841
000001e0: 25ea 9941 8079 b540 616e 5840 8bcd 3841
000001f0: 5693 d141 66f9 7741 9d41 a640 39b8 0640
5.1378493 3.0558236 9.170673 1.9595919 12.608571 3.0476937 7.2071857 6.1735106
3.0238328 2.8025346 0.7299594 1.5194082 4.315633 19.10305 2.1352499 9.033801
2.4975374 30.705843 1.5733614 2.1106052 62.097458 7.354493 2.1806805 9.590742
37.71358 0.6507326 2.014815 2.3165975 1.36453 2.3606973 3.583966 2.9389791
0.07012953 1.2096764 4.133327 3.260481 18.528423 16.787224 10.193599 12.751496
2.1854055 6.611075 9.097381 0.8671143 0.866315 4.854252 3.938856 2.8884459
25.801886 5.212824 3.063443 5.573948 8.877951 0.97480977 12.1482315 0.7193512
2.6036644 1.1003484 3.4351351 6.046794 2.4287467 5.1835055 5.748995 1.8022212
4.0143633 1.5233138 6.176671 5.3123517 3.9292831 15.3098955 21.84728 2.832142
0.060062118 2.590458 1.6747746 6.2816424 1.5119404 6.6678686 39.290825 63.068066
0.669371 12.032132 2.3054519 4.3978853 5.338244 13.139364 13.315569 5.867413e-16
9.4969015 6e-45 6.503904 2.507662 4.9313235 4.085343 21.912659 1.0761942
6.793245 3.3485816 5.7991595 0.617007 10.791505 62.169903 0.4076263 0.33813056
0.9529543 10.428034 46.105484 5.4600964 5.632837 31.789055 8.684825 6.927195
52.262093 3.6732206 5.613854 18.959377 2.506111 11.860963 64.267944 19.002813
19.239328 5.6710815 3.381737 11.550181 26.196941 15.498388 5.1955094 2.104994

model.6.weight f4 [4, 128]
00000000: 5001 16bf d948 41bc cc20 f3be 0892 253f
00000010: 0794 94bd 9d3d fd3e 74dd 8dbe 9eb0 63bf
00000020: 0159 3bbf adc2 6abf 56c0 d3be b3ba 3b3e
00000030: 3083 34bd 7304 8e3f 86fc cfbd b465 12bf
00000040: 3b58 783f e567 3bbf 25d9 403f 9168 8cbd
00000050: c645 413e b176 9dbe e837 ef3e ddbf 103f
00000060: 0713 273e 681e 3f3f 4163 1fbf 588a 5bbe
00000070: e9d5 b2be 6279 5abe 303a 8a3f 438e b7be
00000080: 79a7 793d 35bd b03e 8874 2c3f 30c3 f13e
00000090: ac36 7b3f bf36 603f 8b73 263f 9bf2 71bf
000000a0: 4933 513e 794f 2c3f 0420 c6be 7768 d23c
000000b0: 6748 8dbd 67ae 383f 2a9f 363f 54d0 f73e
000000c0: f3ba 9a3f 79e0 423f 998e 84bd 2063 3f3f
000000d0: 1aae 253e aa62 cebe 447a 0ebf ba6b 113f
000000e0: b89e dfbc 13f1 d53e a362 c13f 9458 53be
000000f0: 86f4 963e a572 bd3f 1b82 3cbf 2083 9bbe
00000100: cf58 52bf 817d 29bf c4eb 983f 96e2 3dbf
00000110: 8061 9b3e 1f25 85bf 99aa e2bd 0a72 6b3e
00000120: b17e b6bd e69e cb3e 9aff ddbc 73f2 873f
00000130: b078 b73e 4989 b03e 675a 61bf d446 723f
00000140: 3a74 2c3e 4195 32bf 9920 1e3f 1a2c b13d
00000150: c5a0 adbe 714d 0a3e 906d 5bbf b471 143d
00000160: c10a 9abf 6ad4 2e3b d159 02bf 5ab1 31bf
00000170: d80e 253f eb68 57bd 1df5 5cbf 3d22 c93d
00000180: 6a80 7f3f 1f1f 143f 05f8 613d dedb 46bc
00000190: 124b 1cbf 6081 613d 246c a23c c343 fabd
000001a0: a2fd 4fbf 88ed 2dbf 16ed 97bd 59c4 9dbe
000001b0: 1394 2cbe e282 4c3f 7a0b c9be 669c f33d
000001c0: c057 6e3d 4dc3 773e e3fb 7a3e d26e 9abf
000001d0: e597 323d 443b 783f 5ae5 c6bd ef4c 403e
000001e0: 7834 3f3e 5bcf af3f 68e6 f6be d4bd 2bbc
000001f0: 3924 3f3e e239 9ebf 36c5 11be 496e 443e
00000200: bc09 e53c 759f d43e c068 c73e 6e21 593e
00000210: 0785 8ebe 20cb 76bd c8b3 85be 7454 edbd
00000220: ed12 973d 4e70 643d da25 1a3d 6b74 813c
00000230: e597 903d 4c28 aa3e 92a5 04be 1103 bbbb
00000240: ec1e e5be 74a4 fabe bf76 543e d5c3 5abd
00000250: 5b23 223f 09be bc3e 05bb 3ebc fcde 213f
00000260: 428a 52be 2704 a6be b674 1e3e caca e4be
00000270: 7db4 5fbb b3ad 26bf 51db 073e 7102 32bd
00000280: d0cd 02bc e685 b63d 6252 253d 53cc dabe
00000290: b553 08be a7b7 d23e f401 153f 602b 94bb
000002a0: 702f df3d 8611 72be 6509 58be 68b3 f4bd
000002b0: f2f3 7cbe ef52 edbd 8ec1 7fbb 9ccb c2bb
000002c0: 9481 edbe efcd a03d 8b5c 063e 2296 3d3e
000002d0: cff7 22be e33a 71be db70 54bf 3550 13bd
000002e0: 563c 4c3e c18e 493d 1fa5 b1bd 0207 2dbf
000002f0: 1641 603d 9b4e 19bd bb70 a23b cb88 c83e
00000300: 99da f2be ba90 ef3d 9389 0a3e ce4f d93a
00000310: 9225 b2bd 8b21 01bd 4050 57be 47b8 c6bd
00000320: 2692 f63d 46be e13c 17f0 de3e c7e0 05be
00000330: fd4b 293d 1d4a 163e d421 8f3e 7f65 403d
00000340: 1a82 ac3d 37fd 943b 9fc2 00bf 64f1 203f
00000350: e508 2e3e 6e79 4cbd ebac f1bc ea45 debc
00000360: 4ddc 9d3d a5a9 85bc 49b6 243e f0ff 87bc
00000370: 34c8 b4bd 5e38 803e c6e9 083f cb98 6a3f
00000380: 592c 1dbf f5c3 233d 0f9b d3bd 5108 4ebd
00000390: 7ce0 e1be 4e4b 213d 3ba4 3bbd 88e5 9bbd
000003a0: 28c8 80be a063 cfbe 1e57 583f 5f12 8f3d
000003b0: 82e6 0a3e e52f df3d ac94 ddbe 416b b33e
000003c0: 95b7 a63e 7002 c93d cec2 15bf 8d8b f73e
000003d0: 32b9 783c c98d fcbe 3ce0 233f 5b1c f5be
000003e0: 6add 21bf f17a 803d 53b2 3c3e 0bf9 323f
000003f0: 3740 a33e 0ab9 a33e 40ea ab3e 3d50 87be
-0.5859575 -0.011797153 -0.4748596 0.6467595 -0.072547965 0.4946107 -0.27708018 -0.8894137
-0.73182684 -0.917033 -0.41357678 0.18332939 -0.044070423 1.1095108 -0.10155587 -0.57186437
0.9700963 -0.73205405 0.75331336 -0.06855882 0.18874273 -0.30754617 0.4672234 0.5654276
0.16315852 0.7465577 -0.62260824 -0.21439493 -0.34928825 -0.21335366 1.0799007 -0.35850725
0.06095073 0.34519354 0.6736531 0.4721923 0.981303 0.87583536 0.65020055 -0.9451081
0.2042972 0.67308766 -0.386963 0.025684578 -0.06898575 0.72141117 0.71336615 0.4840113
1.2088302 0.7612377 -0.06472511 0.7476063 0.16179696 -0.4030965 -0.5565531 0.56805
-0.027297363 0.41785488 1.5108227 -0.20639259 0.29483432 1.4800612 -0.73636025 -0.30373478
-0.8216676 -0.6620713 1.194695 -0.7417387 0.30347824 -1.0401953 -0.11067695 0.22992721
-0.08910883 0.39769667 -0.02709942 1.0620865 0.35834265 0.3447974 -0.8802857 0.94639325
0.16841212 -0.69758993 0.6176849 0.0865099 -0.3391172 0.13506104 -0.85714054 0.03624125
-1.2034532 0.0026676902 -0.509183 -0.6941124 0.64475775 -0.052590292 -0.86311513 0.098209836
0.9980532 0.5785999 0.05516817 -0.012137381 -0.6105205 0.055055022 0.019826956 -0.12219956
-0.8124639 -0.6794057 -0.074182674 -0.30813864 -0.16853361 0.7988721 -0.39266568 0.11895065
0.058189154 0.24195595 0.2451015 -1.206507 0.04360189 0.9696543 -0.09711714 0.18779348
0.18672359 1.3735155 -0.4822266 -0.01048227 0.18666162 -1.2361414 -0.14235386 0.19182695
0.027958743 0.41527906 0.38947105 0.21204159 -0.27835867 -0.06025231 -0.26113725 -0.11588374
0.07376657 0.055771165 0.037633754 0.015802583 0.070602216 0.3323387 -0.12953785 -0.0057071527
-0.44750154 -0.48953593 0.20748423 -0.053409416 0.633352 0.36863735 -0.011641269 0.6323087
-0.20560554 -0.32425043 0.15474209 -0.44685966 -0.003413468 -0.65108794 0.13267256 -0.04345936
-0.00798364 0.08912258 0.04036177 -0.42734012 -0.13313182 0.4115574 0.58206105 -0.0045217723
0.1089772 -0.23639497 -0.21097334 -0.119482815 -0.24702433 -0.11588084 -0.003902528 -0.0059446823
-0.46387923 0.07851779 0.1312124 0.18514302 -0.15914844 -0.2355762 -0.82984704 -0.035965163
0.19944891 0.049208406 -0.086740725 -0.6758882 0.05474957 -0.03742848 0.004957286 0.39166865
-0.47432402 0.11697526 0.13529043 0.001657957 -0.08698572 -0.03152613 -0.21026707 -0.09703117
0.12039594 0.02755655 0.4354255 -0.13074027 0.041332234 0.1467671 0.27955496 0.046971794
0.084232524 0.004546787 -0.5029697 0.6286833 0.1699558 -0.049920492 -0.029501399 -0.027132947
0.07708035 -0.016316244 0.16085161 -0.016601533 -0.08827248 0.25043005 0.5348171 0.91639394
-0.61395794 0.0399818 -0.103323095 -0.0503009 -0.4411658 0.039378457 -0.04581092 -0.07612139
-0.25152707 -0.40505695 0.8450793 0.06985926 0.13564494 0.10897807 -0.4327749 0.35042766
0.32561937 0.09814918 -0.58500373 0.48348656 0.015180873 -0.49326923 0.6401403 -0.47873196
-0.63228476 0.06273449 0.184274 0.6991126 0.3188493 0.3197711 0.33577156 -0.26428404

model.6.bias f4 [4]
00000000: 578b 1f3e 3356 543e ff4e 923d f843 2b3d
0.15580498 0.20736007 0.071439736 0.041812867
