checkpoint_critic.pth (torch_old, 89745 bytes, 9 tensors)

model_input.0.weight f4 [128, 33]
00000000: 44bd 6ebd c958 64be f474 d93e 9ccf 2dbf
00000010: cc8b b7bf ee01 90bf 690f 04bf 8fd6 ad3e
00000020: 5a99 bd3e 180e 7fbe 5925 d83e 29d0 fcbe
00000030: a873 3d3f 7e63 e43e 687b 14bf efba 233e
00000040: d353 783f 21c7 22be 50b2 e8bf 0b7b 163e
00000050: d498 12bb d6a5 97be cd71 9fbe 6e96 553d
00000060: 208b adbc b0b4 bdbe 1d20 533d f4e5 98be
00000070: 7d69 a0be fc38 2dbe 8840 963e 1fc8 11be
00000080: 1fc9 bcbf 1093 c8be 8a1a 8ebd 0033 5b3e
00000090: 8eef c93e 1856 53bf 05d5 a33e 033d 5dbf
000000a0: 085e 1a3e 5f87 163e b7ca 8bbc f9e7 9dbd
000000b0: 8c2e 253c e691 a13d ae79 bebd 4976 1f3e
000000c0: 24cf 8d3d 90a0 79bf 9587 453f 447e 0fbf
000000d0: 01e0 723e 76ea e03c 8ea7 173e 7cee fb3c
000000e0: 318a acbc e489 94bd 12b1 c73d a0d7 c83e
000000f0: f2bd 59be 265f 253e c037 323e 1569 b73e
00000100: 64fc e83d f0ad 71c0 accd 95be d663 a4bc
00000110: d572 6f3e 4853 023d 3ae0 c4be eb3c ff3f
00000120: 2885 50be 7b56 a83e 3304 1a3d db81 c2bd
00000130: a822 9a3c 22de af3d b4dc d9bd a3a6 41be
00000140: e023 25bc 86f4 16be a9e8 4cbf 94e0 e63e
00000150: b731 fabe 7295 13be a65a 63bd fe3c 893d
00000160: b779 9e3c b675 61be 5649 d4bd 3952 6bbe
00000170: 1ec0 ea3e 0bb3 09bf 5f8c 3dbe cc59 17be
00000180: 7fdb 0b3f 037c aebd f0ad 5b40 b853 293e
00000190: a441 2e3e d15e 81bd 4630 6d3e bf29 68bf
000001a0: 43e6 4fbf e223 333f 70b5 9e3b 41ca 843d
000001b0: 82a8 133e 01f1 7e3c 8c6b bcbb 8684 cfbc
000001c0: 9b27 b9bd 62b9 373d 1ffd ce3c ec97 cb3e
000001d0: b8d6 40bf bc0b b1be 56f6 c63e d444 6b3b
000001e0: 60d8 063b ef54 b83b c144 7db9 5594 823c
000001f0: 181e 7cbc 845a 62be 3c9b 9cbd 947e 343e
00000200: 98c3 023d c459 6a3e accc e43d 829f 8140
00000210: 476b 92be 19fe 463f fa25 a53e 21fb 383e
00000220: c11e 9abf d17a a93e 647c 0f3f 1f21 3d3d
00000230: 1513 ff3e 0e29 f43e f0f5 73bd 8a38 7f3e
00000240: 72d9 d73d 803e 8e3d e5cd 26bf 47e6 b8be
00000250: 3d49 583e ca5e 203e 1ef8 02be 2724 0fbd
00000260: 473c c4bc c746 1abd c2b2 ab3c f4d5 6a3d
00000270: defc a3bd c1ed 703d d4bd 1dbf 9ba0 e13f
00000280: 6837 673e 806d c33c 2bfb c9bf 1a8e 96bd
00000290: 5c25 29bf a033 fd3e 86f8 f0bc 754e 20bf
000002a0: 4b1d 363f a296 a6bf f685 3b3f 9557 1c3d
000002b0: bb54 2dbf fe43 b73e b503 933e d7cf 3f3e
000002c0: 7662 d63e ce9e 083e 0d2a 2c3e 56c2 063f
000002d0: 1a2f fdbd 4ebf 79bf 0b0e 183f 5539 7c3e
000002e0: de09 40bf 40f3 f43d 913f 8ebd 1c76 f8bd
000002f0: e22b 453d d2e0 063f b09d 75be 5d86 19bf
00000300: 7318 8c3e ff92 50be c4b4 653d abbe 36be
00000310: 281c 02be ad5a febf dda9 82bd 6c40 abbc
00000320: fb0f c4bd a545 4b3e 08df 063e d78a 883e
00000330: 3fc5 19bc 7018 f6bb cf62 ee3d 8c50 5cbc
00000340: 2633 84bb 7d02 a4bc c0f2 1ebc 800c d63c
00000350: 7f20 173d bf22 c53d 3605 8a3d 7c88 97b9
00000360: ec6f e23d 4dc0 3d3e 8dfb 1cbc 1ce4 9d3b
00000370: 71fe 243d 74a2 913c fc61 b0bc a8c4 203c
00000380: 4067 7ebe 4061 e23e a2d9 a0be 9c62 3e3e
00000390: b60c 31bf 9aee 01be e898 9940 5982 20bd
000003a0: a2ad 1e3d ac5a b03d bccc 0ebe 23f6 54be
000003b0: 3686 5ebe 4cc4 82bd bf36 afbc fbb5 d13d
000003c0: 416d 633c 310f e0b9 9408 68ba 8eb7 f13c
000003d0: 85e4 bb3c 5165 723c 37ab 84bb e24e 913e
000003e0: c9d1 a8bd 0608 003d 3919 883e 4bae 373c
000003f0: bdb3 163c 0485 dfbc 8b0e 18bc 5013 efbb
-0.058285967 -0.22299494 0.4247204 -0.6789491 -1.4339538 -1.1250589 -0.51586014 0.33952758
0.3703106 -0.2490772 0.42215994 -0.49377564 0.740046 0.44607157 -0.58000803 0.15989278
0.97002906 -0.15896274 -1.8179417 0.14695375 -0.0022368925 -0.2961871 -0.3114151 0.052145414
-0.021184504 -0.37051916 0.051544297 -0.2986294 -0.3133048 -0.16916269 0.29346108 -0.14236496
-1.4748877 -0.391747 -0.06938656 0.21406174 0.39440578 -0.82553244 0.31998459 -0.8642122
0.15074933 0.14700077 -0.017064435 -0.07710261 0.010081898 0.07889156 -0.09300552 0.15572466
0.069242746 -0.97510624 0.77160007 -0.5605204 0.23718263 0.02745555 0.14810011 0.030753367
-0.021061989 -0.07252863 0.0975057 0.3922701 -0.21263865 0.16149577 0.1740408 0.3582236
0.11376265 -3.7762413 -0.29258478 -0.020067137 0.23383649 0.031817704 -0.3845232 1.9940466
-0.20363295 0.3287848 0.03760166 -0.09497424 0.018815354 0.0858729 -0.10637799 -0.18911223
-0.010079354 -0.14741716 -0.8004251 0.45093215 -0.48866054 -0.14412478 -0.05550637 0.067010865
0.019345148 -0.2201756 -0.1036555 -0.22980584 0.458497 -0.5378882 -0.18510579 -0.14780349
0.546318 -0.08519747 3.4324913 0.16535842 0.17017227 -0.06316913 0.23162946 -0.906887
-0.81210726 0.6997663 0.0048434064 0.06483889 0.1441975 0.0155603895 -0.0057501253 -0.025331747
-0.09040757 0.04485453 0.025267182 0.39764345 -0.75327635 -0.34579265 0.38859814 0.003589918
0.0020575747 0.0056253592 -0.00024153573 0.01593987 -0.015388034 -0.22104841 -0.07646796 0.1762641
0.031924814 0.22885805 0.111718506 4.050721 -0.2859747 0.7773147 0.32255536 0.18064548
-1.2040635 0.33101514 0.5604918 0.046174165 0.49819246 0.47687572 -0.059560716 0.24923912
0.10539521 0.06945515 -0.6515792 -0.36113188 0.21121688 0.15661159 -0.12789962 -0.034946587
-0.023954524 -0.037665155 0.020959262 0.057332948 -0.08007215 0.05882049 -0.6161778 1.7627138
0.2257973 0.023855925 -1.5779775 -0.073513225 -0.6607263 0.4945345 -0.02941538 -0.62619716
0.7113845 -1.301472 0.73251283 0.038169462 -0.67707413 0.3579406 0.28713766 0.18731628
0.41871995 0.13341829 0.16812916 0.52640283 -0.123624995 -0.9755753 0.5939643 0.24631245
-0.75015056 0.11960459 -0.06945718 -0.121319026 0.048137553 0.526868 -0.23985934 -0.5997065
0.27362403 -0.20368575 0.056080595 -0.17846172 -0.12706053 -1.9871422 -0.06380055 -0.020904742
-0.095733605 0.19850786 0.13171017 0.26668426 -0.009385406 -0.0075102374 0.1163994 -0.013446938
-0.0040344177 -0.020020718 -0.009701431 0.026129007 0.036896225 0.09625768 0.06739275 -0.00028902653
0.11056504 0.18530388 -0.009581459 0.0048184525 0.040281717 0.017777659 -0.021531098 0.0098125115
-0.24844074 0.4421482 -0.3141604 0.18592304 -0.6916002 -0.12688676 4.7999153 -0.03918681
0.038739808 0.08611044 -0.13945287 -0.20797019 -0.21730885 -0.06385097 -0.02138841 0.10239788
0.013881029 -0.00042735928 -0.0008851376 0.029506471 0.022936115 0.0147946635 -0.0040487307 0.28380495
-0.08243138 0.03125765 0.26581743 0.011210988 0.009198126 -0.027285106 -0.009280811 -0.0072960034

model_input.0.bias f4 [128]
00000000: c8aa 593e 6d9f fb3e 7caf 2b3f ef4d 0b3e
00000010: c463 c5bf c3e1 0cbe c120 ddbe 3efc 00bf
00000020: fe83 25bf 5111 853e e54a 223f be5c d1be
00000030: e763 e93d e0e5 babe 890d d4be 1b33 29bf
00000040: 670b 55bf 4911 39bf d7c5 6dbf 82f3 91bf
00000050: 4893 f4be 90ae 37bf 3438 393f 88c3 75bf
00000060: 63bf 1dbf 0169 103e d76b ddbe 156a b0be
00000070: 6e35 c93e f54f 39bf 5350 143f 646e 8ebf
00000080: 3844 19bf e2c8 2fbe 6f53 a3be 3712 813d
00000090: 7a18 53bf 7f0b 07bf 6548 95be e8bb 7b3d
000000a0: ad33 e6bd a587 35bf c69f 0abf 43e1 22bf
000000b0: e43a 07bf 040e 6abe 0430 c9be 3311 27bf
000000c0: b418 45bf d492 a7be fe53 2ebf 4b6f 63bd
000000d0: b662 043f 4a94 483e 36eb 7f3d 7a07 96bf
000000e0: eb3d ccbd 442a 753e 271b 46bf 4fad f6be
000000f0: 9781 adbf d34c cf3e b4a8 25bd 15d0 a6bf
00000100: 3490 f8bd d9d7 07bf 4209 4abf afd9 90bf
00000110: 0120 1d3e 0085 13bf d7fb c3bb bb5e b3be
00000120: a9b7 13bd 0cf1 4bbf ba46 013f c153 3fbe
00000130: 05c5 0fbc 9869 113f eb1a 77bf a587 cbbe
00000140: 0ce8 ea3d cdb3 7e3f 7720 05be 88c1 6bbe
00000150: 94cc 2cbf 4fb9 cbbd e238 f0bd 55ef 3ebf
00000160: d1fa 5fbe 6696 5fbf 356d f5be 3a4f 87bf
00000170: e0dd 37bf 373c 013f 3607 e4bd ab58 25bf
00000180: 11ea b2be a192 8abe ad52 14bf 3fed 33bf
00000190: a458 23bf 5b6b 29bf af80 573d 1a8f 023e
000001a0: 67e1 3bbf 269f 9e3e eab3 0fbf ebc5 d03d
000001b0: 11ef 9fbe b49a c33e da06 3abf f221 ba3e
000001c0: f45b 6bbf 87ad bb3e eeaf 513e 14e3 82bf
000001d0: 46a8 00bf 6cd1 38bf 2537 8abf 6c61 9bbf
000001e0: 0d15 5fbf 853b 51be 7263 22bf f881 a9be
000001f0: 410d 8fbf b756 9bbd 67bc 79bf 37d3 77be
0.21256554 0.4914507 0.6706464 0.13603948 -1.5421071 -0.13757996 -0.43189052 -0.5038489
-0.6465453 0.25989774 0.6339553 -0.4089107 0.11396008 -0.36503506 -0.41416577 -0.66093606
-0.83220524 -0.72292 -0.92880005 -1.1402438 -0.47768617 -0.71750736 0.72351384 -0.9600148
-0.6162016 0.14102556 -0.43246338 -0.34455934 0.39298576 -0.7238763 0.57935065 -1.1127439
-0.5986972 -0.17166474 -0.31899592 0.06302302 -0.82459223 -0.52751917 -0.29156795 0.0614585
-0.11240325 -0.709101 -0.54150045 -0.6362497 -0.52824235 -0.22856909 -0.39294446 -0.6526062
-0.7699082 -0.32729208 -0.6809691 -0.05552606 0.5171312 0.19587818 0.062480174 -1.1721032
-0.099727474 0.23941904 -0.7738518 -0.481791 -1.3555173 0.404883 -0.04044409 -1.3032252
-0.121368796 -0.5306373 -0.78920376 -1.1316432 0.1534424 -0.57624817 -0.0059809494 -0.3503321
-0.036063824 -0.79664683 0.50498545 -0.18684293 -0.008775 0.5680175 -0.9652545 -0.39751926
0.11470041 0.99493104 -0.13000666 -0.23023045 -0.6749966 -0.09947454 -0.117295995 -0.7458394
-0.21873023 -0.87338865 -0.4793488 -1.0571053 -0.7182293 0.50482506 -0.11134188 -0.6458842
-0.34944203 -0.27064994 -0.57938653 -0.70283884 -0.6380713 -0.66179436 0.052612957 0.12749901
-0.7339081 0.30980796 -0.561339 0.10194 -0.3123708 0.38203967 -0.72666705 0.36354023
-0.91937184 0.36655828 0.20477268 -1.0225549 -0.50256765 -0.7219455 -1.0798079 -1.2139106
-0.87141496 -0.20432861 -0.6343299 -0.3310697 -1.117592 -0.07584899 -0.97553104 -0.24201666

model_input.2.weight f4 [128]
00000000: 748c 043e 08be 7f3e f016 a43e 1e0a 963e
00000010: 8b16 0f3e f5a0 2b3e c82c f83e a5fc 383f
00000020: 55bc 133e cfc9 d03d f3e5 723e 10bd 253f
00000030: f349 1e3e bf85 e33d aac1 833f 2331 353e
00000040: 6dea 173e 4244 223e 52f2 4ebf 98d3 1c3e
00000050: 1a20 2d3e 92d2 4fbe a15f e53d 9227 073f
00000060: 4c40 323e 979d 753e 1c87 853e 1790 283e
00000070: e551 483e 61f3 153e de7a fd3d 3d3a 433e
00000080: 5fec 343e 0e39 2d3e 0048 163e dd48 7c3f
00000090: 639b 983d d192 273e c84e 053f 04ed 243e
000000a0: a5ba da3d 540b 363e c364 1f3e 4694 ca3e
000000b0: b024 943d 234c 3d3e f492 c23d 8cd6 293e
000000c0: 5c6e 423d 4b51 003e fecc 193e 0a15 2e3e
000000d0: 5d21 1c3e 2fff ba3e 7d75 733e f8f9 143e
000000e0: b6a1 173e e72a 103e 854b 8b3e b0da f73d
000000f0: 0a02 e23d 8dc2 5c3e 0138 063e c37b f83d
00000100: 56d6 083e 7ce5 4d3f a71b 103e 3a04 123e
00000110: 3624 903e 732f 003e 2b21 ca3d 3052 f03d
00000120: b9ce 3a3e 12af fe3d 494a 2b3e becf 113e
00000130: 23f9 193e 66e1 e53d af2d 3b3e 560e 283e
00000140: 6b47 413e f26c 1a3e 41b2 723e 206f 073e
00000150: 209d 153e 5433 b03e c93c 903e 249f 6c3e
00000160: 5627 223e 6c66 1d3e d705 fc3d fbe0 1c3e
00000170: fa98 ed3d b10f 533e f2fb d33e d3fb 1f3e
00000180: 1eba f93d 2af7 f63d 5321 603e ae0d e93d
00000190: 92f9 1e3e 5ff7 6d3e 858c a13e b470 e23d
000001a0: 8c24 193e 1c04 d13d 56cb 233e 3bfa 133e
000001b0: a010 283e bffc 623e fe88 fd3d 9f16 6f3e
000001c0: 957b 7f3e fbc3 563e 77d1 143e 3275 1b3e
000001d0: f59a 1c3f 8367 9b3e f2c4 a63e 6f32 093e
000001e0: 82b5 0b3e dc6c 133f 09e4 dc3d 201b 3c3e
000001f0: 06aa 2d3e 66ee 5a3e 2f35 1a3e 7e34 203e
0.12944204 0.24974835 0.3204875 0.29304594 0.13973443 0.16760619 0.48471665 0.72260505
0.14427312 0.10194742 0.23720531 0.6474161 0.15457897 0.111094944 1.0293477 0.17694525
0.1483552 0.15846351 -0.808385 0.15315092 0.16906777 -0.2029517 0.111998804 0.52794755
0.1740734 0.23985897 0.26079643 0.16461216 0.1956249 0.14643623 0.12376951 0.19065185
0.17668293 0.16916296 0.14675903 0.9854868 0.07451513 0.163646 0.52073336 0.1610604
0.10680131 0.17777759 0.15565781 0.3956625 0.0723356 0.18486075 0.09500685 0.1658575
0.04746853 0.12531011 0.15019605 0.17000213 0.15247102 0.36522815 0.23775287 0.1454848
0.14807782 0.14078866 0.27206054 0.12102258 0.11035545 0.2155859 0.13107301 0.12132981
0.13363013 0.8042829 0.14073049 0.14259425 0.28152627 0.125181 0.098696075 0.11734426
0.18242921 0.12435736 0.16727556 0.14239404 0.15036444 0.11224632 0.18279146 0.16411719
0.188749 0.15080622 0.23700811 0.13225985 0.1461072 0.3441416 0.28171375 0.23107582
0.15835318 0.15371102 0.12305801 0.15320198 0.116014436 0.20611455 0.41403157 0.15623407
0.12193702 0.120588616 0.21887712 0.11379562 0.15524891 0.23238896 0.3155252 0.11056653
0.14955348 0.10205862 0.15995535 0.14450924 0.16412592 0.22166727 0.12379645 0.23348473
0.24949487 0.20973198 0.1453303 0.15181425 0.61173946 0.3035241 0.32572132 0.13398145
0.13643458 0.5758798 0.10785682 0.18369722 0.1695939 0.21380004 0.1505935 0.15645024

model_input.2.bias f4 [128]
00000000: e53b d03b 3188 9ebd b93e 08be f450 833d
00000010: 9ad6 923d 8798 2c3d d664 473d dd72 5b3e
00000020: de5a dfbc bb41 9b3a d1f1 aa3d a719 973e
00000030: e98b 643c 1f15 aebb bb30 263e 0008 563d
00000040: 222f cb3c 0b57 413d cf72 dc3c 98d4 613c
00000050: 88f4 db3d 9813 68bd 3c3e 8cbc 97ca c63e
00000060: 07c1 863c a4a8 b03d bdc9 7fbb 48f9 d1bd
00000070: 7637 f33d 2894 2fbc 7f52 ab3c 4e76 eb3d
00000080: be1d 813b db8a 5f3c 8626 e13c fe98 71be
00000090: d96e 663c 11c5 37bc ba25 10bd 8481 dd3c
000000a0: b90c 1fbd 1d5c 3e3e 6f50 823c 1f29 823d
000000b0: 12f5 2f3c 0ad8 2b3e e49e 383c d858 e23c
000000c0: ea26 99be 0386 ff3c 220f e3bc 394c a03d
000000d0: eb8c 0c3d bcb0 cebc 4858 38bc 2d21 e43c
000000e0: 663b ce3b de62 903c 5f06 4c3d 7515 c93c
000000f0: 8ebb cf3a b74a 263d d434 80bd 8fed 48bd
00000100: 21dc d7bb f744 f33d e1ac 56bc b971 f53d
00000110: 9c88 22bd d272 153d c5b2 66bc d85a 00bc
00000120: b5bc 81bd 1bba c53a 81db 12bd 99aa 7c3c
00000130: 2e72 8abd d169 00bd 1049 5a3c da04 4d3d
00000140: 6c42 9fbc d751 5f3c 451e 913d 57ca 763d
00000150: 627e f33c b238 a9bc 7832 7ebd 32c3 e23d
00000160: 6523 8ebd 57c7 843e 0d1f b6bc 6d58 153d
00000170: 7985 ec3a 3e13 023d f902 5dbd 6bbd 9e3d
00000180: 3d4a a73c 8b7e b0bc d322 7a3d 4baa 003c
00000190: e47a e03d b941 533e f19c 0c3d 259f b83c
000001a0: bf6e 7cbc 0471 c639 250c 2cbd c260 453c
000001b0: 345b 75bd af00 2b3d 091c 8c3c 0b4b 063e
000001c0: 2cf3 bc3b 8991 813d cb0d 1abd c20e bcbd
000001d0: 80dd 163e c887 f1bd 7ea3 b73d 7c81 b23c
000001e0: ac4a 273d a7c1 773e 3a49 b3bb bd8d 3f3d
000001f0: 0a35 55bc f62d 7d3d 2f26 143d ae96 dfbb
0.0063547962 -0.0774082 -0.13305177 0.06411925 0.07169838 0.04213765 0.04868015 0.21430536
-0.027265009 0.0011845151 0.08346904 0.2951176 0.013949373 -0.0053125764 0.16229527 0.052253723
0.024802748 0.04720215 0.026910214 0.013783596 0.1074 -0.05665931 -0.01711952 0.3882644
0.016449464 0.08625916 -0.0039030157 -0.10252625 0.11875813 -0.010716476 0.02091336 0.11497174
0.003940313 0.013643946 0.02748419 -0.23593518 0.014064514 -0.011216418 -0.03519223 0.027039297
-0.038830493 0.18589826 0.015907494 0.063554995 0.010739582 0.16781631 0.011268351 0.027630255
-0.29912502 0.031191831 -0.027717177 0.07827038 0.034314077 -0.025230758 -0.011251517 0.02784785
0.006293702 0.017625269 0.049810763 0.024546364 0.0015848742 0.040598597 -0.06260076 -0.04905468
-0.0065875207 0.118783884 -0.013102741 0.119845815 -0.039681062 0.036486454 -0.014080708 -0.007834159
-0.06334821 0.0015085371 -0.035853866 0.015421533 -0.06760059 -0.031350914 0.0133230835 0.050053455
-0.019440852 0.013630352 0.070858516 0.06025156 0.02972335 -0.020656917 -0.06205985 0.11072387
-0.06940345 0.25933334 -0.022231603 0.036461283 0.0018045149 0.031756632 -0.053957913 0.07750972
0.020421142 -0.021544715 0.061068367 0.007853101 0.109609395 0.2063054 0.03432936 0.022536824
-0.015407263 0.00037849706 -0.04200377 0.012046995 -0.05990143 0.0417487 0.017103212 0.13114564
0.005766293 0.06326587 -0.03761081 -0.09182502 0.14732933 -0.11793476 0.089667305 0.021790259
0.040842697 0.24194966 -0.005471376 0.04676603 -0.013013134 0.06181141 0.036169227 -0.0068233823

model_input.2.running_mean f4 [128]
00000000: 0e78 3e40 479b e03f 862d 1b40 aea3 9d3f
00000010: c54a 533e 776e a83f c586 453f ffb6 243f
00000020: 1203 5a3f 4b3d 333f 4edf 3940 7799 5c3f
00000030: 1be8 203f dbb3 693f 8d86 203f e0f6 9f3f
00000040: a8c3 403f 4688 5a3f bbde cc3e 8447 a83f
00000050: 72f3 c73f 9355 d93e 873d 3e40 bbd5 9f3e
00000060: 537e 213f 8589 da3f 4dcf 663f 0719 ed3f
00000070: 5e24 2e40 7823 6e3e b68e 0a40 3894 533f
00000080: d74a 873e 60d6 1b3f 32d8 143f c355 cb3f
00000090: aa85 843e ab05 8c3f ce5e 593f 188f 7e40
000000a0: f959 c63f d3e0 a63f 62c0 943f 5119 2b3f
000000b0: 9011 a73e 256f 7240 1125 ce3e 9866 993f
000000c0: 19a9 493f 3c06 c23e b862 023f 51ed be3f
000000d0: 2e7f 9d3f 9d0f 8c3f 7c4e 433f e6f5 003f
000000e0: 8fae 833f 14b3 ea3e d30b e63e 6fac 293f
000000f0: ba61 633e a9af 0840 32ea db3e bac8 753e
00000100: 8488 433f 1e7f 113f 5074 7b3f 6481 0540
00000110: 463c f63f 8f9c bb3e bc79 093f c71d 9e3f
00000120: d1a2 3c40 a5bd 623f ba62 f63f e9ab 2b3f
00000130: d284 5f3f c976 ab3f 18d5 2e3e 330b 7c3f
00000140: a10b 4c3f 76a5 0340 1f34 a93f bd9a 0940
00000150: 0975 b53e 9ebc 103f 64a0 b43e 5984 203f
00000160: 4fac f03e 6917 d23f 021c 183f ff38 0a3f
00000170: 4dea 2c3f b1b4 9e3f a712 3d3f 074a 4c3f
00000180: a3a3 b73f 8e0d 433e cb7f 923e be8a 1c3f
00000190: eff8 ce3f 5490 6e3f c002 683f b921 5d3f
000001a0: 9033 f73e 3aa4 423f f506 8c3f da30 d53e
000001b0: b50a 403f 0236 473f 2d7a 0c3f 8857 1440
000001c0: 5c24 c23e 5919 d03f 8335 053f beda 2b3f
000001d0: 8501 523f 3bcf 053f 3377 1e3f 0eb8 843e
000001e0: f56c 4d3e ccd0 7c3f 2452 3a3f 98ee 153f
000001f0: 93a8 163f b504 6a3f 680c b43e cade b63e
2.9760776 1.7547387 2.4246535 1.2315576 0.20633991 1.3158711 0.77158767 0.6434173
0.85160935 0.700154 2.9042544 0.8617167 0.62854165 0.9129006 0.6270531 1.2497215
0.7529855 0.85364187 0.4001368 1.3146825 1.5621169 0.424481 2.9725053 0.3121775
0.6308338 1.7073218 0.90160066 1.8523263 2.7209697 0.23255718 2.1649604 0.8264804
0.26424286 0.60873985 0.5814239 1.5885547 0.25883228 1.093923 0.84910285 3.9774837
1.5496207 1.3037361 1.162121 0.66835505 0.32630587 3.7880337 0.40262654 1.1984434
0.7877365 0.3789538 0.5093188 1.4916173 1.2304437 1.0942265 0.7629163 0.5037521
1.0287646 0.4583975 0.44930896 0.6627874 0.22205248 2.1357214 0.42952114 0.24002352
0.7638018 0.5683459 0.98224354 2.0860224 1.9237144 0.36642882 0.53701377 1.2352837
2.9474375 0.88570625 1.9248879 0.6705919 0.8731204 1.3395625 0.17073476 0.9845459
0.79705244 2.056974 1.3219031 2.1500695 0.35440853 0.56537807 0.35278618 0.62701946
0.4700646 1.6413394 0.59417737 0.5399322 0.67545015 1.2398893 0.73856586 0.79800457
1.4346813 0.1904814 0.28613123 0.61149204 1.6169719 0.9318898 0.90629196 0.8637958
0.48281527 0.7603184 1.0939623 0.41638833 0.7501634 0.77816784 0.54873925 2.3178425
0.37918365 1.6257735 0.5203478 0.6713065 0.8203357 0.52269334 0.61900634 0.25921673
0.20061095 0.987561 0.72781587 0.5856719 0.58850974 0.9141343 0.35165715 0.3571685

model_input.2.running_var f4 [128]
00000000: e369 dc40 f05b 9240 a7b4 f640 b186 4340
00000010: f318 d53e b3c1 b140 a7d4 0240 f5bc cd3f
00000020: 8a1a 6b40 0895 5e40 b7f3 3240 74f7 1e40
00000030: 4e49 fe3f ea11 2f40 edb1 9e3f 6c5e 8a40
00000040: c27f 2840 fc39 4f40 0acd 753f aa16 6840
00000050: 08bf 3840 4070 7b3f 76cd b340 c926 213f
00000060: 9424 c43f 2785 8240 0488 2240 0864 e740
00000070: 1a95 dd40 a59f f83e 9f80 d140 4f25 2a40
00000080: f2d1 3a3f 47ae 9f3f 16ca b23f 2fac 8440
00000090: dc7d 373f ae74 4740 59ee ea3f e954 8241
000000a0: 3831 d840 dc7c 7540 bd04 4040 6b1a ee3f
000000b0: ba2c 7e3f b1d3 b940 1a39 c53f 49e7 6a40
000000c0: 3242 4a40 05bf b13f 10e7 8c3f 300d 8640
000000d0: 0f6c a840 85f0 5240 37c7 5940 45e8 e93f
000000e0: 733d 2e40 2e3c 3840 d8b7 cc3f 8d1a 0f40
000000f0: 40cd 113f 4516 a940 fa5f cf3f f198 1a3f
00000100: b462 a440 79b5 893f 8934 2b40 525a 1b41
00000110: 283a c640 ffda 2540 aed7 1640 b9a3 9240
00000120: 490a 5241 d3e9 4840 0052 6640 13e4 1340
00000130: 517f 4a40 a477 4d40 6395 bc3e d555 c83f
00000140: be2a 3540 152a b040 36ff 4640 1b89 9b40
00000150: d564 c83f b74c 0940 ef80 903f de5a c93f
00000160: 62ac af3f ca8a b840 fe34 f03f 5c63 bc3f
00000170: e144 f33f f5e4 4c40 8ed9 ea3f 4c99 ec3f
00000180: de83 c740 9cb2 413f 5d75 4b3f 2f41 2b40
00000190: c9a3 f440 b13f 4540 820e 2a40 34f6 0640
000001a0: b476 ae3f aefb 5940 10b6 8b40 2328 853f
000001b0: d6cb 0f40 ec33 1040 7ce2 1f40 9321 0e40
000001c0: fda8 4b3f 2432 8740 0f48 ea3f 4b2e 0040
000001d0: 01d1 1340 390f b33f 65e2 cf3f dbd5 443f
000001e0: 62ba 193f c887 1c40 d652 1940 f3ac b23f
000001f0: 90a9 c53f 9abb 1640 dfc0 8d3f d16f 463f
6.8879256 4.573723 7.7095523 3.055096 0.41620597 5.554895 2.0442293 1.607329
3.6734948 3.4778461 2.7961252 2.4838533 1.9866121 2.7354684 1.2398049 4.324026
2.6327977 3.237914 0.9601599 3.6263833 2.8866596 0.98218155 5.6188307 0.62949806
1.5323663 4.078754 2.5395517 7.230961 6.924451 0.485593 6.546951 2.6585271
0.729766 1.247506 1.3967922 4.1460185 0.7167642 3.1164966 1.8353988 16.29146
6.756008 3.8357458 3.0002892 1.8601812 0.99287 5.807091 1.5408051 3.6703665
3.1602902 1.388642 1.1008015 4.18911 5.2631907 3.2959301 3.402784 1.8274008
2.7225006 2.878673 1.5993605 2.2359955 0.5695381 5.2839684 1.6201165 0.6038962
5.1370487 1.0758506 2.6750815 9.709551 6.194599 2.5914915 2.356914 4.5824857
13.127511 3.1392715 3.598755 2.3107955 3.1640208 3.2104273 0.36832723 1.5651194
2.8307338 5.505137 3.1093268 4.8604865 1.5655771 2.1453073 1.1289347 1.5730855
1.3724482 5.766942 1.8766172 1.4717822 1.9005395 3.2014744 1.8347642 1.8484282
6.234847 0.7566316 0.7947596 2.6758535 7.6449933 3.0820124 2.6571355 2.108777
1.3629975 3.4059863 4.3659744 1.0402874 2.2468162 2.253169 2.4981985 2.2207992
0.7955473 4.2248707 1.830324 2.0028255 2.3096316 1.398902 1.6240965 0.7688882
0.6005002 2.4457874 2.395681 1.395903 1.5442371 2.3552003 1.1074485 0.7751437

model_output.0.weight f4 [128, 132]
00000000: 505a 903e 8418 9bbe 121b 143f cd84 1fbf
00000010: e6f9 e13e efb2 1f3d 6fee 20be 2367 e43d
00000020: d5d5 0e3e 9ff8 babd a9f7 b03e d173 68bf
00000030: df34 d6be 5a4d a7bc 255e 69be 3693 c2bc
00000040: e332 283f 0921 afbe 0675 6ebf 578c 9f3d
00000050: ee9b f23d e914 33be d5c2 8b3e 7ed1 923e
00000060: f5e8 9c3e 481d 4cbe 238c 0d3f f309 fabd
00000070: 5f47 20be cf18 5e3d 06b6 0f3f c4c0 853e
00000080: 0c65 163e 51eb cfbe 79f5 c8be 5173 d23d
00000090: f247 b03e ffdb bdbd 35b6 68be 7ce6 b33e
000000a0: aca6 043e de1a 30bf b23f 5ebe 59cc 7f3e
000000b0: ea13 00bd 1a23 f13e 71a6 71be e9b5 b0be
000000c0: 02e0 5f3e a49c 923e 2a42 b3bd 02e1 773e
000000d0: 06ac cabe 6bf3 12be 3313 d3bd d6c3 053f
000000e0: 3d3b 39bc 3030 c4bd 62bd 56bf d0b2 3b3f
000000f0: f0f5 253e 4348 223e 8c49 32be 2efb 83bd
00000100: c5a0 28bf 0d31 75bf 0ad4 00be 5c01 2bbf
00000110: 4b22 51bd a825 1abf 394a b3bd 879a c33e
00000120: a4b6 913e 4fc7 833e c177 52be 8ec4 10be
00000130: c5f4 95be 05dc 7b3e 0691 a03d 44f5 28bd
00000140: 457a 293f ec16 91bd 9130 f4bd a63f 9abc
00000150: 476a c3be b653 f1bd 3ede 6bbe 0777 94be
00000160: 9e20 14be 6ba5 b1bd d3bf e23e 35f2 0ebd
00000170: e0e2 05bf ac07 ce3e 964d 8ebf df19 ba3d
00000180: 981b a83d 67d9 473e 4048 8cbe 460e 643e
00000190: 215d 40bf b529 06bf 5e59 8fbd d4ff 57be
000001a0: 91a3 6c3e d83a 8fbe 3cf5 cbbe dc22 9bbe
000001b0: 4589 523d 1aef c33e b4dd d9bd ef3c 993e
000001c0: cfc0 29bf dab0 d43d fcae 903e d3ca 143d
000001d0: 5941 543f e867 05be c070 ffbe fe54 03be
000001e0: 9fc0 cbbc 8525 8ebf 200d 32be d3a4 04bf
000001f0: 11cb c9be 6d6c f4be 3ecb 0cbe 3d0e 523e
00000200: 6e0e c7bc 5448 8bbc d88b 41bc 51a7 babc
00000210: feb0 07bf c327 003f 5f96 323e 12e0 4a3e
00000220: 6175 51bf ca58 c13e e579 b0be cc61 48bd
00000230: a9a3 afbe dbfb 95be a284 ac3e 1a9e bbbd
00000240: fa11 603e f59d 853e 5ebe 85bc cb7c 50bf
00000250: 937d bbbd 07ce dd3e 1406 94be fd59 af3d
00000260: 14e3 94be c1de 2c3d e4c4 0cbf 7b2c 65be
00000270: 0e7d 20be 09a6 6ebe 008b 96be b471 94be
00000280: dd48 2e3f 26bf eebd 0f1b 033f be9e e1be
00000290: 0266 20be e527 91bc fb2a 3abe 20da 833d
000002a0: 873a 86be 6d08 2dbe ce17 3f3d 260b 8b3e
000002b0: 5274 2fbf 0708 49bf 454b 6d3d 300e 933d
000002c0: cfbc 39bf a6be 033c a0f5 24be d6a5 b5bd
000002d0: 4646 a03e 66f0 48be 7067 c0bd e420 cb3d
000002e0: c09c 8d3e 9e21 cabe 823d 84bd 8d27 edbe
000002f0: cb31 7cbe 675e 633d 8469 5dbe 95e2 41bf
00000300: 1a0f 02be a699 18be fe39 b83d d644 32bf
00000310: 9abf cfbe 4548 df3c 3fb5 353e 4559 26be
00000320: eb99 0cbf 09ef 9abf 38c5 69bd 77e0 803e
00000330: 3dd9 8cbe 6e0d 8f3c dacf 213f 5685 d03d
00000340: 8eb7 6fbe f532 1a3f 09b0 47bf c6dd 2abf
00000350: f517 f3be ad81 8c3e 2ca9 de3e b53e 54be
00000360: 2af2 1cbf 824f debe 75ca e8be 879a fe3d
00000370: a3be 9fbf b59a 9abd 91ba af3e bd75 b8be
00000380: 8272 143e f493 72be 04b4 7cbe c31f d4bd
00000390: 28d2 073f 3be1 ebbe 9965 cd3e 84f8 09c0
000003a0: f04e 04bf 6550 cdbd d882 acbe 7f48 eebd
000003b0: 2b83 28be 8126 a8be 1f0c 60be f348 733e
000003c0: f2e1 4a3e bdec a7be c145 4bbe 995e 893f
000003d0: 45e4 45be ebcc b73e 1f00 5a3e d8f0 863b
000003e0: ceff 863c 6158 aabe 1d77 b7be 062f a3bf
000003f0: 1e90 a93d bc17 0bbf cca7 2bbf 19a2 6dbe
0.28193903 -0.3029214 0.57853806 -0.6231201 0.4413597 0.038989004 -0.15715955 0.11152484
0.13948758 -0.09129452 0.3456395 -0.9080172 -0.41837212 -0.020422626 -0.2278982 -0.023751836
0.65702647 -0.3420489 -0.93147314 0.077904396 0.118461475 -0.17488445 0.27297083 0.28675455
0.30646482 -0.19933045 0.55291957 -0.12208929 -0.15652226 0.054222878 0.5613712 0.2612363
0.14686984 -0.4060922 -0.3924978 0.10275901 0.3442989 -0.092704765 -0.22725756 0.35136783
0.12954205 -0.68790996 -0.21703985 0.24980296 -0.03126899 0.47097093 -0.23598649 -0.34513786
0.21862796 0.28635132 -0.08752854 0.24206927 -0.39584368 -0.14350669 -0.10306396 0.52251947
-0.011305627 -0.095795035 -0.83882725 0.7331972 0.16207099 0.15847878 -0.17410868 -0.06444393
-0.65870315 -0.9577797 -0.12580886 -0.6679895 -0.051058095 -0.6021371 -0.08754391 0.38203833
0.28459656 0.25737998 -0.20553495 -0.1413748 -0.29288307 0.2459565 0.07840161 -0.04124953
0.66202193 -0.0708445 -0.11923326 -0.018829178 -0.3816702 -0.11783545 -0.23033997 -0.2899706
-0.14465567 -0.08674129 0.44286975 -0.034898955 -0.5229931 0.40240228 -1.1117427 0.09086966
0.08208388 0.19516526 -0.27398872 0.2227107 -0.75142103 -0.5240739 -0.06999467 -0.21093684
0.2310927 -0.27974582 -0.39835536 -0.30300033 0.05140044 0.38268358 -0.1063799 0.299293
-0.6630983 0.10385294 0.28258502 0.03632624 0.8291221 -0.13027918 -0.4989071 -0.1282539
-0.024872122 -1.11052 -0.1738782 -0.51814 -0.3941274 -0.47738972 -0.13749406 0.20513244
-0.024298873 -0.017002262 -0.0118131265 -0.02278486 -0.53004444 0.5006067 0.17440175 0.19812039
-0.8181973 0.37763053 -0.34467998 -0.04892139 -0.3430455 -0.29293713 0.3369494 -0.09161015
0.21881858 0.26097074 -0.016326126 -0.8144042 -0.09154811 0.4332125 -0.28910887 0.08562086
-0.29079497 0.042204622 -0.5498793 -0.22380249 -0.15672705 -0.23305525 -0.29402924 -0.28993
0.6807993 -0.116575524 0.51213163 -0.44066423 -0.15663913 -0.017719219 -0.18180458 0.064380884
-0.26216528 -0.16897745 0.04665356 0.27156943 -0.68536866 -0.78527874 0.05793311 0.071804404
-0.72553724 0.00804106 -0.16109324 -0.08869521 0.31303614 -0.19622955 -0.09394729 0.09918383
0.27658653 -0.39478773 -0.06457044 -0.46319237 -0.2462837 0.05550995 -0.21622282 -0.7573636
-0.12701073 -0.14902362 0.08995436 -0.69636285 -0.40575868 0.02725614 0.17744921 -0.16244991
-0.5492236 -1.2104198 -0.057072848 0.25171253 -0.2750949 0.017462458 0.6320778 0.10181682
-0.23409864 0.60234004 -0.78002983 -0.6674465 -0.47479215 0.27442685 0.43488443 -0.20727046
-0.61307013 -0.43420035 -0.45466962 0.124318175 -1.2480053 -0.07549039 0.34322026 -0.36027327
0.14496806 -0.23689252 -0.24678046 -0.103576206 0.5305505 -0.46070275 0.40116575 -2.1557932
-0.5168295 -0.100251 -0.33693576 -0.11634921 -0.16456287 -0.32841876 -0.21879624 0.23758297
0.19812754 -0.32797804 -0.19850828 1.0731994 -0.19325359 0.35898528 0.21289109 0.0041180663
0.016479399 -0.33270553 -0.35833064 -1.2748725 0.08279441 -0.5433309 -0.6705291 -0.23206367

model_output.0.bias f4 [128]
00000000: 095f b2be c653 febe 8c2f bebe bb33 1fbf
00000010: 0dc3 e3be b6b8 10bf daf8 56be b13a 53be
00000020: 149a b4bd 52e0 14bf 1249 f4be b2a5 f2be
00000030: 03a4 bbbd 8845 e83d 9587 ab3e b532 2c3d
00000040: 7544 eabe 72b9 87be 1a46 58bf 0de9 0abf
00000050: d0cf b8bd 608d 553e 1f2a c2be 5fb8 05bf
00000060: 4ff6 e53e 2da7 053f 8b1f 25bf d45b 363e
00000070: 17f3 1d3e e6a7 84be b150 66bf 9ea2 15bd
00000080: bec4 93be a9d3 03bf 3560 29bf 06d8 82be
00000090: 19ec a3be d6d5 373e 53ea 19bf 1524 773e
000000a0: a737 7c3c c97d 85bc 1d99 ee3e 78e4 9b3d
000000b0: 400d dcbe ff55 bbbe 3568 73bb 9283 023e
000000c0: 60f6 45be 8ec3 02bf 04d1 0ebf 6654 d5be
000000d0: bec2 29bd 6ddb 8fbe 07cc 013f d729 383e
000000e0: 0b95 873d 87a7 9ebd 0e91 01bf 3f62 f6be
000000f0: 4e4a b73d b0f1 ebbe e256 0ebf ede2 99be
00000100: 4e49 e8be 76ec cb3e f38f c4bd 4f7f f9bd
00000110: e561 d4be ac49 763e 9c4f 96be 6270 e53d
00000120: d0f3 1cbf 7c05 12bf c11b 4bbe 9d26 843e
00000130: f235 3ebf 822e 0dbf ba7f cebe 56a3 0abf
00000140: 9d55 1bbf f029 00bf 4f26 fabd c529 dfbd
00000150: f1d8 853e 5ad7 bebe 6d3a 323e cb51 46bf
00000160: 86ce 63bd 0e10 04be 15e9 00bf bcb6 86be
00000170: ed18 f3be 60c8 06bf 99ea b73e e01d 293f
00000180: 4067 d43e 336a 84bd 125d e23c 1dfc 32bf
00000190: ef51 9bbe 041d e23e 9e1a d0be 3370 64be
000001a0: 29a8 f63d 0ad8 6cbe c0ef ba3d cf5f eebc
000001b0: 68eb 183f 861b 6b3e bd4f 20bf 9a86 943e
000001c0: 3988 dd3e c1f7 933e c3c1 fe3c 9596 183f
000001d0: 4a88 773e 3f5f 1e3e 3616 73bf d0d3 80be
000001e0: 68a1 20bf f348 5fbf 707e 113e 25da 10bf
000001f0: 0195 333e 83bf 01bf 55c3 debe f6f3 fc3e
-0.3483813 -0.4967329 -0.3714565 -0.6218831 -0.4448475 -0.56531847 -0.20993367 -0.20627858
-0.088184506 -0.58154786 -0.47711998 -0.4739204 -0.09162142 0.11341387 0.33501878 0.042040545
-0.45755354 -0.2650867 -0.84481966 -0.5426186 -0.09024012 0.20854712 -0.3792276 -0.5223445
0.4491448 0.52208215 -0.64501256 0.17808467 0.15424763 -0.25909346 -0.89966875 -0.036532037
-0.2886104 -0.5149484 -0.66162425 -0.25555438 -0.32016066 0.17952666 -0.60123175 0.24134858
0.015394128 -0.01629533 0.4660119 0.07611936 -0.4297886 -0.36589047 -0.003714097 0.12745503
-0.19332266 -0.5107964 -0.5578768 -0.41665953 -0.041445486 -0.28097096 0.50701946 0.1798471
0.066202246 -0.07746797 -0.5061196 -0.4812183 0.08949719 -0.4608283 -0.5560132 -0.30055943
-0.45368427 0.39828843 -0.09597769 -0.12182485 -0.41480938 0.24051541 -0.29357612 0.11203076
-0.6130953 -0.5703962 -0.19834806 0.2581071 -0.74301064 -0.5514909 -0.40331823 -0.5415548
-0.6067751 -0.5006399 -0.12214338 -0.10896639 0.26142076 -0.37273675 0.174051 -0.77468556
-0.055616878 -0.1289675 -0.50355655 -0.2631129 -0.47479954 -0.526495 0.3592117 0.6606121
0.41485023 -0.064655684 0.02763227 -0.69915944 -0.30335948 0.44162762 -0.40645307 -0.22308426
0.12043793 -0.23129287 0.0912776 -0.02909842 0.597342 0.22959718 -0.6262167 0.29008943
0.43267992 0.2889996 0.031098252 0.5960477 0.24173084 0.15466021 -0.94955766 -0.251616
-0.62746286 -0.87220687 0.14208388 -0.5658286 0.17537309 -0.5068285 -0.43508402 0.49404877

model_output.2.weight f4 [1, 128]
00000000: 4e66 abbd 246b 3dbd 9098 40bd 4468 cebd
00000010: 52ff a3bd e999 35bd e728 113d 2c1e 273d
00000020: f61f 063e aad2 29be fc3c f0bd c39e bfbd
00000030: 09f9 783d 1db7 793d e831 963c f325 083d
00000040: 7aa4 b5bd 5ac6 f8bc 9a8e 9fbd d108 81bd
00000050: aa5b 943d a2b4 2b3d b40f ddbd 9b2f 91bd
00000060: 5767 d53d c139 3f3d aa64 8fbe 2f3b 323d
00000070: ed26 693d 6846 bf3d 5174 89be 4b20 1a3d
00000080: fe5b a5bd d748 50bd 233a d7bd 9065 cebd
00000090: d342 a83d aee5 b93d e787 bcbe 743a 573d
000000a0: 007f d23c 6d8e 0f3d b0c5 a23d 9a24 003d
000000b0: c969 6bbd a82d 3dbd 8ec7 213d b845 0f3d
000000c0: 472e 933d 6aaf d0bd b067 afbd b2e6 88bd
000000d0: 1e6c 0a3d 2719 79bd 7425 843d eaf0 3d3d
000000e0: 9187 073d e293 913d febb ccbd 929a 6fbd
000000f0: d4a1 9d3d 26a2 a5bd 3057 46bd bb58 9dbd
00000100: 6365 83bd 127c a33d 8ed0 b13d 2b91 7a3d
00000110: bb5c 82bd 9926 063e 4f06 7a3d 152f 423d
00000120: c083 f1bd e457 12bd 63af 903d 9863 073d
00000130: 45eb 78bd 7b80 8ebd a35c cdbd 3c89 60bd
00000140: d2bd a0bd 24e8 9abd 0962 963d 1c71 4b3d
00000150: 38d6 533d a9bd 97bd 86e0 043d 8bd3 90bd
00000160: 91c1 353d 749f f93c 4a34 babd a372 e63c
00000170: bc7d 9dbd bfb1 e9bd f1e8 563d 608d e33d
00000180: 9803 893d 431a 273d 1c15 263d dca6 36be
00000190: 7a78 10bd 547d a93d 62f5 a2bd afb2 5abd
000001a0: de31 613d 6e36 b33d a346 e53c 575c 303d
000001b0: 0069 213e f41e be3d 4a86 5abd 699b 503e
000001c0: 099e 4a3d 9c72 853d d7cd 353d 7d30 7e3d
000001d0: cd46 3c3d 2279 b63d 7266 23be 9269 b7bd
000001e0: 72b2 0bbe 8599 95bd bea8 573d f962 c5bd
000001f0: 898c 2e3d 15ae a8bd e3c3 22bd e79c 9d3d
-0.083691224 -0.046244755 -0.047020495 -0.10078481 -0.08007683 -0.044336233 0.0354394 0.04080026
0.1309813 -0.16584268 -0.11730382 -0.09356453 0.060784373 0.060965646 0.018334344 0.033239316
-0.08869262 -0.030368019 -0.07790871 -0.0630051 0.07244046 0.04192031 -0.10794011 -0.07089158
0.10420101 0.046685938 -0.28006488 0.043513473 0.05692189 0.09339601 -0.26846555 0.037628453
-0.08074187 -0.050850715 -0.105091356 -0.10077965 0.08215871 0.09077011 -0.36822435 0.05254598
0.025695324 0.035047937 0.07947862 0.031284906 -0.05747393 -0.04618612 0.03949695 0.0349786
0.07186561 -0.101897076 -0.08564699 -0.06684627 0.033794515 -0.060815003 0.06452456 0.04637233
0.03308827 0.071082845 -0.09996794 -0.05849702 0.07696882 -0.08087568 -0.048422992 -0.076829396
-0.06415822 0.07982649 0.08682357 0.0611736 -0.06365343 0.13100661 0.061041173 0.047408182
-0.117927074 -0.03572835 0.07064702 0.033053964 -0.060771246 -0.069580995 -0.10027435 -0.054818377
-0.07848705 -0.075638086 0.073429175 0.049668416 0.051717967 -0.07409222 0.032440685 -0.070715986
0.044374052 0.030471541 -0.090920046 0.028130835 -0.076899976 -0.114108555 0.052468244 0.111109495
0.066901386 0.04079653 0.040547475 -0.1783709 -0.035271145 0.082758576 -0.07956959 -0.053393062
0.054979198 0.08750616 0.027987784 0.043056812 0.1576271 0.092832476 -0.053350724 0.20371784
0.04946712 0.06516001 0.044385757 0.06205796 0.04596596 0.08909823 -0.15957049 -0.08955683
-0.1364229 -0.07304672 0.05265116 -0.09638018 0.042614494 -0.082363285 -0.039737593 0.07695942
