final_critic.pth (torch_old, 554728 bytes, 13 tensors)

fcs1.weight f4 [400, 33]
00000000: fca6 133f 9782 e03e b2ab 413e db68 3dbf
00000010: 1b41 a7bf b92b 58bf 5759 903e a466 213e
00000020: 1b54 3bbe 71be 4dbe 34bf 65be 4323 c9be
00000030: d5e3 8e37 a578 a63e 02b8 8b3f e324 19be
00000040: 2002 97be 6efd 3f3f 8102 1a3f f05a 1bbf
00000050: 30c6 7dbe cb92 2c3f d1cf e9be 4718 2f3f
00000060: 441b 043f 80a3 14bc 4975 eabe 0961 343d
00000070: 33c3 babe 3754 1d3d 19e5 bdbc 8b45 023d
00000080: e542 5e3f 280d fdbd 7def 0c3f 810c 9bbe
00000090: be3e c93e c0f2 b1be cdd9 bcbe d6f8 d13e
000000a0: 49b3 fcbd 374f 973e 4e83 efbe 0ce9 72bd
000000b0: de57 1d3e 5f7e 1d3d b623 823e 3a60 b3bd
000000c0: fbb1 3e3e 4cd8 83bd d1f2 b1bd 061f 88be
000000d0: 978b bebe ec6f 2abe c9ab 813e 8398 6a3e
000000e0: 32f8 393e 8470 413d 1320 ee3d fda5 26bf
000000f0: 4adc 9ebc 0dc3 ca3c 045b 00bd 59de b6ba
00000100: 382c 013c 21af 6fc0 2ed9 573e 4116 9f3f
00000110: ce16 9e3e 1d26 6bbe 514f e33e a822 45bc
00000120: 47be 6abf ad1f d73d 50c3 1ebe e04b a1be
00000130: 5e0c 8ebe d420 073e 5952 e5be 5f12 3ebf
00000140: 4770 ca3e 8a50 3bbe 6485 36be ab37 aabe
00000150: 81d9 283f 061a d0bf a1bf b8be b9a4 d53e
00000160: 4dc2 3f3f 4d8f 42bf 6f7f 92be 9442 293e
00000170: 439f 1cbe a5fe 263b f984 10bc 5b4d 023d
00000180: d257 0dbd f01f 883b 8308 f33e 270b f13e
00000190: 7b0b 573e 3853 7a3d c7cd c03e bbb7 513f
000001a0: ee48 8e3f 999e 74be c426 ebbe f566 693f
000001b0: f5fb 9a3e 5f40 4b3e bedf f5be 495a a63e
000001c0: 7d9f 8e3f 09a1 dcbe 09ea 2bbe 104a 723e
000001d0: d2eb 20bc 7303 dabd 477c e8bd 0c89 3a3e
000001e0: ff60 a7be c680 c2be 060a 4c3e 4f45 633d
000001f0: c4c6 59bf 7502 573e 77b4 d23a 7d77 bebe
00000200: 3fed 323d 5782 9cbc 31f5 383d d11b 123f
00000210: 7b29 263e babf 9a3e 3fe8 ce3d 9956 1d3e
00000220: b974 d43d 3491 49bf bf65 d83e 9239 883e
00000230: dc83 d73f fe08 1d3e f372 d3be f3d5 033e
00000240: 25e5 e7be 966d 103f c828 30bf 1854 93bf
00000250: 3cb6 e33e dac5 13bd 9e28 8f3c 1417 1e3d
00000260: 25b7 10be 96d4 f7be 7341 b23d 95f9 bd3e
00000270: 6f04 30be bf41 ef3d 50d6 a1be c091 c4bb
00000280: 0c22 ca3e ea00 1fbd 6d61 213d 5013 fbbc
00000290: eeec f5be 7ce7 9e3d 54c7 6e3f 666c df3d
000002a0: 6c89 44bf 0256 1bbf 1093 48bf 864e 913f
000002b0: 7e3b 94bf 30ba 0d3d 479a 373f 99d7 74be
000002c0: 2c98 a3be 2ac6 773f c880 b4bc e5fc 28bf
000002d0: 7f16 9d3e e879 1fbf 6fce 823e de27 543f
000002e0: bbaa b3bf 9010 84be 2bfc 823e c141 7cbd
000002f0: 0369 913e c695 8a3e d224 083f b890 9fbe
00000300: f753 02bb 9887 00bf 4197 3f3d bef1 813c
00000310: 0db9 d2bc f7db f7bd 2067 ef3d ca5d cc3f
00000320: c751 bebe 778f debe cf9b 783e 1918 363f
00000330: c9ef 7bbe 6ca0 c23e caa8 19bf 1d6e ad3e
00000340: 7a75 94be 7cb1 a93e 8ff4 bcbc f379 263d
00000350: c98f 5e3f 13e3 973e 3ef7 0ebf cd38 57bf
00000360: af58 9f3e 31bc 163f aec2 983e 5213 bfbe
00000370: 84ea 993e 32ea e03e 9f4d 433f 1c21 3bbe
00000380: 1f72 0ebf c81f b8bc 4f3d 60bd 5d88 263d
00000390: 43d2 123d 282d cbbb 3134 51bf 178e 88be
000003a0: b0b1 08bf 0ce2 063f 1d17 eb3d 808f 1abf
000003b0: b9a5 0ebd 1a2e 023f 28d9 eb3e c63a 31bf
000003c0: df24 e9bd f03c 7bbe af01 9abe b202 1bbf
000003d0: c348 5ebe 5cf9 5d3f 2f38 babe 068e 373e
000003e0: 0fc3 79be a6f0 27bf 0b2b 443e c987 133b
000003f0: 30d7 7fbf 988c 293e 2500 43bf a08a 823e
0.5767667 0.43849632 0.18913153 -0.7398812 -1.3066744 -0.84441715 0.2819316 0.1576181
-0.18293802 -0.20092179 -0.2243622 -0.39284715 1.7033812e-05 0.3251392 1.091553 -0.14955477
-0.2949381 0.7499608 0.6016007 -0.60685635 -0.24782634 0.6741149 -0.45666364 0.6839642
0.51604104 -0.009072185 -0.45792606 0.044037852 -0.3647705 0.03841039 -0.023180531 0.031804603
0.8682082 -0.12356025 0.5505293 -0.30282977 0.3930568 -0.34755516 -0.3688492 0.4101016
-0.123388834 0.29552624 -0.46779865 -0.059304282 0.1536555 0.038450595 0.2541787 -0.08758588
0.18622582 -0.0643774 -0.08688892 -0.2658617 -0.37215874 -0.16644257 0.25326374 0.22909741
0.18161085 0.047226444 0.116272114 -0.6509703 -0.019392151 0.02475121 -0.0313368 -0.0013951763
0.007884078 -3.745064 0.21078941 1.2428666 0.30876774 -0.22963758 0.4439645 -0.0120321885
-0.9169659 0.105040886 -0.15504193 -0.315032 -0.2774381 0.13196117 -0.4478939 -0.7424678
0.39538786 -0.18292442 -0.17824322 -0.33245596 0.65956885 -1.6257942 -0.360837 0.41727236
0.74905854 -0.7599991 -0.2861285 0.16529304 -0.15295129 0.002548137 -0.008820766 0.031812053
-0.03450758 0.004154198 0.4746743 0.4707882 0.21000473 0.06111452 0.37656996 0.81920975
1.1116006 -0.23888625 -0.45928013 0.91172725 0.30270353 0.19848774 -0.48022264 0.32490757
1.1142422 -0.4309161 -0.16788496 0.23661065 -0.009821849 -0.10645189 -0.11351829 0.18216342
-0.3269119 -0.3798887 0.19925699 0.05548602 -0.8506892 0.20997031 0.0016075511 -0.37200537
0.043683287 -0.01910512 0.045155708 0.57073694 0.16226761 0.302244 0.10102891 0.15365066
0.103738256 -0.7873719 0.42265126 0.26606423 1.6837115 0.15335461 -0.41298637 0.12874584
-0.4529201 0.56417215 -0.6881223 -1.1510038 0.4447497 -0.036077358 0.017475422 0.038596228
-0.14132364 -0.48404378 0.0870389 0.37104478 -0.17189191 0.11682462 -0.3160882 -0.00599882
0.394791 -0.03881923 0.039399553 -0.030648857 -0.48032326 0.07758996 0.932729 0.10909347
-0.7677219 -0.6067811 -0.783494 1.1352088 -1.1580656 0.03460139 0.71719784 -0.23910369
-0.31952035 0.9678675 -0.022034064 -0.66010886 0.30681226 -0.6229539 0.2554812 0.8287333
-1.4036478 -0.25793886 0.25583014 -0.061586145 0.2840043 0.27067393 0.53181183 -0.311651
-0.0019886473 -0.502069 0.046775106 0.015862342 -0.025723005 -0.12102502 0.116895914 1.5966122
-0.37171766 -0.4346883 0.24278186 0.7113052 -0.2460319 0.38013017 -0.60023177 0.33873072
-0.28995878 0.33143222 -0.023065833 0.040643644 0.8693815 0.2966543 -0.5584601 -0.84071046
0.31122348 0.5888091 0.2983603 -0.37319428 0.30061734 0.43928677 0.76290315 -0.18274349
-0.55642885 -0.022476092 -0.05474597 0.04065739 0.035845052 -0.0062004514 -0.8172026 -0.26670906
-0.5339613 0.5268867 0.11479018 -0.60375214 -0.034826014 0.50851595 0.46064115 -0.69230306
-0.11383986 -0.24534965 -0.3007941 -0.6055099 -0.21707444 0.8670862 -0.3637099 0.17925271
-0.24390815 -0.65601575 0.19157045 0.0022511354 -0.99937725 0.16557539 -0.76172096 0.25496387

fcs1.bias f4 [400]
00000000: 626c ca3c 91fd 293e 4e01 7c3d ea94 c93d
00000010: a5e8 903d daba 5fbd 5368 283d e748 f6bd
00000020: 2684 243e 5f68 233c 4b5c 0a3e f492 fabd
00000030: 3ec4 23be c7c8 aa3c d39c b6bc ae3a 90bd
00000040: 4ecd ba3d f9dc e7bd f433 1c3e e801 2ebe
00000050: 762f 123d c9d1 d0bd 5fc5 1a3d 2a09 303e
00000060: ee2b abbc 31c9 253d c446 8cbd 8ef6 b6bd
00000070: dc8e 18be 5fcb cd3d 48aa fdba 90ea 763d
00000080: 1a1e 09be 2267 14be 1eef 21be 1099 cdbd
00000090: 9c7e b9bc 561e d7bc 21cb 9c3d 263f abbd
000000a0: 77b2 2d3e fa07 a2bd 3fa0 27be c2db 063e
000000b0: 2d57 e5bd 96fc 873c 70aa 8bbc 71c9 14bd
000000c0: e289 f838 f647 2fbe b04b 203e 7d60 e7bd
000000d0: da40 d93d f3c0 d2bd f7aa 2fbd 80bd 86bb
000000e0: d780 8cbd 95b8 99bd c8fa 15be e5ca f4bd
000000f0: de17 06bc da6f 50bd 5534 c8bc 44f5 353d
00000100: 29a6 b6bc 03bf 28be 0111 83bd 7c09 5a3d
00000110: 8a63 803d cc84 ac3d acfe 1d3c 25ba f33d
00000120: 49db f3bd 7b4c 16be 0fb6 3ebd 35b0 9d3a
00000130: fc5e 013e 9999 cdbd c7f5 f9bd aba7 99bb
00000140: 830b 353d 23b7 22be 71b0 8fbd c002 0cbe
00000150: 3c9d 263d 78fd 843c b7b9 1ebe d66b ecbd
00000160: bb5a 033c 5dfd 3cbd 2eab 09be 0915 58bd
00000170: 947f 23be d7e0 a2bc 1dce a8bc b0e3 153c
00000180: f5df 753c 2d33 f8bc 1509 0e3e 3525 7fbd
00000190: 1b4d a13d d7e2 853d 39ae aebc 85a5 02be
000001a0: c53b 16be 8f4c 453d 04ff 593d 6d3b d83d
000001b0: 88bd 9dbd a6e8 0f3e 8b05 323e a025 e2bc
000001c0: a5c4 8abd e9f7 5fbd b0fd 1abe f086 cd3d
000001d0: e764 9b3c c434 a43d a3f6 e43d 3764 97bd
000001e0: cccb de3a 8f31 103e c07f 09be aeba 1c3e
000001f0: 55db b83d 3cf6 5fbd 848d 11be 27a7 bd3d
00000200: 6811 aa3d 356f a1bd 5a39 aa3d ba9b 533d
00000210: 8982 2f3e 4b58 b63d 2c40 dc3c e76f 30be
00000220: 0e14 113e 5b36 193e 89f3 45bd 7b41 5fbc
00000230: 04fd debb ec15 2ebc 85c8 c13d ffa7 c03c
00000240: df1a 1bbe 6f31 653d 0d00 dbbd 3c7d 4b3d
00000250: ec2e 9b3d be3b aabd 067e f13d 468a 913b
00000260: 8a2a b3bd 51bd 183e e67f e43d 4052 023e
00000270: 2271 f5bd 79f4 07be e2b9 1cbe 0a5f e63d
00000280: 63e6 cf3d 265d d9bd 93cf 8b3d ebb5 0f3d
00000290: 00c3 97bd a70e c43b 031a d7bd f9aa 50bd
000002a0: 12f1 8c3d b6bb c93c c6a7 04be 6d7d 333d
000002b0: fd9f 0ebd 62ef 02be 14bd 24be 0177 f43b
000002c0: b52f 03be d1d9 d9bd 67b4 2c3d 0ffb 2c3c
000002d0: 904e a1bd 2f30 dd3c e669 b33d fd7e 89bd
000002e0: e546 7ebd 0477 fb3c e572 2e3d 6e65 763d
000002f0: 5baf f23d 2d48 3fbc 34e1 6c3d 6a2b cdbd
00000300: eac3 b5bc 96f5 033e bbb5 2cbe d158 eabd
00000310: 7511 1abe 8e4e 143e ad18 a1bc 6a41 233e
00000320: a810 c0bd a336 41bd 2ea8 e53d bc72 31be
00000330: c987 2dbe 6556 eebd becb 413b bb05 24be
00000340: 62ff 033d 68bb 163e 7286 10bd 9116 fbbc
00000350: c1e3 1cbe 8fc3 16bd 8ffb 6b3c 82f7 113d
00000360: cd0d 6bbd aae3 d9bd 37c6 babd d6ce f53d
00000370: c7f8 c1bd 2726 623c 69d8 fabc 2d3f 8fbd
00000380: 6304 f7bb cfb7 063e 15f8 063e b0ef 14bd
00000390: b775 0fbd 60c2 c5bd 0fda a5bd 1a98 f3bc
000003a0: f048 043e 0f48 cb3c c690 18be 8b50 37bd
000003b0: 1501 1abe 75be 243e c063 833c 7d1c 35bd
000003c0: b4ff 8e3d c11f 27be 846b 6bbd 59c6 853c
000003d0: b29c 003e a764 113e f948 bfbb 732e 32be
000003e0: 4fab 033d 2642 c9bd e4c4 203e 9b39 40bd
000003f0: 370f 42bd d839 d3bc 7e36 253e 8454 9c3d
0.024709884 0.16600634 0.06152468 0.09842856 0.070756234 -0.054621555 0.041115116 -0.12025624
0.16066036 0.0099736145 0.1351177 -0.1223506 -0.15992829 0.020847691 -0.022291576 -0.07042442
0.0912119 -0.11321444 0.15254194 -0.16992915 0.035689794 -0.10196263 0.037785884 0.17190996
-0.02089497 0.040475074 -0.06849435 -0.08933745 -0.14898247 0.100485556 -0.0019353116 0.06028229
-0.13390389 -0.14492467 -0.15813872 -0.1003896 -0.02264338 -0.026259582 0.07655931 -0.08361654
0.1696261 -0.07911678 -0.16369723 0.13169768 -0.11198268 0.016599935 -0.017049044 -0.036324922
0.00011851244 -0.17117295 0.15653872 -0.112977006 0.106080726 -0.102907084 -0.042887654 -0.0041119456
-0.06860512 -0.07505909 -0.14646447 -0.119527616 -0.008184401 -0.05088792 -0.024439016 0.044423357
-0.022296028 -0.16479115 -0.063997276 0.0532317 0.062689856 0.084237665 0.009643238 0.119007386
-0.1190706 -0.14677612 -0.046560343 0.0012030663 0.1263389 -0.10039062 -0.122050814 -0.004689177
0.04420043 -0.15890174 -0.070160754 -0.13672924 0.040677294 0.016234145 -0.15500532 -0.115440056
0.008017237 -0.046140064 -0.13444206 -0.052754436 -0.15966636 -0.019882603 -0.020606095 0.009148523
0.015007009 -0.03029784 0.13870652 -0.062291343 0.07876035 0.06537407 -0.02132331 -0.12758453
-0.14671238 0.048168715 0.053221717 0.105582096 -0.07702166 0.14053592 0.17384927 -0.027605832
-0.06775788 -0.054679785 -0.15135837 0.10035503 0.018969012 0.08017877 0.11179855 -0.07392161
0.0016997992 0.14081405 -0.13427639 0.15305588 0.09026209 -0.054678187 -0.1421414 0.092603974
0.08304101 -0.07882539 0.0831172 0.051662184 0.17139639 0.08903559 0.026886068 -0.17230187
0.14167807 0.14962141 -0.048327956 -0.013626452 -0.006805064 -0.010625344 0.09462074 0.023517607
-0.1514697 0.055955347 -0.10693369 0.04967998 0.07577309 -0.08312176 0.11791615 0.0044415323
-0.08748348 0.14915968 0.11157207 0.12726688 -0.11984469 -0.13276853 -0.15305284 0.11248596
0.10151365 -0.1061347 0.06826701 0.0350856 -0.0741024 0.005983192 -0.10503008 -0.050944302
0.06881918 0.02462564 -0.12954625 0.043820787 -0.034820545 -0.1278663 -0.16087753 0.0074604754
-0.12811168 -0.10637248 0.042164233 0.010557904 -0.07876313 0.027000515 0.08760433 -0.06713674
-0.06207933 0.0306964 0.04259004 0.060155325 0.11849853 -0.011674923 0.057831958 -0.10018046
-0.022188146 0.12886652 -0.168662 -0.11442722 -0.15045722 0.14483091 -0.019665087 0.15942922
-0.09378177 -0.047171246 0.11213718 -0.17328924 -0.16946329 -0.11637572 0.0029570903 -0.16017811
0.032225974 0.14719927 -0.035284467 -0.030650409 -0.15321256 -0.036807593 0.014403238 0.035636432
-0.05738621 -0.106391266 -0.09119838 0.120023414 -0.09471279 0.013803042 -0.03062077 -0.06994472
-0.0075383647 0.13156055 0.13180573 -0.036361396 -0.03502437 -0.09656215 -0.08098232 -0.029735614
0.12918448 0.024814634 -0.14898977 -0.044754546 -0.15039475 0.16088279 0.016038775 -0.04421662
0.06982365 -0.16320707 -0.05747558 0.016329931 0.12559775 0.14198552 -0.0058375564 -0.17400531
0.032145794 -0.0982707 0.15700108 -0.046929937 -0.04737779 -0.025784418 0.16134068 0.076333076

bn1.weight f4 [400]
00000000: e436 d73e c982 423f cd1a e23e 6cda ec3e
00000010: f460 d93e ff50 fd3e e219 d23e 0d61 733e
00000020: afe3 e73e bcd2 0c3f ece0 563f 9262 a03e
00000030: a86d d53e 9cef 023f c08d b63e b562 a13e
00000040: 8e8d 023f a826 333f 04bd b9bb c2fe 723f
00000050: 837d e43e 8513 443f d453 fd3e aaf3 113f
00000060: b28f c83e 4743 bc3e 218f f93e 0064 ce3e
00000070: aa12 f53e 7e58 c53e 3c7d eb3d 66cd 8639
00000080: b032 db3e 5a06 0e3e 8b55 0e3f eebb 063f
00000090: d0d3 dc3e ed7e 1d3f b56d f13e cc23 d73e
000000a0: 815e d33e c18a 263f a5bc 2b3e 29e6 223f
000000b0: 5b12 dc3e 33ce d13e efe9 1e3f de79 383f
000000c0: af1a cc3e bd90 093f bbd6 e93e be58 433f
000000d0: fda6 203f 239b de3e 661f b13e 04c3 df3e
000000e0: 1239 ea3e 9144 e93e b8e2 593f c66c 0e3f
000000f0: 5fbf f93e e850 e53e 0c8b 143f ab3f b63e
00000100: fdd3 183f 13db b43e 2a0f ec3e 9fe3 133f
00000110: 9edc d13e 40f6 3c39 96d5 ff3e 9104 303f
00000120: 81ce 593f 0579 4c3f ed63 d43e a8de c53e
00000130: 42d3 d63e 04bd d73e 1eae 1d3f 3eda 423f
00000140: 436b 933e 19ed 1b3f 5cc5 dc3e 1f19 623e
00000150: 3389 143e f0a5 803f 2d81 703f 59a1 313f
00000160: bdc3 593f affd f23e 77b2 463f 927f e93e
00000170: 3da1 0a3f 6dee c43e f986 6f3f 31b5 df3e
00000180: 8aab 233f fac2 213f a32a b73e a225 b43e
00000190: bc90 ef3e fc10 0d3f a871 113f abec ee3e
000001a0: b24b 103f 147c 193f fa41 3b3b c0b7 b23e
000001b0: d55a 243f 2adf c63e 9194 683f fd21 2c3f
000001c0: 9e01 033f 8324 1b3f 4816 c23e ba64 133f
000001d0: 1fea 073f 50da 0f3f 1eb8 093f be3f 2a3f
000001e0: bd4d e63e 6821 313f 34fa 3a3f d9d7 d53e
000001f0: a4f0 ee3e 0399 c63e db1e 123f c8e8 113f
00000200: cb6c e03e 9f3f 7d3e 407c 103f 1462 e53e
00000210: 25f2 b73e ed64 063f 6451 103f 8c57 ed3e
00000220: 771d e23e bb11 473f 3621 2b3f b7ef d23e
00000230: cc43 063f 1274 a23e 287b 193f 53b2 b73e
00000240: 1f2e 353f 6c30 163f 1522 de3e 78ad cb3e
00000250: 9c4e b23c 3fab 143f 5b18 d23e ba43 c53e
00000260: 4d85 0f3f 7716 f43e fb0b 713f 88a0 e23e
00000270: 700d ef3e be94 f23e e88f 683f 497a 193f
00000280: eef9 d63e 3c65 2a3f 912b 193f 9c0f 163f
00000290: ab63 213f 2e9c c73e 4d80 d23e ec8c 123f
000002a0: 9e6d e73e c3cc ab3e 889d a43e c7eb cd3e
000002b0: 5ee8 773f 4eb1 e43e 2ccc dc3e f15f 083f
000002c0: 366c d43e 2ec6 f93e 035f df3e 2855 4b3f
000002d0: 7397 fe3e 9735 c33e 11b2 eb3e 6bde 193f
000002e0: 1f35 b23e 17a5 ec3e 239f 8e3e 4fa2 1c3f
000002f0: bffb ae3e 12bf 373f a732 ce3e 7fc4 e13e
00000300: 93db c93e 623a 263f 2c20 cb3e cb38 073f
00000310: 2aec 063f e14a cf3e c5ae 1a3f 04e2 ec3e
00000320: 2c6c 053f 9a78 1e3f cdbb da3e 214e 643f
00000330: 98f4 4f3f f6b5 493f e704 293f d268 c93e
00000340: 1268 c53e 4d55 183f fca0 593f 316d 713e
00000350: 776d cd3e 8d77 143f 0981 043f f9b4 f53e
00000360: 861f 433f 3b59 163f dccc ff3e 8c1a 063f
00000370: 47c0 f63e 8b13 233f 5f6e d33e d6c9 db3e
00000380: 084b d23e 1f8e 573f 79ae a33e 3292 bdba
00000390: 8e02 e03e 8c13 ef3e 099d 0c3f bdcc 1a3e
000003a0: 3d4b b33e 78ec e33d cd6c b43e 8380 c33e
000003b0: bf79 0a3f 7395 a23e ddb4 673f 8f43 113f
000003c0: 9004 953e 049c df3e eb32 a03e 8cf4 c73d
000003d0: db30 5d3f 3df4 063f dcda 173f 3757 023f
000003e0: 5bed 063f 7ffc 1d3f 4b65 ad3e 26d3 2e3f
000003f0: 9dc2 0e3f ddc2 773f 159b e93e b7c1 b73e
0.42034066 0.7598081 0.44161072 0.46260393 0.42456782 0.49475858 0.41035372 0.2376749
0.45290896 0.55009055 0.83936954 0.31325203 0.41685224 0.51146865 0.35655022 0.3152062
0.50997245 0.6998086 -0.0056682844 0.9491998 0.44627008 0.76592284 0.49478018 0.57012427
0.3917213 0.3677008 0.4874201 0.4031067 0.47865802 0.38544077 0.11498496 0.00025711505
0.4281211 0.1386961 0.5559928 0.5263051 0.4313035 0.615218 0.47154012 0.42019498
0.41283038 0.6505547 0.16771181 0.63632447 0.42982754 0.4097763 0.62075704 0.72060955
0.39864108 0.5373648 0.4567164 0.76307285 0.62754804 0.43477735 0.34594268 0.43703473
0.45746666 0.45560125 0.8511157 0.55634725 0.48778817 0.4478829 0.5802467 0.3559545
0.5969847 0.3532339 0.4610532 0.577692 0.4098863 0.00018020812 0.4996764 0.6875697
0.85080725 0.7987216 0.41482487 0.38646436 0.41958052 0.42136395 0.61593807 0.7611426
0.28792772 0.6090866 0.43119323 0.22079895 0.14505462 1.005064 0.93947107 0.6938682
0.850643 0.4745917 0.77616066 0.4560514 0.5415228 0.38463154 0.93565327 0.43692926
0.6393362 0.63188136 0.35774717 0.35184962 0.4679011 0.5510404 0.5681405 0.46664938
0.563655 0.59954953 0.002857326 0.34905815 0.642011 0.38842136 0.90851694 0.6723936
0.5117434 0.6060259 0.37907624 0.5757557 0.53091615 0.56192493 0.53796566 0.6650351
0.44981185 0.691916 0.7303803 0.4176624 0.4666797 0.38788614 0.5707833 0.5699582
0.43833002 0.24731301 0.5643959 0.4480139 0.3592693 0.5249775 0.5637419 0.46355855
0.44163105 0.7776143 0.6684755 0.41198513 0.524472 0.3172918 0.59953547 0.35878238
0.707735 0.58667636 0.43385378 0.39780784 0.021766 0.580738 0.41034207 0.38528234
0.56062776 0.4767339 0.94158906 0.442631 0.4668994 0.47379106 0.90844584 0.5995222
0.41987556 0.6656072 0.598321 0.5861757 0.63042706 0.38986343 0.4111351 0.5724628
0.4520082 0.33554658 0.32151437 0.40218946 0.9683894 0.44666523 0.4312452 0.53271395
0.41488808 0.48784012 0.43627176 0.79426813 0.49724922 0.38126823 0.4603429 0.6010501
0.34806153 0.46219704 0.27855787 0.61185163 0.34176442 0.71775925 0.4027302 0.44095227
0.39425334 0.64932835 0.39672983 0.52821034 0.5270411 0.40486816 0.6042293 0.46266186
0.5211818 0.61902773 0.42721406 0.89181715 0.81232595 0.78793275 0.66023105 0.39337784
0.38555962 0.5950516 0.8501127 0.2357681 0.40122578 0.5799492 0.5175939 0.47989634
0.76219976 0.58729905 0.49960983 0.5238426 0.4819357 0.63701695 0.41295144 0.42927426
0.4107287 0.84201235 0.3196905 -0.0014463125 0.4375195 0.466946 0.54927117 0.15117164
0.3501834 0.11129087 0.35239258 0.38183984 0.5409202 0.31754646 0.9051035 0.5674371
0.29105043 0.43673718 0.31288847 0.097634405 0.8640267 0.5271643 0.5931833 0.5091433
0.52705926 0.61713403 0.33866343 0.68290937 0.55765706 0.9678171 0.4562613 0.3588998

bn1.bias f4 [400]
00000000: dd54 6ebf 23a8 0cbf 4fcc 12bf 963b 31bf
00000010: 1fd5 d6be fffd 30bf 59e6 a8bf bf6d 02be
00000020: 2e4a a9bf fb33 30bf f88b 44be 16fb 1abf
00000030: 2b66 93be d38d e93b fcbf 8fbe 2d80 bcbe
00000040: aa03 1bbf b063 30bf 99ad 7fbd f493 3dbf
00000050: 9460 9abf ef5f 78bf 788b d7be 630c 32bf
00000060: 3bd9 0dbf 7d58 4abf 7f3f e2be 9b4e 25bf
00000070: 1ea6 d6be ce05 c1be 19d6 80bf eba3 fabc
00000080: 031c 08bf 7142 3bbf 84cc c0be 44bf 40bf
00000090: 7160 3bbf cbe0 4cbf 4655 fbbe e86f febe
000000a0: 63ea a2be a09a 20bf b01c 22bd bbf7 96bf
000000b0: 372e 50bf c66e 14bf 1f9a b8bf bb3d cabe
000000c0: a079 c8be cf4f d0be 984e dabe a554 c83c
000000d0: 2964 96be af5e 38bf 949e b0be 266f 0fbf
000000e0: ddb0 f5be 1267 8dbf a394 0bbf 145d 0cbf
000000f0: 357f 70be 19e6 b7be 0d77 8bbf e7e4 9cbe
00000100: 797a a1bf 68d2 a0bf 5e74 0abf b351 5dbe
00000110: c58d 14be c8bc 41bd 868f 06bf df54 e1bf
00000120: 120f c8bf a2b5 76bd 3b34 84bf ca6c e9be
00000130: f15f 2ebf 3ab4 9fbe 637d 6bbf 6f3c 83bf
00000140: 80c9 7abf fff6 0fbf 8507 31bf 5c1d 98bf
00000150: 5d58 13bf 5622 12bf 1e94 36bf 4748 65bf
00000160: d554 1ebc 594f 5bbf 852e 99bf b4f6 46bf
00000170: 6693 9fbf 6f07 d9be f78f 8abf 5926 6dbf
00000180: 375c 95bf 38cf 9abf 7945 63bf d177 943d
00000190: aa1f 80bf 36a6 8dbf da2c 16bf a146 2bbf
000001a0: 86d4 3cbf 6794 4dbf 04f5 96bd eb15 b8be
000001b0: 2f54 63bf 312d 06bf 6cdb 03bf 01ce 0dbf
000001c0: 5593 73bf 2934 09bf dde1 9abd fdd5 2cbf
000001d0: 4f96 dbbe 8b0d 9abf e13c 97bf 3d35 28bf
000001e0: 47c6 78bf e3fd dfbe 0665 42be 5423 10bf
000001f0: 13d5 1cbf fc49 aabe 581d c0bd fffc 9cbf
00000200: 6b07 24bf 0f02 70bf 1479 10bf 18b4 c5be
00000210: 9e0b 61bf 3c35 c4be b9ed 44bf 406d ddbe
00000220: fe47 29bf e16b 0dbf 23a5 3bbf 9b9d 24bf
00000230: 663d a0bf 7b25 05bf b7fa ecbe 1d64 e8be
00000240: cf51 f5be e0f6 40bf f58b a5be e52f 8dbe
00000250: dede 8fbe ed0a 00bf 0dab d9be 69a1 afbe
00000260: 942a 27bf 9706 15bf bc66 2fbf 5398 6bbf
00000270: 1557 2ebf eedf 4bbf f2fd b8be dbf9 3dbf
00000280: 51af 0fbf aaa8 8fbf 2ceb 0dbf 8b0f 38bf
00000290: 7265 efbe 702e 15bf e6af 26bf af8a 1ebf
000002a0: b92c 3abf 0350 25bf 79e0 22bf 3f1d d8be
000002b0: b908 81bf 7ca9 7cbe 4c4f 96bf a2f6 45be
000002c0: a16a c5be 3383 74bf 6ae9 8fbf d616 95bf
000002d0: b28c 55bf a31a f3be 7aef 67bf 2102 8fbf
000002e0: b9d2 eebe 8c5a 99bf cc1b 98be 2128 d0be
000002f0: d43e 5abe b949 3bbf 2962 23bf 5395 14bf
00000300: ca78 86bf 0913 0c3d e91b 1fbf a151 0bbf
00000310: c6fa 4abf cce5 2ebf a530 84bf e198 a3be
00000320: cbc5 23bf c54c 36bf 92d9 86bf c745 29bf
00000330: 3c31 04bf bbe9 8bbf 3576 12bf 25f7 ccbe
00000340: aa81 2ebf 2234 9fbf c2fc cfbc d845 433d
00000350: f183 3ebf ac21 adbe 74a9 2fbe 02ee 0fbf
00000360: 9472 ffbe 2941 1fbf cd16 05bf 530b e1be
00000370: 905d a7be 71f3 183e 9f0e bcbe f3b6 633d
00000380: 0e12 02bf a1e7 d8be f42a d5be e9d1 51bc
00000390: 298c 32bf 6129 84bf 104d f8bd 1b74 1fbf
000003a0: 1f7f be3d 3154 48bf 4c66 babe 6e37 06bf
000003b0: 9c05 f4be df01 b5be 0d69 fcbe 0771 a6bf
000003c0: 6d06 69be 3de3 1fbf 5118 31bf ce87 19bf
000003d0: 0384 29bf a572 08bf 810a 18bf e92d 09bf
000003e0: 8e19 ebbe 7038 28bf 3894 f2be 600d acbf
000003f0: 84d9 4abf ee98 20bf 3e89 22bf b6b0 5fbf
-0.9309824 -0.54944056 -0.57343 -0.69231546 -0.41959473 -0.6913757 -1.3195297 -0.12737177
-1.3225763 -0.68829316 -0.19194019 -0.60539377 -0.28788885 0.0071275025 -0.2807616 -0.3681654
-0.60552466 -0.6890211 -0.062421415 -0.74053884 -1.2060723 -0.97021383 -0.42098594 -0.6955015
-0.5540959 -0.7904127 -0.4418907 -0.6457307 -0.41923612 -0.3769974 -1.0065337 -0.03059574
-0.5316774 -0.73148257 -0.37656033 -0.7529185 -0.7319403 -0.80030507 -0.49088496 -0.49694753
-0.31819448 -0.6273594 -0.03957814 -1.1794351 -0.8132052 -0.57981527 -1.4422034 -0.39500222
-0.39155293 -0.4068589 -0.42638087 0.024454424 -0.2937329 -0.72019476 -0.34495986 -0.56028974
-0.47986498 -1.104708 -0.54523677 -0.54829526 -0.23486026 -0.35917738 -1.0895706 -0.3064339
-1.2615501 -1.2564211 -0.5408381 -0.21613197 -0.14507206 -0.047299176 -0.5256275 -1.7604026
-1.5629599 -0.060231812 -1.032844 -0.45590812 -0.68115145 -0.3119219 -0.919882 -1.0252818
-0.97963715 -0.5623626 -0.691521 -1.188396 -0.57556707 -0.5708364 -0.7131976 -0.8956341
-0.00966378 -0.8566795 -1.1967322 -0.7772019 -1.2466857 -0.42388484 -1.0825185 -0.9263664
-1.1668767 -1.2094488 -0.8877788 0.07249416 -1.0009663 -1.1066349 -0.5866219 -0.66904646
-0.73761785 -0.8030457 -0.07370952 -0.35954222 -0.8880033 -0.52412707 -0.51506686 -0.5539246
-0.95146686 -0.53595215 -0.07562611 -0.6751402 -0.42888114 -1.2035383 -1.1815454 -0.65706235
-0.9717755 -0.43748388 -0.1898385 -0.56303906 -0.61262625 -0.3325957 -0.09380597 -1.2264708
-0.6407382 -0.9375314 -0.5643475 -0.38613963 -0.8790835 -0.38321865 -0.76925236 -0.43247414
-0.66125476 -0.55242735 -0.73298854 -0.64302987 -1.2518737 -0.52010316 -0.4628503 -0.4538888
-0.47913978 -0.753767 -0.3233334 -0.27575603 -0.28099722 -0.5001667 -0.42513314 -0.34302834
-0.65299344 -0.5821318 -0.68516135 -0.92029303 -0.68101627 -0.79638565 -0.36131245 -0.74209374
-0.56126887 -1.1223347 -0.5543697 -0.71898717 -0.46757084 -0.58273983 -0.6511215 -0.61930364
-0.7272449 -0.64575213 -0.6362377 -0.42209813 -1.0080787 -0.24674028 -1.174295 -0.19332364
-0.38557914 -0.95512694 -1.1243107 -1.1647594 -0.8341781 -0.4748126 -0.9059979 -1.1172525
-0.46645144 -1.1980758 -0.29708707 -0.40655616 -0.2131303 -0.73159367 -0.63821656 -0.5804035
-1.0505612 0.03419784 -0.6215196 -0.5442143 -0.792889 -0.6831939 -1.0327345 -0.31952575
-0.63973683 -0.7121089 -1.0535147 -0.66122097 -0.51637626 -1.0930704 -0.5721162 -0.40032306
-0.681666 -1.2437785 -0.025389079 0.04767403 -0.74420077 -0.33814752 -0.17154485 -0.56222546
-0.49892104 -0.622088 -0.51987916 -0.43953952 -0.3268857 0.14936616 -0.36729905 0.055594396
-0.508088 -0.4236422 -0.41634333 -0.012806394 -0.6974512 -1.0325128 -0.121240735 -0.6228654
0.0930159 -0.78253466 -0.3640617 -0.5242833 -0.4766053 -0.3535299 -0.49298897 -1.3003243
-0.22756357 -0.62456113 -0.6917773 -0.59972847 -0.6621706 -0.53299934 -0.5939103 -0.5358568
-0.45917934 -0.65711117 -0.47378707 -1.3441582 -0.7923815 -0.6273335 -0.63490665 -0.87379014

bn1.running_mean f4 [400]
00000000: 3478 b5c0 fbac 4fbe 96da a8c0 0b8f 0c40
00000010: d577 1e40 888a c7be e572 edc0 79bd 0ec0
00000020: 1338 19c0 b82e 2fbf 0035 0bbe 38d2 df3f
00000030: b598 95bf 2b52 5140 5805 d0bf 6227 f63f
00000040: 7ea5 0240 13fa 903f 0f44 d93d 230a 93be
00000050: b19c 2fc0 a2a5 1bc0 d6fc 0140 1f34 6840
00000060: 21a1 1240 53ab 13c0 52f5 ae40 1bb2 25c0
00000070: 6ce7 f9c0 8ddb c240 bbfb b6bd c062 b33e
00000080: eecf 3bc0 5709 2b3f 04a7 c63f 3ef5 ccbf
00000090: 2428 cebf a5a5 a140 46f0 0a40 9eae febe
000000a0: c511 9bbf 1cff 0cc0 a094 ac40 970a a6bf
000000b0: 74e7 9ac0 df58 25c0 27e5 f3bf 70ea 63be
000000c0: 65c8 9c3f 359a 1140 9364 7ebf 147f 743e
000000d0: b0b0 0241 6b30 3f3f 0a36 8b40 e0f8 df3f
000000e0: f204 d1bf 1da2 0fc1 1dec 513f b562 943f
000000f0: 59a2 88c0 846a 58bf e8a6 0ec1 1a03 93c0
00000100: cb44 d9bf 61df dabf f0d5 7d40 3c27 983f
00000110: 4aa8 c640 2160 193d 675c 8d40 efc7 11c0
00000120: 2ba1 38c0 29dd 803f 6070 d1c0 018b cdbe
00000130: b281 083f e493 6c40 6f59 b93f 1c8b 913f
00000140: 5b88 d9c0 5b91 aec0 4500 e5bd 4b85 f33c
00000150: 56bb cf3e 7551 e7be e8a7 693e 2e04 e93f
00000160: ee07 3a3f c164 b5c0 76b4 efbf ff19 e6bf
00000170: 7e7b a4c0 ae5b 1f40 a796 77bf 7b4a 3340
00000180: 875c dfbe e38f 4cbf 532e 97c0 778b 4040
00000190: b94b 363e 8c22 eec0 a745 a740 3889 f1bd
000001a0: bab6 5ec0 a3fc f73e 6b3a 17bf 3cd4 15c0
000001b0: 7765 c3bf a0ea 0b40 9b6f e3be e18e 9f3d
000001c0: d241 e440 f57c 1b40 d352 3c40 76af 7c40
000001d0: e751 27bf 5dea 22c0 1a3e 2ec0 66b4 7bbf
000001e0: 2489 4bc0 9aab 863f f1c3 0e40 a62b 933f
000001f0: 84e5 d4c0 00e4 6940 1d2d 5e40 333f eebf
00000200: 8119 a43f 1d28 84c0 425a e73f 619b c240
00000210: a439 5ec0 ff32 69c0 349d 6b3e 77f4 ddbf
00000220: b961 bebf c4ce 1d40 4a5f 28bf e1ce 85c0
00000230: fa1f 96be d90f 23bf 8da4 1040 fcc6 ebbf
00000240: 8884 4c3e df23 1f40 082d b8c0 d5f7 62c0
00000250: 7d01 003e 6ede 9740 c419 913e 1435 9ebf
00000260: 1d78 9b40 b646 0440 6a55 1fbf 2e8d 17c0
00000270: 429d 74c0 0da9 79c0 bef0 a0bf 5167 12c0
00000280: 7878 063e 8f35 78bf 5f6a 2b3e 4afe abbe
00000290: 0b02 ab40 f40a 1b3f fabf 3ac0 77fc 63c0
000002a0: 212c 74bf b963 c4c0 a82d 93bf 52b7 bb3f
000002b0: 55ac 403f 9c42 57bf af3b 91c0 9903 ff3f
000002c0: 406e 1f40 231d 21c0 a147 03c1 8121 d9bd
000002d0: 897a b3c0 28c1 2ec0 c40a 1840 1290 26c0
000002e0: 18fa 5ac0 3a7d 90c0 2744 1ec0 c0e9 7e40
000002f0: f4df 8140 0a5b 033c a377 7c40 970d a83e
00000300: 791f 4bc0 8fcc 8c3e ba9f a4be 74e0 5c40
00000310: 7890 3fbf 3ef8 81c0 4514 afbf f023 2840
00000320: 4cae 09c1 6e55 07bb cb2b 1d41 ae53 90be
00000330: 5b46 00c0 252d c2bf d2ea d4be 0a47 8a40
00000340: f702 68bf 45b0 7fbf ae07 8840 7881 a23f
00000350: 517e a0c0 8bdb 313f 2a24 2f40 2f1a 6b3f
00000360: b983 1d3e 90c5 953f 27e4 74c0 46fd 59bf
00000370: 21d6 f5be 7918 3a3f 55a9 1b3f 4f2e 14bf
00000380: 3263 a13f 6c04 103f 6198 89be f104 bebe
00000390: 41f0 1bbf f215 27c1 6e42 0f3f fec0 22bf
000003a0: 7e36 ddbf 287f 6540 8379 9abf 0b19 ebbf
000003b0: e17b 01c0 9feb 3440 5fdd 1f3e 1c4a 2dc0
000003c0: 9eb8 86c0 aefe 933e b28e efbf 1c7e 903e
000003d0: b102 1a40 6d5a 41c0 829e 6bbf 21d2 58c0
000003e0: b5bc 56c0 4ac4 123f 72eb ac40 89b5 0ec0
000003f0: a804 babf bb03 053d 58cd 21bf 9e03 d9bf
-5.670923 -0.2028083 -5.276683 2.1962306 2.476064 -0.38972878 -7.420275 -2.2303145
-2.3940475 -0.6843066 -0.13594437 1.7486029 -1.1687227 3.2706401 -1.6251631 1.9230769
2.0413508 1.1326317 0.10608684 -0.2871867 -2.7439387 -2.4319844 2.031057 3.6281812
2.2910845 -2.3073318 5.4674463 -2.5889957 -7.8094997 6.0893006 -0.089347325 0.35036278
-2.934566 0.66811126 1.5519719 -1.6012342 -1.6106 5.0514703 2.1709151 -0.49742597
-1.2114798 -2.2030706 5.3931427 -1.2971982 -4.8407536 -2.5835493 -1.9054307 -0.222574
1.2248656 2.275037 -0.99372214 0.23876601 8.168137 0.74683255 4.3503466 1.7497826
-1.6329634 -8.977078 0.82000905 1.1592623 -4.269818 -0.8453753 -8.915749 -4.5941286
-1.6974119 -1.709942 3.9661827 1.1886973 6.208043 0.03744519 4.4175296 -2.277828
-2.884837 1.0067493 -6.5449677 -0.40145114 0.533229 3.6965265 1.4480418 1.1370578
-6.797895 -5.4552436 -0.11181692 0.029726645 0.40572613 -0.45179334 0.22817957 1.82044
0.7266835 -5.668549 -1.8726947 -1.7976683 -5.1400747 2.4899707 -0.9671425 2.801421
-0.4362528 -0.79907054 -4.724405 3.0085123 0.17802323 -7.441717 5.2272525 -0.117937505
-3.4799027 0.48434934 -0.59073514 -2.3410788 -1.526534 2.1861954 -0.44421086 0.07790924
7.1330347 2.4295018 2.9425552 3.9482093 -0.6535935 -2.5455544 -2.7225404 -0.9832214
-3.1802454 1.0521119 2.2307093 1.1497695 -6.653017 3.654541 3.4715035 -1.8613037
1.2820283 -4.1298966 1.807442 6.081467 -3.472268 -3.6437376 0.23009187 -1.734023
-1.4873573 2.465745 -0.657704 -4.181504 -0.2932127 -0.63696057 2.2600434 -1.84201
0.19972432 2.4865644 -5.755497 -3.5463765 0.12500568 4.745902 0.2833997 -1.2359948
4.8584123 2.0668159 -0.62239707 -2.367992 -3.8220983 -3.900943 -1.2573469 -2.287556
0.13131893 -0.96956724 0.16739796 -0.33592445 5.3439994 0.6056359 -2.9179673 -3.5622842
-0.95379835 -6.137173 -1.1498308 1.466532 0.7526296 -0.8408601 -4.5385356 1.9922973
2.4911041 -2.5174034 -8.204988 -0.106020935 -5.608708 -2.7305393 2.375657 -2.6025434
-3.4215145 -4.5152864 -2.4729097 3.983017 4.058588 0.008017311 3.944802 0.32822868
-3.173796 0.27499816 -0.32153112 3.4511995 -0.74829817 -4.061553 -1.3678061 2.6271935
-8.605053 -0.0020650285 9.823192 -0.28188843 -2.0042942 -1.5170027 -0.41585404 4.3211718
-0.90629524 -0.9987834 4.2509375 1.2695761 -5.0154195 0.6947562 2.7365823 0.9183683
0.1538228 1.1700916 -3.8264253 -0.8515209 -0.4801493 0.7269359 0.60805255 -0.5788316
1.2608397 0.5625675 -0.26874068 -0.37113145 -0.60913473 -10.442858 0.5596074 -0.6357573
-1.7282255 3.585886 -1.2068332 -1.8367018 -2.023186 2.8268812 0.1561179 -2.7076483
-4.2100363 0.28905243 -1.8715422 0.28221214 2.4064143 -3.0211442 -0.9203874 -3.3878253
-3.3552678 0.57330763 5.403741 -2.22983 -1.4532671 0.03247426 -0.63203955 -1.6954229

bn1.running_var f4 [400]
00000000: 156e 8841 efa7 5f41 e849 b841 8764 4342
00000010: 5342 3541 409d ac41 6b3a b141 b6ae 7641
00000020: caf9 8a41 be00 3b41 9bd6 e53f 1eec 1042
00000030: c1ee 0e42 ce46 8341 a0a8 4241 8651 0a42
00000040: 50b3 cd41 5d0f d341 1f7d aa3e cf55 0a41
00000050: 5730 d741 78cb 7e41 2db1 6d41 83c6 9342
00000060: 5a86 0542 a52c 3e42 9d47 eb41 7947 7f41
00000070: dc35 9641 98d4 9f41 30ee c841 79ac b63d
00000080: da9c 0f42 b044 c841 bc40 4641 6dea 3941
00000090: c1f5 ca41 738c 0042 38e4 dc41 cb49 e941
000000a0: 8954 3841 986e 5741 c663 f241 67a0 a441
000000b0: a672 a641 6343 2541 1f0f 8d41 c09f aa41
000000c0: 1804 0f42 8e34 e541 6b03 2e41 744e 5240
000000d0: 070a ed41 9f54 ec41 53e8 1342 3fa4 3142
000000e0: 3ccb be41 a288 bd41 e221 d340 b3d9 8941
000000f0: 9d70 3e41 88cf 8442 8fe4 f641 a08a 4a42
00000100: d87b bb41 2248 c541 def0 0b42 6731 a141
00000110: d89e e941 9ff4 0c3e 1339 a341 c51f d541
00000120: a856 0a41 e27e 2040 87c2 b041 bf20 8841
00000130: 6164 8941 e29d 4642 7dc3 e140 4c54 cd41
00000140: 5e2e 9641 f65c 6541 40ba 2042 629b b841
00000150: 1e64 7842 9f55 5f41 49c9 de40 0d59 6d41
00000160: 5d7e c440 dbe6 1342 ee13 8241 d9e8 ab41
00000170: 2e3c bf41 0a1d e341 f9ca 4241 c4aa af41
00000180: c9e6 8940 d470 3b42 bb7a dc41 1ab1 4a41
00000190: 5c88 b641 2e06 5341 f780 8041 e6fd 0141
000001a0: 1bf9 2242 09f5 2042 8466 a73f 9685 c941
000001b0: ad65 cd41 27f9 8b41 5e35 8b40 76e3 be41
000001c0: b5bc c541 500a 0642 3c1e 2141 97e0 0642
000001d0: 6c78 2841 2965 4941 9c68 8f41 35c1 0142
000001e0: dd21 1f41 069c c940 76bd 6c41 94d1 5241
000001f0: 229c 8041 23a9 1042 b649 f241 43a4 0f41
00000200: da50 dd41 2e53 a141 16d2 9840 7fcf f141
00000210: 5a20 5341 a9c7 b441 b562 e441 d342 b942
00000220: ce67 1c42 0903 8141 519a 3d41 1338 bc41
00000230: 6e82 a741 9520 9b41 3a30 2542 f390 ab41
00000240: fc0d 5441 4120 3641 5b2b 2242 8174 d441
00000250: 1d1d 8540 1388 8441 cb50 b341 9a5d ab41
00000260: e63b b141 be21 9a41 c35c 4040 07ef fa40
00000270: 40aa 0442 f4d7 7841 d99b 2541 46c8 de41
00000280: c2e4 9c41 b525 d541 ff83 1f41 4e3e 2d41
00000290: dfe2 a241 543e 1142 66fc b941 93d4 ed41
000002a0: f7fc 5841 24ce cc41 bc0e 9941 abe8 6141
000002b0: 1fb9 c140 d60d 8642 9b24 2741 a5b0 7141
000002c0: b95f d541 7215 a241 3b22 a141 9ae4 4c41
000002d0: 8143 cc41 4783 f841 a2ac 7341 8e97 4341
000002e0: 433f bc41 60c2 7841 c71d d341 f72d 2d42
000002f0: 2899 8542 1f21 bc41 2e10 e441 6d70 ab41
00000300: ec48 fb41 5755 4840 a846 0a42 8fda 5041
00000310: 0c63 8c42 2734 da41 374d db41 81d1 0442
00000320: 7c7a bf41 931a 3341 ba69 ae41 00dd 8540
00000330: f584 5140 a5b6 7941 f6f4 d241 5751 a041
00000340: 2e09 0042 dd8e 0742 e297 e840 88ab 6641
00000350: 9920 a341 782e 4241 6524 f841 2128 2042
00000360: 7acc 1741 7e5e 1742 40de 0a42 98b6 7f41
00000370: 4630 a941 998e 9e40 b851 1841 35ca 8841
00000380: 9c94 4541 b571 3c41 d685 7141 b5d4 993e
00000390: c3c5 e341 cd82 c541 bb32 0942 bc69 0a42
000003a0: 9643 4741 df39 a241 21f2 c941 129c b841
000003b0: 0f41 fc41 7dfc 8041 02c2 0341 3e3a d441
000003c0: 5a79 b841 d2ff 8441 d688 9041 9142 9941
000003d0: 122c 3042 7708 5842 0256 e341 6b00 ef41
000003e0: bc1a b041 454d 2941 40c4 bf41 1251 c341
000003f0: 5529 2a41 75e3 ae40 69c4 ec41 2996 a041
17.053751 13.978499 23.036087 48.84817 11.328692 21.576782 22.153524 15.417654
17.371967 11.687681 1.7956117 36.230583 35.73316 16.409573 12.166168 34.579613
25.712555 26.382502 0.33298585 8.645949 26.898603 15.924675 14.855756 73.88772
33.381203 47.5436 29.409967 15.954949 18.776299 19.978806 25.116302 0.08919615
35.903175 25.033539 12.390804 11.619733 25.369997 32.137157 27.611435 29.161032
11.520638 13.4645 30.298717 20.578321 20.80598 10.328952 17.632383 21.328003
35.753998 28.650661 10.875834 3.2860384 29.629896 29.541319 36.97688 44.410397
23.849236 23.691715 6.597886 17.231298 11.9024935 66.405334 30.8616 50.635376
23.43547 24.660221 34.98522 20.149122 29.20256 0.1376519 20.402868 26.640512
8.646156 2.5077443 22.094984 17.01599 17.174013 49.654182 7.0551133 25.66616
18.77264 14.335196 40.181885 23.07587 62.09777 13.958404 6.962071 14.834241
6.140425 36.975445 16.259731 21.488695 23.904385 28.38918 12.174554 21.958382
4.309422 46.860184 27.559927 12.668238 22.816582 13.189009 16.062971 8.124487
40.743267 40.239292 1.307816 25.190228 25.674646 17.496656 4.3502645 23.861065
24.717142 33.51007 10.069881 33.719326 10.5294 12.587197 17.926079 32.43868
9.945767 6.300296 14.796255 13.176167 16.076237 36.165173 30.285992 8.977603
27.664478 20.165615 4.7756453 30.226316 13.195398 22.59749 28.548197 92.630516
39.10137 16.126482 11.850175 23.52738 20.938686 19.39091 41.297096 21.445776
13.253414 11.3828745 40.54234 26.556887 4.159804 16.566442 22.41445 21.420704
22.154247 19.266476 3.0056617 7.841678 33.16626 15.552723 10.350549 27.84779
19.611698 26.643412 9.969726 10.827711 20.360777 36.310867 23.248241 29.728796
13.561759 25.600655 19.132195 14.119304 6.053848 67.02702 10.446437 15.105626
26.67174 20.260471 20.141714 12.805811 25.53296 31.0641 15.229647 12.224501
23.53089 15.547455 26.38954 43.294888 66.79913 23.516172 28.5079 21.429895
31.410606 3.1302087 34.569 13.053359 70.19345 27.275465 27.412703 33.204594
23.934807 11.193988 21.801624 4.1832275 3.27374 15.607091 26.36961 20.039717
32.008965 33.889515 7.2685404 14.416878 20.390917 12.136345 31.01777 40.03919
9.487421 37.842278 34.71704 15.982079 21.148571 4.954907 9.519951 17.098734
12.348782 11.7777605 15.095175 0.30045095 28.471563 24.688868 34.29954 34.603256
12.454 20.278257 25.243227 23.076206 31.531767 16.123285 8.234865 26.528439
23.059254 16.624912 18.066814 19.157503 44.043037 54.008266 28.416996 29.875204
22.013054 10.581365 23.970825 24.414585 10.635091 5.4652658 29.595903 20.07332

fc2.weight f4 [300, 404]
00000000: ddd0 00be 92b2 c7bd e66e ec3c 9c0f d1bc
00000010: 72d0 80bd 57f1 bb3d e919 163b fcd9 1b3e
00000020: 7932 14be 2495 ba3c 14dc 91bd 739c 27bd
00000030: 6d8b 32be 7e1d 383e ddce 513d 4e0d 07be
00000040: 6c3e 65be a16e 31bc ce9b 0abd 091f d5bd
00000050: 0d7f bb3d 0674 19be f7e3 14be 274d 63bc
00000060: ec70 333d 80ea 9cbd b003 6abe 491c 313d
00000070: 5e04 5abe c136 6f3e d98d a0bd 47aa ccbb
00000080: d78d fe3d 752a f23c f08b 2f3e 573b d33d
00000090: 3a39 d3bd a3fa f23d d068 443c d592 cf3c
000000a0: 137e 223e a149 303d 6e45 85be 63a7 e3bd
000000b0: 4979 f43d 1cde 013d 5202 8cbd 12b2 bc3d
000000c0: 9ee8 8ebd 5e26 0dbe 84c6 8ebd 8f5f 6dbe
000000d0: 91b3 14bc 625b c6bd 16df d7bd 1fb4 42be
000000e0: 7657 563d 8416 973d b72a 24be c157 c8bd
000000f0: e5c8 f73d 4c08 cbbd eb8b eebd a0ba cfbd
00000100: 9452 caba c71d 0dbe f3f9 c23d 2fed 2bbe
00000110: 26f2 22be 7d0c 413c c71a 49be 576f 0b3d
00000120: d99f 11be 59e9 943d 2890 503d b384 193e
00000130: dfee 3abe 4349 ddbc 2e3c 34be f6dd ef3c
00000140: 9d95 e0bd 103d e8bd 3d04 1dbd bc30 9abb
00000150: 1516 5b3d e904 3bbe eb70 29bd b8b8 4e3c
00000160: 3d71 ca3d 7ac0 293d 4e1d 16be 898c 1f3d
00000170: ef62 e83c 489c cb3e 8b45 6dbe 55f1 21bb
00000180: 5ff2 54be bea6 fcbd 3545 ccbd dbf9 59be
00000190: 944f 063d 928a 62bd 3589 6bbe 7bce fdbc
000001a0: 920f fbbb bb28 26be c85f 2b3d 666f 4abe
000001b0: 24b3 6e3c ba31 1dbd 283a abbe 6f49 ecbb
000001c0: a01e 3bbe 1711 033d a5e6 1b3e 9772 293e
000001d0: 942c b43d a5d0 473d a87a 65bd 67c7 62be
000001e0: 6328 d4bd 508e cd3d 171e 31be 24d8 e3bc
000001f0: 035c f33d 0cf4 9a3c 172a 8fbe d2d7 96bc
00000200: 2abc 1abe b2d9 22bd afeb d6bd 49c1 92bc
00000210: e29c 0ebe 02c9 463d 5746 93bd d289 26be
00000220: 879c 34be a82d f9bc 6dc9 47bd 4a6b 99be
00000230: 6826 183e 0aff 36be 9c07 5bbe 2d87 2abe
00000240: 9e58 073e d087 383d 65f0 a2bd 4196 d2bd
00000250: 319f 4dbd 2628 08be a3c1 56be d534 80be
00000260: d0d1 423c 0905 483e 91ba 6bbe 3bc9 80be
00000270: a99a 133e e609 e4bd 008a 28be e94f 46bb
00000280: fd22 8ebe 2796 173d eb69 1abe 9469 0abe
00000290: af84 88be 7d0e debd a0bb 3c3e a291 a33d
000002a0: 5a96 9abd d985 63bd d0fd a0bd 11b4 233d
000002b0: a8ef ffbd e3ac 8c3e 0d5f 043d 615a f4bd
000002c0: 53ce e5bd 145f cc3d a3b3 22bd b8a3 d3bc
000002d0: 8290 7abd 63c9 93bc 844d e5bd ba76 06bd
000002e0: 55e2 babd aa06 773d 710c 473e e4fd 0d3e
000002f0: d102 15be ac9b 5e3d efb9 4c3d c0a2 f23c
00000300: b5f4 1fbe 3f28 96bc 209c e1bd aed4 763d
00000310: 8377 933d 339b c2bd 87e7 6dbe 46ad fb3d
00000320: f4a1 0bbe a985 2b3d 54e0 3abe 0c08 a13c
00000330: 71f4 b6bd fece 20be 8ffb a0bc c5e8 88bd
00000340: 7361 ecbd 5276 09be 7b61 c73d b6fd cfbe
00000350: 4a63 c03d 05f2 51bd 0fa4 fa3d 0d5f afbd
00000360: 4a54 47be 88bd 923d 4cdc 1cbb a682 183d
00000370: bef7 12be 0d28 1dbc 3b6a d5bd e405 3fbd
00000380: 1bc8 c0bd 09b7 cabc 7cc4 573e 8809 e03c
00000390: c55e 1b3c a331 2fbe 269a babd ee38 8b3e
000003a0: 4b1e 783e b833 ef3d ca6f b93c 68a3 10be
000003b0: 426d 633d 0d27 543e 1d91 61be 06f3 fe3d
000003c0: c68e 6cbd ca14 fcbd 3b6e fdbd 30fa 44be
000003d0: 12e8 ab3c 2ae8 13bd 2d02 a8bd 0a07 f4bd
000003e0: 0df7 6dbe f91e a5bd 72c3 cdbd 3299 3d3e
000003f0: a549 603c 1ed1 a8bd 9d7c 293d f35b 5cbd
-0.12579675 -0.097508565 0.028861474 -0.025520138 -0.06289758 0.09176891 0.0022903627 0.15219873
-0.14472379 0.022776194 -0.07122055 -0.040920686 -0.17435999 0.1798 0.05122267 -0.13188669
-0.22387093 -0.010829599 -0.033839993 -0.1040631 0.091550924 -0.14985666 -0.14540087 -0.013873375
0.043808863 -0.07661915 -0.22852969 0.043239865 -0.21290728 0.2336073 -0.07839555 -0.0062458846
0.124293976 0.02956126 0.17143226 0.103140526 -0.103136495 0.118642114 0.01198788 0.02533857
0.15868406 0.043038968 -0.26029533 -0.11115911 0.11937196 0.03170596 -0.0683638 0.09213652
-0.06977962 -0.13784167 -0.069714576 -0.23180984 -0.009076015 -0.09685399 -0.10540597 -0.19014023
0.052329503 0.073773414 -0.1603192 -0.09782363 0.120988645 -0.09913692 -0.11647781 -0.10143018
-0.0015435987 -0.1378089 0.0952033 -0.16789697 -0.15912685 0.011782763 -0.19639121 0.03404173
-0.14221133 0.0727107 0.050918728 0.14992027 -0.18255185 -0.027012473 -0.17601082 0.029280644
-0.109660365 -0.11339772 -0.03833412 -0.0047055166 0.053487856 -0.18263592 -0.041367453 0.012617283
0.0988488 0.041443326 -0.14659616 0.038952384 0.028367488 0.3976767 -0.2317106 -0.0024710495
-0.20795582 -0.12336491 -0.09974138 -0.21286719 0.032790735 -0.055307932 -0.23001559 -0.030982247
-0.0076617682 -0.16226475 0.04183939 -0.19769058 0.014569078 -0.0383775 -0.33442807 -0.0072109024
-0.18273401 0.03199872 0.15224703 0.16547619 0.08797565 0.048782963 -0.056025177 -0.22146378
-0.10359266 0.100369096 -0.17296635 -0.027813025 0.11882784 0.018915199 -0.279618 -0.018413458
-0.15110841 -0.03975839 -0.10494172 -0.017914431 -0.13927034 0.04853154 -0.07191151 -0.16263512
-0.17637835 -0.030417278 -0.04877608 -0.29964668 0.14858401 -0.17870727 -0.21389621 -0.16653128
0.13217399 0.045051396 -0.07956008 -0.10282565 -0.050200645 -0.13296565 -0.20972304 -0.25040308
0.0118908435 0.19533171 -0.23020388 -0.25153527 0.14414467 -0.111347005 -0.16458893 -0.0030260033
-0.2776107 0.03700843 -0.15079467 -0.13516837 -0.2666373 -0.10842607 0.18430948 0.07986762
-0.075482085 -0.05554757 -0.07860911 0.039966647 -0.12496883 0.27475652 0.03231721 -0.11931301
-0.11220994 0.09979072 -0.039722096 -0.025834903 -0.06117297 -0.018040365 -0.111964256 -0.03282807
-0.09125201 0.06030909 0.1943834 0.13866383 -0.14551856 0.05434768 0.049982008 0.02961862
-0.15620692 -0.018329738 -0.110161066 0.06026142 0.072005294 -0.09502258 -0.23232852 0.12288909
-0.13635999 0.041875515 -0.18249637 0.019657157 -0.08933342 -0.15703961 -0.019651202 -0.06685022
-0.115420245 -0.13424042 0.0973539 -0.40623254 0.09393938 -0.0512562 0.12238323 -0.085630514
-0.19465747 0.071650565 -0.0023935018 0.03723397 -0.14352319 -0.009592068 -0.104206525 -0.046636477
-0.09413167 -0.024745481 0.21071047 0.027348295 0.009483044 -0.17108779 -0.09111433 0.2719187
0.24230306 0.116797864 0.022636313 -0.14124835 0.05552412 0.20718022 -0.22028013 0.12448697
-0.057753347 -0.12308653 -0.123745404 -0.19236064 0.020984683 -0.03611008 -0.0820354 -0.11915405
-0.23238774 -0.08062548 -0.10047044 0.1851547 0.013689433 -0.08243011 0.041378606 -0.053798627

fc2.bias f4 [300]
00000000: da7b 3dbd 36e3 4abd 16d5 45bd d9a6 a6bc
00000010: 229e 34bd c2e0 843c 6a9e 21bd a148 35bd
00000020: b93e 333d 080b e2bb 8529 343c f522 99bc
00000030: 8254 dcbc c4fc 0a3d 7a1d 723c 714d 513c
00000040: 7db8 013d 4b1f a5bc 55fb 133d 88a1 38bd
00000050: 1507 e6bc e47f 1bbc f475 cdbc 94cf 553b
00000060: 917c 19bb 2631 d73c 2a3a 483d 07ee 343d
00000070: 6c3c 04bd 59cb 35bd 88b2 293d d4b0 76bc
00000080: 52b0 0cbd a050 0ebd 7596 9c3c 33cb 103d
00000090: 3f28 b5bc 346c 913c 3a34 f03c 718e 1dbd
000000a0: 1153 ba3c 271f f8bb 6cfa 2dbd b855 edbc
000000b0: e856 433d e6b2 d43c ff73 453d dbfe 023d
000000c0: 977e 01bd 44c5 f53c 5e1b 273d cd8b 943c
000000d0: 28de 113d 5e32 19bb 6fb1 b6bc eeae 1abb
000000e0: fa24 0abd 5963 07bd 5117 3abb 4923 143b
000000f0: 3a08 50bc a808 f3bc 8296 9b3c 44c7 ea3a
00000100: b019 1abd 3517 393d 62c5 003d 3046 713b
00000110: 0319 613c 58ee 673c 3457 e33c 2902 903c
00000120: de88 003c 84ea 42bd 4b8f 43bb d280 30bc
00000130: 8785 7aba 9c3b cdbc d05e 153d cf22 03bd
00000140: 8752 4ebc 587e efbc d8b6 1abd 46d5 3e3d
00000150: 4876 363d 0b1c 1e3d 3a7d ac3c 1798 333c
00000160: f58b db3c e56f 04bd 9c26 6bbc 35ec 763a
00000170: 8f49 8fbb 512f b4bc e842 a1bc c8c7 a03b
00000180: d86f ddbc f00d 92bc 9768 4a3d 2b9b 233d
00000190: 2ca4 0fbd 1031 363d 5a37 2c3d 5ae6 eb39
000001a0: d2a3 50bc ca47 433d f021 3c3d 4d56 34bd
000001b0: a0f1 813b 75ca e3bc 92d5 2bbd f334 043d
000001c0: d2c6 dc3c 04c6 25bd f1f9 fdbc 4e61 e23c
000001d0: 099e 443d f6d5 183d dee0 8ebc 32c0 30bd
000001e0: 6e4f 5c3c 8596 22bd 1c71 1a3d e045 bcbc
000001f0: 0ede 06bd 89a4 983c 7c01 f8bc b9f2 cdbc
00000200: 2670 59bc 6ad7 2a3d a7df 343d 7123 c33b
00000210: d8f2 d23c 5ee5 1dbd 6808 b13c c5c0 03bd
00000220: 200a 1b3d df08 013d 91a0 18bc a36a c13c
00000230: 823c 22bd a410 453d 973a 11bc 47fc c63b
00000240: c9ce 993c 3f3c 423d 3067 5e3c 43f2 4b3b
00000250: c5e0 40bd 1f01 39bd 46e3 c2bc 83a6 d73c
00000260: d37b 403d 2c1f 1fbd 1feb 2dbc 5f29 263d
00000270: 4f50 b1b9 774f 84ba 3edc 35bc 55c3 9abb
00000280: b5b4 4abd 7a07 f9bc ab60 c0bb 36cb 3d3d
00000290: b268 1f3d e6b2 1b3d b57a 933c f61c 61bc
000002a0: 5691 c83b 7daa b13c b6c7 34bc 52c2 d03c
000002b0: 15f6 0abd 1ef7 36bd f6eb 4dbc 5e3f 35bc
000002c0: adc5 2bbd ce27 593c 6745 51ba 403d 48bd
000002d0: 0415 473d aad5 ff3b 15c0 833c 816e 283d
000002e0: bc91 66bc 0c96 0e3c d7d8 b03c ca68 423d
000002f0: d337 22bd 00ce 02bd 82d4 913c ad77 803c
00000300: 52af ee3c f0c8 f63b e3b3 98bc 7921 fcbc
00000310: 48cd 3fbd 7c31 45bd 8f5f 88bb 69d4 5b3c
00000320: 2533 2fbb 2907 34bc 752d 293d 0020 adbc
00000330: 9620 07bd 55df 1abd bdad 953c 5923 b03c
00000340: c067 4f3c 5006 843b 6b5d 613c cf56 033d
00000350: 8604 4d3c 5c33 fb3c 524f 29bd d6e0 87bc
00000360: 4e70 2abc 3f58 3f3c 82c2 14bd 7bf0 87bc
00000370: d1d9 36bd 06a4 edbb 3227 e0bc a465 c13c
00000380: 3165 2b3d eab1 a3bb 413d 2d3d c64d 393d
00000390: ea63 b63a 321a 693c f8d6 fcbb 52b0 d2ba
000003a0: 4336 72bc c409 2fbc 2fe1 29bd ef59 e9bc
000003b0: 8adf b3bc 77bd a7bc 574c dc3b e9a8 40bd
000003c0: b420 063d e3c3 2dbd 8992 0e3d 0603 edbc
000003d0: fad1 3abd 324f 2d3c 001e 4cbd 12b0 01bd
000003e0: b82d 73bc 7f40 49bd e0ee 2bbd 522b 38bd
000003f0: ae60 0cbb fa91 10bd a6ee c23c cf9b 1bbd
-0.046260692 -0.04953309 -0.048298918 -0.020343231 -0.04409612 0.016220454 -0.039457716 -0.044258717
0.04376099 -0.0068982877 0.010996227 -0.018693427 -0.026895765 0.033932462 0.014777536 0.012774811
0.031670082 -0.020156523 0.03612836 -0.045075923 -0.028079549 -0.009490941 -0.025080658 0.0032624947
-0.0023420195 0.026268553 0.048883595 0.044172313 -0.032284185 -0.04438338 0.041430026 -0.015056808
-0.03434784 -0.03474486 0.019114712 0.035350036 -0.022113917 0.01775179 0.029321779 -0.03846592
0.022744687 -0.007572073 -0.04247515 -0.028971538 0.047690302 0.025964212 0.048206326 0.03198133
-0.031614866 0.03000129 0.040797584 0.018133068 0.035612255 -0.0023375968 -0.022301404 -0.0023602801
-0.03372667 -0.03305373 -0.0028395245 0.002260404 -0.012697274 -0.029667214 0.018992666 0.0017912169
-0.037622154 0.045188148 0.03143824 0.0036815517 0.013738873 0.014155947 0.027751543 0.017579155
0.007845132 -0.047586933 -0.0029840048 -0.010772901 -0.000955664 -0.025052838 0.036467373 -0.032015618
-0.012592918 -0.02923505 -0.03777203 0.046590112 0.044546396 0.038600963 0.021055806 0.010961554
0.026800135 -0.032333273 -0.014352467 0.0009419353 -0.0043727825 -0.021995218 -0.019685224 0.0049066283
-0.02703087 -0.017828912 0.04941615 0.0399429 -0.035068676 0.044480383 0.042044975 0.00044994318
-0.01273437 0.047675885 0.045930803 -0.044027615 0.0039655715 -0.0278065 -0.041951723 0.03227706
0.026950274 -0.040472046 -0.03100297 0.02763429 0.048002277 0.037313424 -0.01744121 -0.04315204
0.013446672 -0.039694328 0.037705526 -0.022982538 -0.03292661 0.018633144 -0.030274145 -0.025140153
-0.013271367 0.04170934 0.044158604 0.0059551527 0.025750563 -0.03854882 0.021610454 -0.03216626
0.037851453 0.0315026 -0.009315626 0.023610419 -0.039608486 0.048111573 -0.008864067 0.0060725543
0.01877536 0.047420736 0.0135744065 0.003111974 -0.047089357 -0.045167085 -0.023790013 0.026324516
0.046993088 -0.038848087 -0.010615139 0.0405668 -0.00033819905 -0.0010094483 -0.011099873 -0.0047229924
-0.049488742 -0.030399073 -0.0058708987 0.046336375 0.038918205 0.038012408 0.018002847 -0.013739815
0.006120841 0.02168774 -0.011033943 0.025483284 -0.03392609 -0.044669263 -0.0125684645 -0.011062471
-0.041936565 0.013254119 -0.0007983059 -0.048886538 0.048604026 0.007807453 0.016082803 0.04112101
-0.014072832 0.008702766 0.021587772 0.047463216 -0.03960402 -0.03193474 0.017801527 0.015682066
0.029136334 0.007531278 -0.018640464 -0.03077768 -0.04682663 -0.048142895 -0.004161782 0.013417342
-0.0026733365 -0.010988035 0.041303117 -0.021133423 -0.03299006 -0.037810642 0.018271321 0.02150123
0.012659013 0.004029073 0.013755183 0.03206521 0.0125132855 0.030664138 -0.04133541 -0.016586702
-0.010402752 0.011678754 -0.03631831 -0.016594162 -0.04464132 -0.007252219 -0.02736244 0.023608036
0.04184455 -0.0049955742 0.042294744 0.045240186 0.0013915275 0.014227437 -0.007716056 -0.0016074276
-0.014783445 -0.010683481 -0.041474517 -0.028485266 -0.021957178 -0.020476086 0.0067229676 -0.047036085
0.032746032 -0.04242314 0.034807716 -0.028932106 -0.045610406 0.010577964 -0.049833298 -0.031662054
-0.014842443 -0.049133774 -0.041975856 -0.04496319 -0.002141993 -0.035295464 0.023795437 -0.037990388
