final_actor.pth (torch_old, 553523 bytes, 14 tensors)

fc1.weight f4 [400, 33]
000000 e8 92 f8 3b 11 f7 09 be 0d 43 ca 39 04 10 ad bd
       0.007585872 -0.13473155 0.000385784 -0.0845032
000010 ed a7 22 3c 75 45 be be f9 e7 ef be 31 d3 46 be
       0.009927732 -0.37162367 -0.4685667 -0.194165
000020 e2 72 4f 3e 84 18 f3 bd c4 3c 29 bd 0c 10 0c bd
       0.20258668 -0.1186991 -0.041317716 -0.03419499
000030 02 f4 7c bd fc 23 5f be 7d 6a d3 be f9 aa 0d 3e
       -0.06175614 -0.2179107 -0.41292182 0.13834752
000040 4d 70 78 3c 2a 8a a8 3d b6 29 27 be bf e7 31 bd
       0.015163493 0.08229478 -0.16324505 -0.0434339
000050 70 2b 23 3c cd ba 45 3e e0 26 39 bd 4e 6e e7 3d
       0.009959087 0.1930954 -0.04520309 0.11300336
000060 71 ab 3f be 09 f6 c9 3c 04 a7 05 be 0e 35 98 3b
       -0.18717743 0.024653452 -0.13051993 0.0046449965
000070 98 5a 38 bc 52 19 a6 3c 17 6d 1c bd 64 3b 85 bc
       -0.011252068 0.020275746 -0.038189974 -0.016263671
000080 c5 00 0f 3e 29 05 fe bd b4 ee 3a bf a7 72 10 be
       0.13965137 -0.12403328 -0.7302048 -0.14106236
000090 fd 55 1c 3e d8 44 1e 3e 6b 0f 0d bd 76 b6 a8 3d
       0.15267177 0.1545595 -0.03443853 0.08237927
0000a0 02 49 76 bd 83 e4 94 bb 4e c6 2e 3d c5 34 aa bc
       -0.06012822 -0.0045438423 0.042669587 -0.020777116
0000b0 5a aa 01 3d 2e 9c 8d bc 35 e8 ea bc ab f5 c8 be
       0.0316566 -0.017286386 -0.028675178 -0.3924993
0000c0 c9 0a 60 bd 59 d2 b6 be 04 8d 7a 3d 67 c0 b2 3d
       -0.054697786 -0.35707358 0.06116964 0.08728104
0000d0 3b 20 9a bc 99 7e 3a be 95 fd 09 be 88 5a 22 3d
       -0.018814197 -0.18212356 -0.1347564 0.03963712
0000e0 4d 5a 99 bc 45 67 98 3d e4 81 ad bd e8 bc 83 bd
       -0.018719817 0.07441572 -0.0847204 -0.064325154
0000f0 90 5c 4a bc ca a5 89 3c c3 e2 05 3d 3d ab 96 3c
       -0.01235117 0.016802687 0.03268696 0.0183922
000100 00 83 d4 39 f7 34 1c be 8f 5e bc 3d 9b 7d 76 3e
       0.00040533394 -0.1525458 0.09197723 0.24071352
000110 72 33 d1 be cf 95 f4 bd 32 60 2a 3e 32 91 38 be
       -0.40859562 -0.11942636 0.16638258 -0.18024138
000120 35 55 92 be a0 8a d1 3d 64 28 5b 3e fd d9 e6 bb
       -0.28580633 0.10231519 0.21402127 -0.007045029
000130 bf de a9 bd e6 e6 5b 3e d0 12 d0 bd 19 1b ff bd
       -0.082944386 0.214748 -0.10159838 -0.1245634
000140 5b 48 2a 3e 2f d3 95 3d 18 fc 81 3e 74 38 9e 3c
       0.16629164 0.07315671 0.25387645 0.019314028
000150 4c 47 23 be 84 7f 2f 3e 0d cf 2a bc 21 15 22 3e
       -0.15945166 0.17138487 -0.010425341 0.15828373
000160 90 fb d3 3c bb fc 16 3e c5 d4 ee 3d d8 d1 91 3d
       0.02587679 0.14744847 0.11661676 0.07120103
000170 8d 72 98 bd 7c fc b3 bc 7a 3e a1 3d b9 22 32 3d
       -0.07443724 -0.02197098 0.078732446 0.043490145
000180 45 2f 6c bb 20 f2 37 bb 75 e7 2d 3e 1b 0c 9b 3e
       -0.0036038917 -0.0028067902 0.16982825 0.30282673
000190 44 2c cc 3e 00 e7 a3 bd b2 9b 70 3d 4a fa 91 3e
       0.39877522 -0.08003044 0.058742233 0.28511268
0001a0 91 22 8a 3e 93 11 13 be 5a 94 aa bc 70 3a 58 be
       0.26979497 -0.14362173 -0.020822693 -0.21116042
0001b0 7b 9d 94 bd ba d1 ec 3b a5 fa 51 3d 62 2b b1 bc
       -0.072565995 0.00722715 0.051264424 -0.021627132
0001c0 2b b6 79 be c8 2a e0 b9 76 05 b7 bd 2e 43 9f 3d
       -0.24385898 -0.00042756484 -0.089365885 0.077764854
0001d0 55 90 12 be c5 6f cc 3c 05 18 67 3c 18 7b 2b bc
       -0.14312871 0.02495564 0.014104848 -0.01046636
0001e0 96 55 40 bd aa 1d 99 3c 37 04 47 bd d2 d1 d7 3d
       -0.04695662 0.018690903 -0.048588004 0.10538067
0001f0 05 5d 7d 3d 3f 27 44 3e 69 74 58 bc 38 f6 18 3e
       0.06185629 0.19155596 -0.013211348 0.14937675
000200 ce 04 b4 3c 3c f9 24 bd 30 06 ff bb 01 3a 32 3c
       0.021974947 -0.04027675 -0.00778272 0.010878087
000210 16 2f cc 3e 13 ec 0b 3e 62 ae 89 be 58 d4 48 bd
       0.39879674 0.13664274 -0.26890856 -0.04903063
000220 53 fe 6f 3e a3 e8 08 be 12 f7 31 3d af b3 08 be
       0.2343686 -0.13369994 0.043448515 -0.13349794
000230 23 5a 02 be ad ea 19 3c 13 32 cb 3d 83 57 03 3d
       -0.12729697 0.00939433 0.0992166 0.03206588
000240 35 c2 dd bc 16 a7 9f bd e8 57 fc bd 30 53 04 be
       -0.027070144 -0.07795541 -0.12321454 -0.12922359
000250 e2 48 2f 3e a0 56 82 bb e9 06 b9 3d c9 d2 11 3d
       0.17117646 -0.0039776117 0.09034521 0.03560141
000260 04 58 94 bd 12 a3 44 bd 8d 39 a4 bc 73 c3 42 3e
       -0.0724335 -0.04800708 -0.020046974 0.1901987
000270 45 4b 91 bd 86 e1 a1 bd bd cd f0 bd 78 f4 44 3d
       -0.07094435 -0.07904343 -0.117579915 0.048084706
000280 90 d6 46 3e dc 67 97 bc 2d 6a c6 3c a1 32 27 3d
       0.19417787 -0.018482141 0.02422055 0.040819768
000290 1b b6 61 3e 5e e4 37 be 61 cf 2c be 00 fd 43 be
       0.22042124 -0.17958209 -0.16875984 -0.1913948
0002a0 f5 be c2 bd dc 90 b2 bd c8 f2 0a be 4d eb 51 be
       -0.095090784 -0.08719036 -0.13569176 -0.20499916
0002b0 02 dc 76 bd c2 68 41 3e f9 a2 8f 3c f0 b7 ff bd
       -0.06026841 0.18887618 0.017533766 -0.12486255
0002c0 88 c0 cc 3c f7 dd 8f 3e d2 ad 12 3d 9f 9a 53 be
       0.02499415 0.28099033 0.0358103 -0.20664452
0002d0 f7 ee 03 3e 3d f4 da 3c 8b e2 a1 3c 77 03 97 3e
       0.12884127 0.02672779 0.019761344 0.2949483
0002e0 90 5a 51 be 26 da 0d 3e 43 0f 38 3d db c4 8f bd
       -0.20444703 0.13852748 0.04493643 -0.07019969
0002f0 b4 af 0c 3e a0 41 9a be 72 53 0b 3e 28 19 a0 3d
       0.137389 -0.30128193 0.1360605 0.07817298
000300 b4 84 4b bd 51 b7 16 bb d7 46 06 3d 05 3a da bc
       -0.049687102 -0.0022997449 0.032782402 -0.026638994
000310 07 30 e3 bc 19 f0 b6 3d 87 54 e5 3d 6e 21 21 bd
       -0.027732862 0.08932514 0.11197763 -0.03933852
000320 a2 a8 07 be a8 fb d3 bd ae 00 70 3e 2f 9a b4 3d
       -0.13247922 -0.10350734 0.2343776 0.08818471
000330 82 9b 9f be 5b 70 c2 bc 3a 10 df bc 7e d5 96 3d
       -0.3117333 -0.023735216 -0.027229417 0.07364939
000340 84 67 40 3e 9c 83 0c bd 19 ec 12 be 54 e6 b6 bb
       0.18789488 -0.0343052 -0.14347877 -0.0055816565
000350 f8 f8 6b bd 05 5a fc bd 46 db 03 be 64 53 b6 3c
       -0.057610482 -0.12321857 -0.12876615 0.02225656
000360 1a 62 e7 3c ee 0c 2a bd a8 e3 22 bd d7 1b 72 3d
       0.02824502 -0.041516237 -0.03976789 0.05910858
000370 e1 5e 3b 3c 11 75 82 ba 6c 9b 2c 3e bd 10 c5 3e
       0.011436195 -0.0009953101 0.16856164 0.38489333
000380 23 63 cf 3c 09 48 a1 3c b7 5c 4d 3e 40 c2 f2 3a
       0.025315827 0.01968767 0.20054899 0.0018521026
000390 91 15 24 3c 38 4e 2c bd 3b b9 b0 bd d9 3c 7f 3e
       0.010014907 -0.042066783 -0.0862908 0.24925555
0003a0 92 12 16 3f 4a 46 4f 3e 94 1d ae 3d 79 d2 1a 3e
       0.58622086 0.20241657 0.08501735 0.15119351
0003b0 d9 2a f8 bd fc ea 33 3e 26 82 0f bd 6d a7 f5 bd
       -0.121175475 0.17570108 -0.03503623 -0.119948246
0003c0 ef 3a 03 3e 6e 14 83 3d 8c ad ae bd 7e 50 91 b8
       0.1281545 0.06400381 -0.08529195 -6.9291316e-05
0003d0 bc 85 9b 3e ff 6b 41 be 6a 65 35 3c 1b a1 d4 3c
       0.3037547 -0.18888853 0.011071542 0.025955727
0003e0 91 a3 be 3c 34 46 1e bd 10 77 89 bd 50 a4 2f 3d
       0.023271354 -0.03864117 -0.067121625 0.04288131
0003f0 38 36 bb 3c d7 53 f7 3d 18 16 2c 3e 84 11 c6 3c
       0.022853002 0.12076538 0.16805303 0.024178274

fc1.bias f4 [400]
000000 6b 20 cd 3c dc 13 2a 3e 8c f9 7b 3d 06 12 c9 3d
       0.025039872 0.16609138 0.061517283 0.09817891
000010 b4 b2 90 3d 89 99 5f bd b2 29 2a 3d c8 17 f7 bd
       0.07065335 -0.054589782 0.04154367 -0.12065083
000020 e3 77 24 3e 5a 39 25 3c 62 30 0a 3e 3d 7a fa bd
       0.16061358 0.010084474 0.13495019 -0.12230346
000030 a7 d7 23 be 13 b1 aa 3c e2 24 af bc a8 76 90 bd
       -0.16000234 0.020836389 -0.021379892 -0.07053882
000040 f5 d5 ba 3d 1c e3 e7 bd 3f 37 1c 3e 52 fb 2d be
       0.0912284 -0.113226146 0.1525545 -0.16990402
000050 d2 6c 12 3d 33 5e d0 bd d4 23 1b 3d e9 1a 30 3e
       0.03574831 -0.10174217 0.037875965 0.17197765
000060 af d6 a9 bc cd 48 25 3d 33 c6 8c bd c3 4b b7 bd
       -0.020732252 0.04035263 -0.06873741 -0.08949997
000070 a3 37 18 be 97 c4 cd 3d 2a ee 00 bb a8 0f 77 3d
       -0.14864974 0.10047262 -0.0019673207 0.060317665
000080 f5 1f 09 be 22 65 14 be 7e 67 22 be 41 4a cd bd
       -0.13391097 -0.14491704 -0.15859792 -0.100239284
000090 17 02 ba bc 67 0d d9 bc f7 34 9d 3d 15 51 ab bd
       -0.022706075 -0.026495649 0.07676118 -0.083650745
0000a0 15 cc 2d 3e cc d8 a2 bd fd 99 27 be 38 c2 06 3e
       0.16972382 -0.07951507 -0.16367336 0.13160026
0000b0 19 e1 e4 bd 47 6b 88 3c a4 c7 8a bc 70 5b 15 bd
       -0.111757465 0.016652716 -0.0169409 -0.036464155
0000c0 17 86 cf b9 44 e9 2e be e6 35 20 3e 66 5a e7 bd
       -0.0003958202 -0.17081171 0.1564556 -0.11296539
0000d0 e1 57 d9 3d 7e bc d2 bd c2 69 2f bd 2a 29 51 bb
       0.10612465 -0.10289858 -0.042825468 -0.0031915405
0000e0 7b 72 8c bd 34 d6 9a bd 95 0d 16 be 4b f5 f4 bd
       -0.06857773 -0.07560387 -0.14653619 -0.119608484
0000f0 34 93 06 bc b4 5f 50 bd 3e 7f c9 bc 9a d6 35 3d
       -0.008213807 -0.05087252 -0.024596807 0.044394113
000100 15 d6 b9 bc a4 dd 28 be 6a ed 82 bd 1d 14 5a 3d
       -0.02268509 -0.16490799 -0.063929394 0.053241838
000110 6c 5d 80 3d cc 84 ac 3d 9f 3f 1d 3c 95 f7 f3 3d
       0.06267819 0.084237665 0.009597688 0.11912457
000120 fa 3f f4 bd 98 7b 15 be c3 a7 3e bd 3f f5 9b 3a
       -0.11926265 -0.14597929 -0.04654671 0.001189865
000130 e7 93 01 3e 5c c6 cd bd 70 d3 f9 bd 30 c5 99 bb
       0.12654077 -0.100476 -0.12198532 -0.004692696
000140 a3 50 35 3d 49 c3 22 be e9 0e 90 bd d8 0f 0c be
       0.044266354 -0.15894808 -0.07034094 -0.13677919
000150 73 47 26 3d 6b 43 85 3c 46 7b 1e be 1b 56 ed bd
       0.040595483 0.016267499 -0.15476713 -0.11588689
000160 1d 1b 04 3c cf 05 3d bd b0 cf 09 be 74 ce 57 bd
       0.008063105 -0.046148118 -0.13458133 -0.052687123
000170 23 b1 23 be d2 4f a0 bc 6c 44 a6 bc 6d 60 17 3c
       -0.15985541 -0.019569311 -0.020296298 0.009239298
000180 c7 81 72 3c 7d 42 f9 bc 46 64 0e 3e 26 53 7f bd
       0.014801449 -0.030427212 0.13905439 -0.062335156
000190 77 03 a1 3d 54 2d 87 3d 5b 65 ae bc 49 b9 02 be
       0.07861989 0.066004425 -0.021288564 -0.12765993
0001a0 a9 48 16 be ae e3 45 3d 6c 29 5a 3d 24 5d d8 3d
       -0.14676155 0.048312835 0.05326216 0.1056464
0001b0 78 52 9d bd cd e9 0f 3e fa 2f 32 3e 68 88 e3 bc
       -0.07681745 0.14054032 0.17401114 -0.027775005
0001c0 e6 97 8b bd 99 91 5f bd d0 9b 1a be 29 72 cd 3d
       -0.06816082 -0.054582212 -0.150985 0.1003154
0001d0 1a 38 9b 3c 9f 20 a4 3d 1d 19 e5 3d 99 53 97 bd
       0.01894765 0.080140345 0.111864306 -0.07388992
0001e0 66 b4 cf 3a cd 26 10 3e ab 77 09 be 38 6f 1c 3e
       0.001584661 0.14077301 -0.13424556 0.15276802
0001f0 92 78 b9 3d e9 07 60 bd e8 1b 11 be 5b de bd 3d
       0.090562 -0.054695044 -0.14170802 0.092709266
000200 a7 fe a9 3d 4c ca a1 bd 09 4f aa 3d de ca 53 3d
       0.08300524 -0.07899913 0.08315856 0.05170714
000210 10 97 2f 3e ae 8a b6 3d 44 35 dc 3c 22 5e 30 be
       0.1714747 0.0891317 0.026880868 -0.17223409
000220 31 11 11 3e dd 12 19 3e 28 a9 45 bd 9a 71 5e bc
       0.14166714 0.14948602 -0.048257023 -0.013576889
000230 c4 7b c9 bb 2e e1 2c bc f2 ce c0 3d 39 71 be 3c
       -0.006148787 -0.010551734 0.09414472 0.023247348
000240 72 58 1b be d0 ef 66 3d 02 f8 da bd 84 cd 4b 3d
       -0.15170458 0.056381047 -0.10691835 0.04975654
000250 ee a4 9a 3d 6a c4 a9 bd 9d 8d f1 3d 50 c9 92 3b
       0.07550989 -0.08289416 0.11794589 0.0044795647
000260 d5 3f b3 bd 17 97 18 3e 72 d8 e3 3d c0 68 02 3e
       -0.08752409 0.14901386 0.11125268 0.12735271
000270 29 5d f5 bd 09 29 08 be 0c c7 1c be 4e 6a e6 3d
       -0.119806595 -0.13296904 -0.15310305 0.11250745
000280 0d 50 cf 3d f5 70 d9 bd 3a bc 8b 3d 17 b9 0e 3d
       0.1012269 -0.10617248 0.06823011 0.034844484
000290 4c d5 97 bd 34 40 c5 3b da a9 d7 bd 67 c4 50 bd
       -0.0741373 0.0060196165 -0.105304435 -0.050968554
0002a0 71 46 8c 3d 36 a6 c9 3c 4b a9 04 be 9f 49 33 3d
       0.06849373 0.024615388 -0.12955205 0.043771382
0002b0 91 12 0f bd 4a fe 02 be 09 e6 24 be 2a e6 e8 3b
       -0.034929816 -0.12792316 -0.16103376 0.007107516
0002c0 9f 62 03 be a2 e0 d9 bd f4 ba 2b 3d 4d 63 2e 3c
       -0.1283059 -0.106385484 0.04192634 0.010643792
0002d0 66 48 a1 bd 4d 8e dc 3c 8f e1 b3 3d d1 bd 89 bd
       -0.07875137 0.026923323 0.08783256 -0.06725658
0002e0 93 4a 7e bd f2 24 fb 3c f7 b1 2d 3d 05 df 76 3d
       -0.06208284 0.030657265 0.04240605 0.06027128
0002f0 1a c1 f2 3d 89 a1 41 bc 9e 99 6c 3d 23 8c cd bd
       0.118532375 -0.011818298 0.05776369 -0.100364946
000300 a4 a6 b5 bc d9 ed 03 3e 72 c7 2c be 16 a6 ea bd
       -0.022174187 0.128837 -0.16872957 -0.1145746
000310 d5 26 1a be 5f 57 14 3e 75 9b a1 bc 87 2d 23 3e
       -0.15053876 0.14486454 -0.019727448 0.15935336
000320 66 6f c0 bd 3a ee 41 bd 1e 78 e5 3d b1 b7 31 be
       -0.093962476 -0.04734633 0.11204551 -0.17355229
000330 c6 ae 2d be f9 e2 ee bd 31 c5 43 3b 02 03 24 be
       -0.16961202 -0.11664385 0.0029872174 -0.16016772
000340 d0 e5 04 3d 5a a5 16 3e 04 61 10 bd 00 61 fa bc
       0.03244573 0.14711514 -0.03524877 -0.030563831
000350 b1 d8 1c be 1f ee 16 bd ab 05 6b 3c 39 1f 12 3d
       -0.15317036 -0.036848184 0.014344613 0.035674307
000360 e3 19 6b bd 09 9c d9 bd b1 b3 ba bd 22 cc f5 3d
       -0.057397734 -0.106254645 -0.09116305 0.12001826
000370 93 de c1 bd 5f 9c 5c 3c 89 20 fb bc c7 70 8f bd
       -0.09466281 0.013465016 -0.030655162 -0.070039324
000380 ed 75 f7 bb 2a ca 06 3e 83 e6 06 3e b0 ef 14 bd
       -0.0075518996 0.13163057 0.1317387 -0.036361396
000390 ec 7d 10 bd d6 bb c7 bd d8 a9 a5 bd 0a 3f f3 bc
       -0.03527634 -0.09752624 -0.08089036 -0.029693145
0003a0 ec 43 04 3e 0f e0 ca 3c 18 96 18 be e7 a5 37 bd
       0.12916535 0.024765043 -0.14901006 -0.04483595
0003b0 ae 20 1a be d2 bc 24 3e 9f 69 83 3c 32 67 34 bd
       -0.15051529 0.16087654 0.016041575 -0.044043727
0003c0 48 f5 8e 3d 01 c3 26 be d2 7a 6b bd ea 5a 85 3c
       0.069803774 -0.16285326 -0.057490177 0.016278703
0003d0 25 d9 00 3e ee b4 11 3e 38 42 c2 bb 04 c1 32 be
       0.12582834 0.14229175 -0.005928304 -0.17456442
0003e0 04 97 03 3d 13 20 c9 bd cd cb 20 3e 76 44 40 bd
       0.03212644 -0.09820571 0.15702744 -0.04694029
0003f0 07 ae 41 bd 24 d2 d3 bc f9 3e 25 3e b2 ad 9c 3d
       -0.047285106 -0.025857039 0.16137303 0.07650317

bn1.weight f4 [400]
000000 c1 63 05 3f a9 63 9d 3e 91 38 b3 3e fc 55 18 3f
       0.5210534 0.30740097 0.35004094 0.595062
000010 2d 54 97 3e 98 b0 b7 3e 47 7f f4 3e 25 d2 99 3e
       0.2955641 0.35876918 0.47753355 0.3004314
000020 81 3f f9 3e e6 f9 20 3f df fd de 3e 57 20 a7 3e
       0.48681262 0.62881315 0.43553063 0.3264186
000030 fb 17 9f 3e d2 52 80 bd a1 bb 9e 3e f8 b6 60 3e
       0.31072983 -0.06265797 0.31002524 0.21944797
000040 1e 73 24 3e bb e9 dd 3e a3 67 07 3e 0d 4a 25 3f
       0.16059539 0.43342385 0.13223128 0.6456612
000050 6e 73 4f 3e 51 75 c9 3e e9 3d 66 3e 38 24 14 3f
       0.20258877 0.39347318 0.22484554 0.57867765
000060 fd 82 b4 3e b9 42 1e 3f 69 50 00 3f 02 05 de 3e
       0.35256186 0.6182056 0.50122696 0.43363196
000070 ef b4 8a 3e 3c 97 a3 3e 51 04 ce 3e e3 cd 39 be
       0.27091166 0.3195132 0.40237668 -0.18144946
000080 86 77 aa 3e 83 2c a9 3c 1c 96 3a 3f e0 7b ac 3e
       0.33294314 0.020651108 0.728853 0.3368826
000090 67 3d 51 3e bb 02 28 3f d5 78 cf 3e 73 1a 82 3e
       0.2043358 0.65629166 0.40521875 0.25410804
0000a0 1a 1d b5 3e 7d d7 24 3f dc 86 97 3e 4c 7d f9 3e
       0.35373765 0.6439131 0.29595077 0.48728406
0000b0 8b b3 c9 3e a2 40 98 3e 4e 21 55 3e 60 2e db 3e
       0.39394793 0.2973681 0.20813486 0.4280882
0000c0 1c 86 48 3e 7f 7f 30 3f 1b e5 e7 3e 56 ff 6f 3e
       0.19582409 0.68944544 0.4529198 0.23437247
0000d0 92 2c 9b 3e d7 6c 91 3e f1 ba bb 3e b3 58 32 3f
       0.30307442 0.2840335 0.36666062 0.69666594
0000e0 77 0b 21 3e c0 2c ec 3e 5e d9 f7 3e 56 da 9f 3e
       0.1572703 0.46127892 0.48408026 0.31221265
0000f0 6a 0d b7 3e 53 97 c5 3e e0 86 f5 3e eb 04 27 3f
       0.35752422 0.38592014 0.47954464 0.6524188
000100 2f 2a 40 3f 71 3f 38 3f 19 be aa 3e 12 c7 d9 3e
       0.7506437 0.71971804 0.33348158 0.4253469
000110 50 9e 88 3e ff db 6b ba d3 0e a3 3e b0 8f e7 3e
       0.26683283 -0.00089973205 0.31847247 0.45226812
000120 c6 bd e8 3e d1 96 77 3e 13 53 11 3f f2 ad b5 3e
       0.45457286 0.24178626 0.56767386 0.35484272
000130 78 40 be 3e e2 51 fe 3e 3a e3 2d 3f da 88 ec 3e
       0.3715856 0.49671847 0.67924845 0.4619816
000140 28 7f 22 3e ed 79 f5 3e 37 c9 0c 3f 19 50 9f 3e
       0.15868819 0.47944584 0.5499453 0.31115797
000150 5a 69 93 3e a5 bb 38 3f 8e 18 dd 3e 47 4e dd 3e
       0.28791314 0.7216132 0.43182796 0.43223783
000160 a9 31 cc 3e 13 d7 cc 3e e4 0a fe 3e 41 46 cd 3e
       0.39881638 0.4000784 0.49617684 0.40092662
000170 ab fe 4e be 92 1f d1 3e e7 f2 a8 3e 6f c9 1d 3f
       -0.20214336 0.408444 0.3299782 0.6163549
000180 86 12 9d 3e 6b 92 1a 3f 5f 37 d3 3e 0b c0 e4 3e
       0.30678195 0.60379666 0.41253182 0.44677767
000190 ab 10 7a 3e 4d 81 05 3f 57 fc fc 3e f7 51 0c 3f
       0.24420421 0.5215042 0.4941127 0.5481257
0001a0 a7 65 ab 3e cf 1b 9b 3e 77 25 36 3e 45 66 84 3e
       0.33475992 0.30294654 0.17787729 0.25859275
0001b0 7d 56 17 3f 80 22 ff 3e 40 fc e8 3e d9 1d 8d 3e
       0.59116346 0.4983101 0.4550495 0.27561834
0001c0 53 de 3b 3f fc e8 96 3e d8 c1 35 3f d2 80 3a 3f
       0.73386115 0.29474628 0.7099891 0.72852814
0001d0 ba c9 2a 3f 28 9d a3 3e ad 2b 52 3e b7 b8 f5 3e
       0.6671406 0.31955838 0.20524473 0.4799249
0001e0 e9 ae c4 3e 83 c7 dd 3e 86 af f5 3e e8 b9 f5 3e
       0.38414696 0.43316278 0.47985476 0.47993398
0001f0 53 9c 5c 3e 39 25 ea 3e 7a 88 43 3f 74 af 06 3f
       0.21544008 0.45731524 0.7638012 0.5261147
000200 6d e3 a5 3e 3a f7 cf 3e 4d 94 06 3f da b5 76 3e
       0.32400075 0.40618306 0.5257004 0.24092808
000210 b8 f6 9b 3e 16 6b ad 3e 89 2e 18 3f 2a 99 ae 3e
       0.3046167 0.33870763 0.59446007 0.3410123
000220 c4 bf 1d 3f 8c 26 0b 3f 64 2c be 3e ff 05 bc 3e
       0.61620736 0.5435569 0.37143242 0.36723325
000230 cf b8 5b 3f 37 34 94 3e 2b 47 9f 3e f8 1f 20 3f
       0.8582887 0.28946087 0.31108984 0.6254878
000240 d5 86 08 3f 55 12 7e 3e 4a de 8e 3e 2a 25 d0 3e
       0.5333074 0.2481168 0.27903968 0.40653354
000250 d1 78 3a 3e 39 eb 35 3f a8 38 ca 3e 67 f6 d4 3e
       0.1821015 0.71062046 0.3949635 0.4159424
000260 c5 61 b0 3e 50 22 24 3f be 4f 0c 3f 5f 4c 6e 3e
       0.34449592 0.64114857 0.54809177 0.23271321
000270 08 4a 03 3f c3 d8 ea 3e b8 3c 5f 3f cf 54 b0 3e
       0.5128484 0.458685 0.87202024 0.34439704
000280 c5 8e e6 3e a8 3b ad 3e ed 90 99 3e 70 2e 96 3e
       0.450308 0.33834577 0.29993382 0.29332304
000290 e7 b3 b6 3e 6a 3d 87 3e 14 a5 9e 3e c3 d9 f7 3e
       0.3568413 0.26414043 0.3098532 0.48408327
0002a0 86 e4 c4 3e 63 b6 ab 3e c5 99 93 3e ad b8 b1 3e
       0.384556 0.33537588 0.28828254 0.3471121
0002b0 e4 17 eb 3e 77 2f 20 3e 11 1e cb 3e ad 1f dc 3e
       0.45916665 0.15643106 0.39671376 0.42992917
0002c0 51 9d d8 3e 7e c9 d0 3e 30 53 7a 3e d2 ac 17 3f
       0.42307523 0.40778726 0.24445796 0.5924808
0002d0 65 9e f1 3e a5 c1 a1 3e 93 c8 b7 3e 60 f8 49 3e
       0.47191158 0.31593052 0.35895213 0.19723654
0002e0 bc 9a 6d 3e 91 aa f1 3e ad 68 5c 3e 13 30 d5 3e
       0.23203558 0.47200444 0.21524306 0.4163824
0002f0 cf 06 11 3f 37 2b fe 3e 82 ff 7d 3e 97 97 12 3f
       0.56651014 0.49642345 0.248045 0.5726256
000300 fe 49 dd 3e f6 e9 db 3e 8d ac 35 3f 26 c7 2d 3e
       0.43220514 0.42951936 0.70966417 0.169705
000310 29 88 03 3f b4 f9 cb 3e ad 1f 30 3f 85 74 37 3e
       0.5137964 0.39838946 0.68798333 0.17915542
000320 ee a2 0d 3f ae de b3 3e 86 51 6a 3e 0e 9c 39 3f
       0.55326736 0.3513083 0.22882661 0.72503746
000330 82 90 c9 3e 55 6a 20 3f 4f 88 d5 3e 99 92 cc 3e
       0.39368063 0.6266225 0.41705558 0.39955595
000340 f4 48 b7 3e b1 64 39 3f 00 70 b7 3e c2 4c 9b 3e
       0.35797846 0.7241927 0.35827637 0.30332
000350 74 53 8b 3e bb c9 6f 3e ac 7c c0 3e 7d c3 71 3e
       0.27212107 0.23416798 0.37595117 0.23609729
000360 54 b8 24 3f 0c b1 de 3e a7 16 07 3f 43 65 0b 3f
       0.6434376 0.4349445 0.5276894 0.5445139
000370 f5 21 d4 3e 79 6f 81 3f db 12 af 3e f4 69 04 3f
       0.41432157 1.0112144 0.34194073 0.5172417
000380 34 45 b1 3e f2 38 a4 3e 6d 14 d7 3d cf 48 8a 3a
       0.3462311 0.32074696 0.10501943 0.0010550263
000390 56 6c 2e 3f 7a f8 77 3e ef 08 ab 3e a8 38 6b 3e
       0.6813406 0.2421588 0.33405253 0.22970831
0003a0 ce a1 56 3e 92 5c 86 3e 25 06 5f 3e 99 65 04 3f
       0.20960161 0.262425 0.21779688 0.51717526
0003b0 29 9d fd 3e 7d 68 ae 3e 7a eb a0 3e 72 73 04 3f
       0.49533966 0.34064093 0.31429654 0.51738656
0003c0 46 67 59 3e a9 68 06 3f 8f 5b a3 3e bd 6d 5e 3e
       0.21230802 0.5250345 0.3190579 0.2172155
0003d0 ea 47 3b 3f 64 d2 0b 3f 17 2e 12 3f 55 90 2c 3f
       0.7315661 0.54617906 0.5710158 0.67407733
0003e0 a4 a5 9f 3e 3d 6f fa 3e 1a b5 23 3e 40 1c 23 3f
       0.3118106 0.48912993 0.15987054 0.6371498
0003f0 d6 d6 9a 3e 70 a2 0e 3f b9 4d 8e 3e 57 33 81 3e
       0.30242032 0.5571661 0.27793673 0.25234482

bn1.bias f4 [400]
000000 63 16 dd be 1f bd 56 be b3 02 04 bf 22 bd 86 bf
       -0.43181142 -0.20970581 -0.5156662 -1.0526469
000010 df ec 9c be 37 e1 be be 3d cb f9 be cc 4a 99 be
       -0.30649468 -0.372812 -0.4878787 -0.29939878
000020 34 e7 10 bf 8d ef 0e bf c2 71 be be 28 2d 04 bf
       -0.5660279 -0.55834275 -0.37196165 -0.516314
000030 18 db 74 be f3 9d 65 3e 72 a9 4d bf 72 4b 22 be
       -0.23911703 0.22423534 -0.8033668 -0.15849093
000040 0e 93 ab bd 22 f2 ff be 4f e8 75 be a3 94 46 bf
       -0.08377658 -0.4998942 -0.240144 -0.7757055
000050 a1 c5 43 bd fc df f4 be da d7 3d be 70 bd fa be
       -0.047795895 -0.47827137 -0.18539372 -0.48972654
000060 f6 04 af be eb 44 21 bf 74 bb 03 bf eb 3b 0e bf
       -0.34183472 -0.62995785 -0.51457906 -0.5556018
000070 95 1c c5 be f4 e0 78 be 68 3c 23 be 00 4e ea be
       -0.3849837 -0.24304563 -0.15941012 -0.45762634
000080 ee 55 3b be ee f1 03 be 9f 5b 14 bf 65 06 11 bf
       -0.18294498 -0.12885258 -0.579523 -0.5665038
000090 da ba 0a be 52 af fc be 08 d8 ce be bf f2 dc be
       -0.1354784 -0.4935251 -0.40399194 -0.4315395
0000a0 a5 d6 a2 be 32 b1 f8 be b6 a0 4d be 11 c5 48 be
       -0.31804386 -0.4857269 -0.20080838 -0.19606425
0000b0 21 c2 b2 be 1b f0 70 be 52 61 46 bd 36 3c 43 bf
       -0.34913734 -0.23529093 -0.048432656 -0.7626375
0000c0 75 ec ed be 07 d6 db be 3a 6a e2 be cc 54 9d be
       -0.46469465 -0.42936727 -0.4422167 -0.30728757
0000d0 c7 7e 94 be 6e ac 77 be 2e 3b dc be eb 9d 10 bf
       -0.29002973 -0.2418687 -0.430139 -0.56490964
0000e0 d4 8d cd bd 8b a3 05 bf 58 9a f0 be 8a db b3 be
       -0.10036817 -0.5220267 -0.46992755 -0.35128433
0000f0 eb 30 f3 be 08 16 c0 be ca 4f 27 bf e4 80 a2 bd
       -0.4749826 -0.37516809 -0.65356123 -0.0793474
000100 04 b4 b6 be 9e b9 16 be 99 60 67 be 16 b3 98 be
       -0.35684216 -0.14719245 -0.22595443 -0.29824132
000110 7a b1 17 bf fa a0 1a bc 4c 2d 25 be df 1b 84 bf
       -0.5925518 -0.009437794 -0.1613056 -1.0321006
000120 c1 63 24 bf 8d 32 24 bf f8 86 93 be 4f 9b 9b be
       -0.6421471 -0.64139634 -0.2881391 -0.3039193
000130 c5 02 c4 be 28 74 e0 be 2a f5 1f bf 1e bc e3 be
       -0.38283363 -0.4383862 -0.62483466 -0.4447946
000140 ce 5d 29 be 83 0c 82 bf 4e eb 9f be 9b 97 14 be
       -0.1653969 -1.0160068 -0.3123421 -0.14510958
000150 65 57 06 bf 7a 91 ba be 9e eb cc be 54 d5 1b bf
       -0.52477103 -0.36439115 -0.40023512 -0.6087239
000160 98 55 ff be 8f cc 00 bf 37 69 ff be 5c dc ab be
       -0.4986999 -0.5031213 -0.4988496 -0.33566558
000170 25 30 95 bd bd 97 32 be bd 75 87 be 15 5e b9 be
       -0.072845735 -0.17440696 -0.26457015 -0.3620459
000180 94 60 e7 be 54 20 08 bf e7 35 b5 be 52 f3 0d bf
       -0.4519087 -0.5317433 -0.35392687 -0.554494
000190 dd 4d 4d be b2 1f d2 be c0 fd 7d bf 07 cb f0 be
       -0.20049234 -0.41039807 -0.99215317 -0.47029898
0001a0 db d4 c5 be 23 22 b6 be 78 12 b6 be fa 8f 54 be
       -0.38638958 -0.3557292 -0.35560966 -0.20758048
0001b0 bd 5b 37 3c b1 71 ff be b8 a1 c6 be 3b ba 33 be
       0.011191306 -0.49891427 -0.38795257 -0.1755151
0001c0 80 5c 22 bf b7 50 b7 bd b7 a2 cd ba de 01 1e bf
       -0.63422394 -0.08950942 -0.0015688752 -0.617216
0001d0 52 ea f3 be eb ca 41 be 02 98 3a be 86 19 13 bf
       -0.4763971 -0.18925063 -0.18222049 -0.5746082
0001e0 d9 49 80 be b0 91 b2 be 62 08 da be 96 79 41 bf
       -0.2505634 -0.34876776 -0.4258452 -0.7557615
0001f0 c8 d6 d2 be 09 c7 eb be 0e 94 17 bf 0d 50 15 bf
       -0.4117949 -0.4605029 -0.5921029 -0.5832527
000200 91 1f be be fc 91 a2 be be 2d 84 bf 99 b0 22 bf
       -0.37133458 -0.31752002 -1.032646 -0.63550717
000210 f5 26 41 bf c0 f9 9d bd 69 f3 08 bf 67 32 11 bf
       -0.7545007 -0.07713652 -0.53496414 -0.5671753
000220 73 4e 36 bf a0 30 48 bf e0 ba 3e be 4b ff b9 be
       -0.71213454 -0.78199196 -0.18625975 -0.36327586
000230 7d e6 e7 be 23 91 c0 be c9 27 0b bf be e9 1f bf
       -0.45293036 -0.3761073 -0.5435758 -0.6246604
000240 c1 52 fb be b4 b5 1f bf 2c 6d 97 be 7e d2 b7 bd
       -0.49086574 -0.6238663 -0.2957548 -0.08975695
000250 e1 b6 c1 be b4 48 ac bd 41 14 a8 be ec 30 0a bf
       -0.37834838 -0.084123045 -0.32827953 -0.539809
000260 0e c0 e7 be 03 97 79 bf 45 e9 16 bf 04 7b 36 be
       -0.45263714 -0.9749605 -0.5894969 -0.17820364
000270 0d e6 ce be 19 89 ab be 2e 62 dc be 43 23 5c be
       -0.4040989 -0.33503035 -0.43043655 -0.21497826
000280 b8 d0 3d be 07 af 09 bf 99 d5 99 be 87 65 06 3f
       -0.18536651 -0.53782696 -0.30045775 0.5249867
000290 9e 69 7d be 2f ea 86 be 5e ed 76 bd 67 93 bd be
       -0.24747321 -0.26350543 -0.060284965 -0.37026522
0002a0 81 a6 1c bf e1 d0 a9 be 95 97 44 bd df fb 05 bf
       -0.61191565 -0.33167174 -0.047996122 -0.5233745
0002b0 8d a5 31 bd db 91 10 be 4b 0f 87 be 08 bc bc be
       -0.043370772 -0.1411814 -0.26378855 -0.36862206
0002c0 3b 02 5a be eb ab 1d bf fb bd 1c bf 38 08 ef be
       -0.21289913 -0.6159045 -0.6122739 -0.46685958
0002d0 53 e5 be be 01 a1 1b bf 73 a0 29 bf d4 28 a9 bd
       -0.37284335 -0.6079255 -0.6626045 -0.082597405
0002e0 af 86 7a be d7 73 d3 be 12 67 82 be a2 7a 83 be
       -0.2446544 -0.41299316 -0.2546926 -0.256795
0002f0 20 21 d8 be c0 42 d0 be 7f 5b ee bd c4 1c 20 be
       -0.42212772 -0.40675926 -0.11638545 -0.15635973
000300 6b 4e ab be 20 11 a7 bd 9a 39 04 bf 47 c9 88 be
       -0.33458266 -0.08157563 -0.51650393 -0.26716062
000310 f9 23 15 bf f9 55 ea be 66 69 1c bf de 9d c7 3c
       -0.58258015 -0.45768717 -0.61098325 0.02436727
000320 b2 89 a9 be 6e 2a a4 be 69 ea 7d be 5a da e7 bd
       -0.33112866 -0.3206362 -0.24796452 -0.11320944
000330 a6 fc ed be 44 97 cb be aa bb 32 be 9e 7d 7b be
       -0.46481818 -0.39763844 -0.174544 -0.24559638
000340 f4 d3 11 be 7f 38 0e bf 1c ec b7 be f6 b5 84 be
       -0.1424101 -0.55554956 -0.35922325 -0.25920075
000350 c7 2f 86 be 32 06 25 bf 78 d7 dc be 39 6a ea be
       -0.26208326 -0.6446258 -0.4313314 -0.45784166
000360 d5 10 07 bf 15 79 d7 be 7f 8e 01 bf 1b 31 d9 be
       -0.5276006 -0.42084566 -0.50608057 -0.42420277
000370 18 01 e5 be 62 5b f3 bd 22 fc 96 be 51 9c 02 bf
       -0.44727397 -0.11882664 -0.29489237 -0.5101977
000380 20 32 3a be a5 4d 28 3e 29 70 ce be 25 2d 45 bc
       -0.18183184 0.16435869 -0.40319946 -0.012034689
000390 7b 9a 69 bf 4d fa fc be 06 73 cd be fd 0b dd bd
       -0.91251343 -0.49409714 -0.40126818 -0.10793302
0003a0 3b 83 12 bf f3 59 4f be f9 72 21 bf 83 b3 f7 be
       -0.5723149 -0.20249157 -0.6306606 -0.48379144
0003b0 f6 8a 1b bf 82 a2 c2 be d9 94 ab be 98 d4 5f be
       -0.6075891 -0.3801461 -0.33512 -0.21858442
0003c0 39 e5 6c be a2 56 21 bf a8 5d fd be 1c 65 33 be
       -0.23134317 -0.63022816 -0.49485517 -0.17519039
0003d0 43 b5 7d be c8 01 53 bf d2 6f 0a bf a4 3f 9a be
       -0.24776177 -0.8242459 -0.54076874 -0.3012668
0003e0 7e 44 03 be f0 0a db be 6b 90 d6 be 2f f8 fe be
       -0.12819096 -0.42781782 -0.41907057 -0.49798724
0003f0 d4 2c 09 bd 6c 37 09 bf 00 c6 68 be c0 01 8d be
       -0.033490017 -0.5360019 -0.22731781 -0.27540398

bn1.running_mean f4 [400]
000000 ab ba eb 3f 60 e1 6f 40 78 28 94 bf 2e 7e 64 bf
       1.8416342 3.7481308 -1.157485 -0.89255035
000010 d1 d4 a9 3e 9c 30 95 3f 38 de cb 3e 42 0c 32 bf
       0.3317018 1.165546 0.39817977 -0.69549954
000020 e5 64 e2 3f 8f 50 98 3e e6 1e db be 09 61 cc 3f
       1.768704 0.2974896 -0.4279701 1.5967113
000030 c4 11 c2 bf 15 a4 b9 3f ea a2 8c bf b9 0a c7 bf
       -1.5161672 1.4503199 -1.0987217 -1.5550147
000040 7f 79 ab bf ad f8 2b 3e ad d6 39 bf 42 e1 8e bf
       -1.3396453 0.16794081 -0.72593194 -1.1162493
000050 c2 ad e5 3e c9 12 25 3f 04 da e0 3e b4 45 2c 3f
       0.4485913 0.6448179 0.43916333 0.6729386
000060 14 51 86 3d 5e 03 67 3e 86 51 ad 3f de c4 57 c0
       0.06558433 0.22559878 1.3540504 -3.3713908
000070 67 bb 04 c0 78 66 b5 3f c6 4e 60 3f 7d 50 40 3f
       -2.0739381 1.4171896 0.876202 0.75122815
000080 f3 6e 4e bf a1 86 29 bf 25 b4 28 3d 48 16 63 3e
       -0.80638045 -0.6622105 0.041187424 0.22176468
000090 85 28 30 3f 1f c9 fa 3f 86 d1 af 3f 51 57 f8 3e
       0.6881183 1.9592627 1.3735816 0.48504117
0000a0 76 29 1c be 3d 37 bf 3e 6d c5 02 be 30 39 a1 3e
       -0.15250191 0.3734683 -0.12770624 0.31488943
0000b0 2c b6 a8 3f 0e 86 8f be fe 34 4e 3f 52 78 92 3f
       1.3180594 -0.28031963 0.8054961 1.1442969
0000c0 79 d1 c2 bf 6f ce 80 bf 42 df 0a 40 84 d3 77 3f
       -1.5220176 -1.0062999 2.1698766 0.9680712
0000d0 42 13 c1 3c 80 d2 21 3f 0a 97 21 c0 df 23 e0 3d
       0.023568753 0.6321182 -2.5248437 0.10944342
0000e0 24 6f 7c be b1 a8 e4 3e fe 99 7f 3f 81 ba 11 3e
       -0.24651772 0.4465995 0.9984435 0.14231302
0000f0 e6 61 aa bf ef 07 94 bf 12 2a d2 3f 73 75 fb 3d
       -1.3311126 -1.1564921 1.6419089 0.12278261
000100 7b c9 87 3e e8 e7 73 be 0d 94 98 3f 8f e2 12 3f
       0.26520905 -0.23818934 1.1920182 0.5737695
000110 07 e9 22 bf 25 91 f6 3d e3 d7 a9 3f 88 f1 cf bf
       -0.6363682 0.12039403 1.3269008 -1.6245584
000120 cc 11 59 be e8 93 73 be 8d dc 38 3e d9 d2 74 3e
       -0.21198195 -0.2378689 0.18052883 0.23908557
000130 e1 6d 86 3f 4b ec c2 bf 9b 39 2c bd 0f d2 f9 3e
       1.0502282 -1.5228361 -0.042047124 0.48793074
000140 80 99 2a bf cb 66 d1 be 63 25 1f 3f b5 35 77 bf
       -0.6664047 -0.40898737 0.6216642 -0.96566325
000150 22 88 86 3e b6 be 4a 3d 43 50 62 3d 15 40 0f 3f
       0.26275736 0.049498282 0.055252325 0.55957156
000160 74 a5 ff 3e ec 76 dd bf 08 c9 66 3e 27 32 82 bf
       0.49930918 -1.7301917 0.22537625 -1.0171555
000170 88 6f e1 3e b1 99 8d 3f 21 5a 9a 3f 72 a1 86 be
       0.44030404 1.1062528 1.2058755 -0.26295048
000180 a1 03 0f 3f 15 8a 84 be a6 91 1a bf e8 70 fa 3e
       0.5586491 -0.25886598 -0.6037849 0.48914266
000190 0a 07 a1 3f c7 db b2 3e 58 1b 82 bf b0 47 43 3f
       1.2580273 0.34933302 -1.0164595 0.7628126
0001a0 84 3e 03 40 a6 bb 73 bf 82 67 a8 3f 5a 39 e0 3d
       2.0506907 -0.95208204 1.3156588 0.10948439
0001b0 3f ab 4d 3e 6c 4c 7d 3e 85 8a a8 3f 11 00 d0 3e
       0.20084856 0.24736184 1.3167273 0.4062505
0001c0 e4 db 93 3f b5 2d b3 3f d5 21 7b 3e 38 4a 94 3f
       1.155148 1.3998324 0.24524625 1.158515
0001d0 93 98 c5 be 42 ee 01 3f 41 78 7e 3f 78 b2 db be
       -0.38592967 0.5075418 0.9940224 -0.42909598
0001e0 ed 83 8f 3f 64 77 d8 be 44 47 b1 be 22 d5 89 be
       1.1212136 -0.42278588 -0.34624684 -0.2692042
0001f0 9d 19 4f 3f 8a 92 c3 3f 36 89 8c 3e 06 03 90 bf
       0.8089846 1.5279095 0.27448434 -1.1250923
000200 2d cc 94 3f 57 8f 34 bf 5e 1b cc bf 20 e8 69 be
       1.162481 -0.7053122 -1.5945852 -0.22842455
000210 3a 19 36 c0 0a 95 a4 3f 8b 08 94 be ff 7b 9d 3e
       -2.8452897 1.2857983 -0.28912768 0.30758664
000220 19 33 a5 3e c0 6d a5 3f f8 ec db bd 9e 6f 2a 3d
       0.32265547 1.2924118 -0.107385576 0.041610353
000230 fe 03 b9 bb 40 fd 6b bf 6d d1 fd bf de 68 86 3d
       -0.005646228 -0.92183304 -1.9829537 0.065629706
000240 83 21 04 40 bb 9d 92 bf 5d a4 1a be cc 14 58 3f
       2.0645454 -1.1454386 -0.15101762 0.84406734
000250 24 86 ea 3f 15 e2 59 3f 4e c3 5a bf 19 68 8c 3f
       1.8322186 0.851106 -0.8545426 1.0969268
000260 b5 80 75 bf b0 4f 11 3d 0f d4 1c 3e 38 38 7f 3e
       -0.95899516 0.035476387 0.15315269 0.2492379
000270 6a 69 d2 be 3b b0 4c 3f 80 6a fa 3b 36 97 bc be
       -0.4109605 0.79956406 0.0076420903 -0.36834115
000280 12 f5 d5 3f 67 7b 86 be fd 02 a3 3f 7e 72 2f bf
       1.6715415 -0.26266024 1.2735287 -0.68534076
000290 15 d8 bc 3d 7b d2 48 3f 88 0f 03 3e 1e 47 bf be
       0.09220902 0.7844617 0.12798893 -0.37358946
0002a0 2b 10 4e be bd b8 4b bf 14 d3 42 be 47 2d d0 3e
       -0.20123355 -0.79578763 -0.19025832 0.40659544
0002b0 92 47 ce 3f 59 98 83 bf 30 da 21 3e 3b 01 5e bf
       1.6115592 -1.0280868 0.15805888 -0.8672063
0002c0 3b 61 6f 3e c7 5c 26 3f 26 8f ee 3d d6 00 92 3e
       0.23376934 0.64985317 0.11648397 0.28516263
0002d0 7d ad 0b 3f 54 cb 96 be a3 df ff bf fb 96 61 3f
       0.545616 -0.29452002 -1.9990124 0.88121
0002e0 ae 70 95 3e 1b f5 2c 3f 57 81 ce 3f 7d 2b 77 bf
       0.2918753 0.675615 1.6133221 -0.9655073
0002f0 41 b4 29 be 65 dd 02 c0 ae de a3 be 3c 7c f5 3d
       -0.16572668 -2.0447628 -0.3200583 0.119865865
000300 ab f1 8d 3e cf 51 0f 3f 61 36 97 3f 8d 23 4c bf
       0.2772344 0.55984205 1.181347 -0.79741746
000310 ae e4 bc 3f 59 13 da bd 67 a2 e0 3b 73 9a 59 3f
       1.4757288 -0.106482215 0.0068552974 0.85001296
000320 7d af 57 3d dc 83 57 bf 96 e4 03 40 2f 98 29 3f
       0.052657593 -0.84185576 2.0608268 0.6624784
000330 ae e4 c2 3c 03 5a 75 3f b0 a0 2e 3f af d8 cf bd
       0.023790684 0.9584047 0.6821394 -0.10148751
000340 f1 98 74 3f fd b4 a1 3d f0 7c 8a 3d d9 65 37 bf
       0.9554587 0.07895849 0.06762111 -0.7163978
000350 0b 4f 00 bf 10 74 0a be 47 8b 1a bd 19 d8 0a bf
       -0.5012061 -0.13520837 -0.03773048 -0.5423599
000360 b7 ba 00 40 aa 5e b3 3f 1a cd 21 bf 1e 31 82 3f
       2.0113962 1.4013264 -0.63203585 1.0171239
000370 dc f6 e8 3d d6 20 2e 3e 4f 6c d8 bd e5 62 11 3e
       0.1137521 0.17004713 -0.10567533 0.14197882
000380 4d 72 aa 3e ff b2 4b 3f cf f5 4e bf 2f e6 71 be
       0.3329033 0.7957 -0.80843824 -0.23622964
000390 97 17 cc bd 36 77 5b bf e4 98 01 3f 80 48 d8 be
       -0.09965437 -0.85728776 0.5062392 -0.42242813
0003a0 75 68 69 3f 5f c2 15 3f 7d fd 21 bf 79 81 a5 3d
       0.91175014 0.5849971 -0.6327742 0.080813356
0003b0 4e a5 65 3f 47 32 a2 3f f9 de 12 bd 28 78 fe bd
       0.8970536 1.2671593 -0.035857175 -0.12425262
0003c0 75 4f a2 3e 8c 23 05 c0 06 c0 0e bf 1e 8a c2 3f
       0.31701246 -2.0802946 -0.55761755 1.51984
0003d0 0f c9 dd 3e 84 f3 1f 3e 0c ee 9b 3e a1 b1 7f 3f
       0.43317458 0.15620238 0.30455053 0.99880415
0003e0 6b 08 b7 3f c6 43 18 3f 62 ad f3 3e ad 90 9f bd
       1.4299444 0.59478414 0.47593218 -0.077912666
0003f0 04 76 5b bf 0d 48 eb 3e bb c8 78 3f fc 94 b0 3f
       -0.8572695 0.45953408 0.9718129 1.3795466

bn1.running_var f4 [400]
000000 45 43 97 40 f4 d9 42 40 47 8a b5 3f 08 23 a0 3f
       4.7269616 3.0445528 1.4182824 1.2510691
000010 64 47 90 3f 70 85 13 40 ca fe 09 40 dd 6f 26 40
       1.1271787 2.3050194 2.156176 2.6005776
000020 59 64 fd 3f 1f 9a ed 3f 99 f2 1c 40 3b ff 12 40
       1.9796249 1.8562659 2.452307 2.296828
000030 a8 f3 0a 40 f4 69 3c 40 1f d2 89 3f 56 c4 89 40
       2.1711216 2.9439669 1.0767249 4.305217
000040 78 22 86 40 93 22 fe 3f e6 61 8f 40 f6 e7 00 41
       4.1917076 1.9854301 4.4807005 8.056631
000050 8c 3e 9c 40 2d 05 26 40 02 d2 18 40 1e 56 98 3f
       4.882635 2.594066 2.3878179 1.1901281
000060 af 13 04 40 2e 15 97 3f 02 a0 33 40 e4 13 25 40
       2.0637014 1.1803339 2.806641 2.579339
000070 0b a1 a3 40 04 a3 53 40 83 5f 13 40 c9 7e cb 3f
       5.1134086 3.3068247 2.3027046 1.5898067
000080 28 d8 81 3f 61 02 b4 40 ba b1 66 3f 64 35 d1 3f
       1.0144091 5.6252904 0.9011494 1.6344419
000090 76 ea 5b 40 79 f1 88 40 f0 41 16 40 f3 fd 25 40
       3.4361854 4.2794766 2.3477745 2.5936248
0000a0 68 3a 1e 40 ed 94 0d 40 5c 79 4c 40 c8 20 1f 40
       2.4723148 2.2122147 3.1949072 2.4863758
0000b0 2b 8a dc 3f 38 bf ae 40 21 2d ee 3f e0 41 8a 3f
       1.7229666 5.460842 1.8607522 1.0801353
0000c0 86 64 ea 3f 5a e9 d8 3f 94 ec 38 40 8b 43 de 3f
       1.8311927 1.6946213 2.8894396 1.7364362
0000d0 6a dd 53 40 75 21 e8 3f 22 f3 44 40 74 31 14 3f
       3.310389 1.813521 3.0773396 0.5788796
0000e0 ba d4 96 3f b6 1f a3 3f 8c 45 18 41 bb 03 3f 40
       1.1783669 1.2744052 9.516979 2.9846027
0000f0 31 73 b4 40 3b de 3e 40 67 43 be 3f 49 15 63 3f
       5.6390615 2.9823139 1.486432 0.88704354
000100 16 9c 4d 3f c6 4d fb 3e 55 f6 c4 3f e1 7a 79 40
       0.80316293 0.49082774 1.5387675 3.898125
000110 f1 b2 fe 3f 8e b3 1a 3e 56 fc 13 40 b1 3f b0 3f
       1.9898359 0.15107557 2.3122764 1.3769437
000120 a4 7a 97 3f 07 be a7 3f cc 98 03 40 a3 fc 3f 40
       1.1834302 1.3104867 2.056201 2.9997947
000130 b7 8f ea 3f 62 19 6d 40 41 21 d1 3f 98 08 dc 40
       1.8325108 3.7046742 1.6338273 6.876049
000140 c0 1a 89 40 66 9c 74 3f 0d 84 17 3f 06 cc 18 40
       4.2845154 0.95551145 0.5918587 2.3874526
000150 bf fc 42 3f b9 c2 ec 3f fe 0a a4 40 f1 11 90 40
       0.7616691 1.8496925 5.126342 4.50219
000160 e6 d5 93 40 c2 f8 1e 40 53 d1 be 3f 65 32 b3 40
       4.6198606 2.483933 1.4907631 5.5999017
000170 5c ed 42 40 c4 33 58 3f 00 f0 67 40 a4 54 81 40
       3.0457373 0.8445399 3.6240234 4.041582
000180 7c 0f c7 3f d5 79 f6 3f 44 04 3d 3f f6 5c 23 40
       1.55516 1.925593 0.73834634 2.552549
000190 6d 59 0a 40 b6 15 6f 40 80 7e 24 3f a9 6d 4a 40
       2.161708 3.7357001 0.64255524 3.1629431
0001a0 39 57 5c 40 cb a7 f5 3f 2c 57 4b 40 15 20 2b 3f
       3.4428236 1.9191831 3.1771955 0.6684583
0001b0 9f 83 86 3f 66 e9 39 3f c0 6e 2b 40 81 d9 60 3f
       1.0508918 0.7262176 2.6786346 0.87831885
0001c0 d7 c2 17 40 17 d2 8b 3f d9 28 ce 3e dc 49 b8 40
       2.371267 1.0923489 0.4026554 5.759016
0001d0 e4 e3 00 40 7b ef d0 3f 09 3f d7 3f 68 07 d5 3f
       2.0139093 1.6323084 1.6816112 1.6642885
0001e0 33 b5 c7 3f 64 e8 55 40 ea 00 16 40 37 e1 05 3f
       1.5602173 3.342309 2.3438058 0.52296776
0001f0 fa ff 53 40 dd cc 3e 40 c5 07 a6 3f 01 18 a5 40
       3.3124986 2.9812539 1.2971121 5.15918
000200 0a 16 8a 40 1f 01 6c 3f b5 62 c7 3f 71 8d 7e 3f
       4.3151903 0.9218921 1.5576998 0.9943457
000210 64 29 e6 3f 1a 84 aa 3f fd e6 f5 40 af 5b 08 40
       1.7981381 1.3321564 7.684447 2.130596
000220 d3 76 58 40 58 31 55 40 38 02 95 40 2f 5e 27 40
       3.3822525 3.3311367 4.656521 2.6151235
000230 7d c4 86 3e ff d3 9c 3f 6a a3 fe 3f 28 ac 75 3f
       0.26321784 1.2252196 1.989362 0.95965815
000240 47 ce fd 3f 2d 50 80 3f 95 b7 f3 3f ea c7 86 3f
       1.9828576 1.0024468 1.90404 1.0529759
000250 3a 2c a0 3f b3 fc 01 3f e6 56 77 40 b5 3e 0e 40
       1.2513497 0.50776213 3.8646789 2.2225773
000260 5b af fd 3f 7a 61 71 3f bf 8a ad 3f ae 50 39 40
       1.9819139 0.9428936 1.3557967 2.8955493
000270 ae 1f 38 3f 7e ff bc 3f a4 d1 12 40 05 f7 78 40
       0.7192334 1.476547 2.2940454 3.8900769
000280 44 bc 39 40 d0 26 b3 3f 31 20 24 40 0a 1e 09 3f
       2.9021158 1.399622 2.5644648 0.5356146
000290 b1 9a a4 40 e4 14 73 40 24 4b 51 3f 21 70 43 40
       5.143883 3.79815 0.8175528 3.0537188
0002a0 28 dc a3 3f 59 5c 02 40 05 28 3d 40 09 21 6d 40
       1.2801561 2.0368865 2.9555676 3.7051413
0002b0 f4 1d a5 40 6d 14 a2 40 5b 4e a1 3f ce cd 1b 3f
       5.1599064 5.0649934 1.2602037 0.6086091
0002c0 c2 c6 b2 3f 1c bd 9a 40 a3 2b ff 3f 38 52 e5 3f
       1.3966906 4.8355846 1.9935192 1.7915716
0002d0 4a e9 3e 40 2a e2 45 40 33 17 41 40 80 aa 8d 3f
       2.9829888 3.091929 3.017041 1.1067657
0002e0 c3 55 63 40 cc 42 3f 40 18 85 35 40 91 c5 d0 3f
       3.5521095 2.988452 2.8362484 1.6310292
0002f0 56 af 8a 40 1a 34 2a 40 04 49 ba 40 60 2f f4 3e
       4.3339033 2.65943 5.821413 0.47692394
000300 fd 8a ce 40 16 d0 e7 3f d7 d8 17 40 cb 87 ad 3f
       6.4544663 1.8110378 2.3726099 1.3557066
000310 4d 41 65 40 97 7d 37 40 72 e5 1c 3f 20 fb e0 3f
       3.5821106 2.8670404 0.61287606 1.7576637
000320 8b ec 5e 40 42 e8 f6 3f 89 4f f5 3f 84 8a 17 3f
       3.4831874 1.928963 1.9164897 0.59195733
000330 b0 db 20 40 75 dd 73 40 9c 25 b8 3f 51 c2 18 40
       2.5134087 3.8103917 1.4386477 2.3868601
000340 9b f9 3d 3f ad 00 83 3f 0c 95 90 40 29 59 e4 3f
       0.7420899 1.0234581 4.518194 1.783971
000350 f4 9b c2 40 61 d1 b6 3f 94 ae ab 3f 87 4e 37 40
       6.0815372 1.4282647 1.3412652 2.864168
000360 50 61 dd 3f 4f e4 8f 40 52 69 00 40 2d cb 96 3f
       1.7295322 4.4966197 2.0064282 1.1780754
000370 1c 73 83 40 e5 ee 93 3e 2b e3 e6 3f d0 03 ef 3f
       4.1078014 0.288932 1.8038076 1.8673038
000380 cd 81 9c 3f 86 10 86 3f 58 57 19 40 e8 50 16 3e
       1.2227112 1.0473793 2.395956 0.14679301
000390 d8 38 b5 3e 9a db 27 40 67 68 16 40 8c 65 34 40
       0.3539493 2.6227784 2.3501222 2.818698
0003a0 1e 65 b5 3f 57 e8 2d 40 6c 8b ab 3f 8d 1e 10 40
       1.4171484 2.717306 1.3401923 2.2518647
0003b0 5f d3 66 40 5b dc 8b 40 34 a0 ad 3f db fb a8 3f
       3.606651 4.370649 1.3564515 1.320186
0003c0 1d 21 7c 40 12 d4 1b 40 01 e1 23 40 49 45 6c 40
       3.939521 2.4348187 2.5606081 3.6917288
0003d0 72 fe 3c 3f ad eb c7 3f f9 52 14 40 bc f4 66 3f
       0.7382575 1.5618798 2.3175642 0.90217185
0003e0 8e ca 12 40 88 d7 e4 40 2c 1d 99 40 d1 e6 51 40
       2.293613 7.15131 4.784811 3.279713
0003f0 4b 2d f4 3f 10 c2 ab 3f d0 eb 94 40 b3 fd 07 40
       1.9076322 1.3418598 4.6537857 2.1248596

fc2.weight f4 [300, 400]
000000 0a b0 20 3d 72 dd 91 be 9c 1a 30 be d8 76 46 3e
       0.039230384 -0.28489262 -0.1719765 0.19381273
000010 25 fb 66 bc 5d 6f 0c be f5 e5 82 bb 15 d8 eb 3d
       -0.014097963 -0.13714357 -0.003994698 0.11515824
000020 9f 6a 61 bb c4 b7 94 3e 3e 1a e1 bd 37 7f 60 3e
       -0.0034395827 0.29046452 -0.109913334 0.21923529
000030 94 c7 ef 3e 2e c2 53 bd ab 02 b0 3d 23 4b 3f 3d
       0.46831954 -0.051698856 0.08594259 0.046702515
000040 67 69 6f 3e b7 d6 be 3e c2 d8 05 3e 48 6c 7e be
       0.23380052 0.3727319 0.13070968 -0.24845994
000050 95 cf 9a bd 01 11 f4 bd 94 f3 36 be 2f 7e ef 3c
       -0.075591244 -0.11917306 -0.17866355 0.029234974
000060 9e fb 14 3e a9 cb 9e 3d 5c 2c c9 bd 67 fb 8a 3e
       0.1454911 0.07753689 -0.09822914 0.2714493
000070 9e 89 61 bd 36 f9 a8 bd 17 6e 06 be ea f0 ca 3d
       -0.055062883 -0.08250658 -0.13127933 0.09909232
000080 2b 0b 15 3e 06 89 c2 3e f4 b4 9d 3e 28 8a af be
       0.14555041 0.37995166 0.3080212 -0.34285092
000090 c0 de 4b 3e 5b 45 86 bc 52 04 39 bd af 3d 08 bb
       0.19909191 -0.016390493 -0.045170136 -0.002078872
0000a0 5c 85 0d 3d e8 a1 a6 3d af ce b9 bd ef c4 f3 3c
       0.03455101 0.0813635 -0.09072625 0.029756991
0000b0 23 ea 02 be a5 e8 3d 3e 4b 32 7c bc 8f 30 39 3d
       -0.12784629 0.18545778 -0.01539285 0.045212325
0000c0 cd 35 b7 3c 2f 00 66 3e 67 c9 14 be 62 f2 05 3e
       0.022364521 0.22461008 -0.14529954 0.13080743
0000d0 d9 ed 91 be b0 62 b6 3e 8e 6b a5 3d 67 09 3b 3e
       -0.28501776 0.35622168 0.08077155 0.18265305
0000e0 75 11 1d 3e e4 be 44 3e 94 97 d1 bc bf 95 9c bd
       0.1533869 0.19213444 -0.025584973 -0.07645749
0000f0 54 a9 ed 3a 9c f5 6f 3d 06 4a 15 be b3 17 a2 3e
       0.0018132129 0.05858384 -0.14579019 0.31658706
000100 16 2d 36 3d 90 66 15 3e 3d 4c 8a bd 47 e8 34 3e
       0.04447659 0.14589906 -0.067528225 0.17666732
000110 18 6a 32 3e b8 8c 39 3d 4d f9 0d 3e c2 7b fe bd
       0.17423284 0.045300215 0.13864632 -0.12425949
000120 9c a3 23 bd 8d 67 b8 3d 0e 1e f5 bc 89 12 a6 bd
       -0.039950952 0.09004126 -0.029921558 -0.08109004
000130 e7 33 dc 3c f0 1e 64 bd f9 6c ab 3e c2 18 09 3e
       0.026880218 -0.055693567 0.33481577 0.1338835
000140 3d 18 18 3e 12 21 b7 3d b7 59 1e be 32 ef 28 3e
       0.14852996 0.089418545 -0.15463911 0.16497496
000150 21 4e 24 3d 6b 20 71 3d d5 a3 96 bc 06 4b b5 bd
       0.040113572 0.058868807 -0.018388668 -0.088522
000160 aa 4a 0d 3e 42 47 9a 3e 9f a4 00 3e 0d 17 86 be
       0.13798013 0.3013249 0.12562798 -0.2618946
000170 a9 d1 aa be 8d f0 5e bd 78 29 bc 3d b7 3c 95 3e
       -0.33363083 -0.054428626 0.09187597 0.29147884
000180 c2 bb fc 3d 2a 91 c5 be 62 1e 1f 3d 16 52 b9 3d
       0.123404995 -0.38587314 0.038847335 0.0904886
000190 85 fd 03 3d 38 f3 43 bb a0 4b 5f 3e b3 de 4b be
       0.032224197 -0.0029899608 0.21806192 -0.19909172
0001a0 b0 45 a2 3d 94 b2 c2 3e da 10 47 3e 79 b7 fb bd
       0.07923448 0.3802687 0.19440022 -0.12290854
0001b0 5e 71 9c 3d 6a 85 57 3e 2e 5a 16 be 60 a8 e8 bd
       0.076388106 0.21046987 -0.14682838 -0.1136024
0001c0 7f 03 c1 bd 9f f3 9b bd df c0 10 3e ab 22 0f 3e
       -0.09424495 -0.076148264 0.14136074 0.13978069
0001d0 38 37 a8 3d dd 87 eb 3c 96 dd 29 bd e4 74 9c 3e
       0.08213657 0.028751308 -0.041471086 0.3055793
0001e0 06 39 29 be d0 b5 74 3a d6 48 0d 3d 8a 6f d9 3b
       -0.16525659 0.00093349535 0.03449329 0.006635611
0001f0 c1 3e 6e be ae ab 25 3e 65 e5 ae 3a f8 76 03 3d
       -0.23266126 0.16178772 0.0013343511 0.03209588
000200 9d c8 f7 3d 39 f9 50 be d5 55 f4 bd cd 7b ba 3d
       0.12098811 -0.20407571 -0.11930434 0.091056444
000210 bd b3 3f 3e d2 50 80 3b ba 5e 1d be ee bf 1d 3e
       0.18720908 0.0039158845 -0.15368167 0.15405247
000220 ff 4a 1f be eb c4 81 3e 89 18 2f 3e 12 1f 68 3c
       -0.15555952 0.2534555 0.17099203 0.014167564
000230 ed ba 63 3e 66 c8 1e bc b2 2a 36 3e 8b 42 16 bd
       0.22239275 -0.009691333 0.17789724 -0.036684554
000240 5d a6 c9 be 1b 09 86 bc 5c e6 82 3e 4e ba 67 3e
       -0.39384738 -0.016361764 0.25566375 0.22629663
000250 76 4b f2 bd b4 bd b2 3d cd fd 62 3d f7 4e a4 3d
       -0.11830799 0.08727589 0.055417825 0.08022874
000260 f0 81 00 3e 52 71 6b 3e b2 5e ac bd 58 5c 80 3e
       0.12549567 0.22992447 -0.08416499 0.25070453
000270 fe ed ab 3d 3a f4 88 3d 8c eb 4f bc 52 77 4d 3d
       0.08395003 0.066872075 -0.012690436 0.05016262
000280 4c 9b 0e be fd e5 19 3e 8b b9 f9 bd 91 07 2a be
       -0.13926429 0.1502914 -0.12193593 -0.16604449
000290 cb a5 a3 3d dc 71 8b 3d 8a 68 a3 be 76 e6 82 3e
       0.07990607 0.06808826 -0.31915694 0.25566453
0002a0 ca 99 94 3e c7 b7 c6 be c7 66 84 3d 48 54 4e 3e
       0.29023582 -0.38812086 0.06464916 0.20149338
0002b0 58 59 89 be 6e 4a eb bd 6b b0 cc 3c df 98 d4 bd
       -0.26825976 -0.11488806 0.024986466 -0.1038072
0002c0 67 86 6a 3e 4e 59 45 bb 44 e5 29 bd 7f 27 4a 3e
       0.22902833 -0.0030113044 -0.04147841 0.19741629
0002d0 f7 7b c4 bd 03 ed 6c 3e 49 41 1e 3e f5 10 38 be
       -0.09593957 0.23137288 0.15454592 -0.17975219
0002e0 7c bf 74 3c 26 51 f0 3c ea b3 16 3d 5f 6b 13 3e
       0.014938232 0.02933557 0.036792673 0.14396428
0002f0 6d 69 39 3e 1d 89 11 be b1 f7 39 3e 7e cd 9a 3e
       0.18106623 -0.14212461 0.18160893 0.30234903
000300 b6 fa 4c be 61 66 9e 3e be 49 de bc 30 99 ef bc
       -0.20017514 0.30937484 -0.027134772 -0.02924785
000310 16 b0 24 3e d7 70 29 be df 20 cf bc af 15 27 be
       0.16082796 -0.16546951 -0.025284229 -0.16316865
000320 78 6d b2 3c 76 db d1 bc 28 8c 9a be 08 12 9b 3c
       0.021780714 -0.025617342 -0.30185056 0.018929496
000330 cd 64 c6 3e 02 09 e4 3d 34 3d 3d be 5a 1c 56 be
       0.3874878 0.111345306 -0.18480378 -0.20909253
000340 55 88 f1 3d 47 43 a6 3e 10 50 59 3d 0d 5d 89 bd
       0.117935814 0.32473204 0.05305487 -0.06707201
000350 d9 f0 cc bd b6 51 10 be b6 aa 41 be 89 16 56 bc
       -0.100068755 -0.1409367 -0.18912777 -0.013066896
000360 2e 74 24 be b9 84 18 be b0 5f a7 3e 77 94 2e 3d
       -0.16059944 -0.1489438 0.3269019 0.042622056
000370 db d5 57 bc 57 19 d3 3d 8e 7e 81 3e 5d f3 6a bd
       -0.013173546 0.103075676 0.25291866 -0.057360996
000380 e0 21 11 be f6 c1 01 3e 81 bb 45 bd c0 4f 46 bd
       -0.14173079 0.12671646 -0.04827452 -0.0484159
000390 d3 e0 ac 3d 80 36 c1 3d af 82 3e 3c 1f 3a 13 be
       0.08441319 0.09434223 0.011627837 -0.1437764
0003a0 ac b7 3b be 70 13 17 bd 63 b2 98 3e 08 00 87 3e
       -0.18331784 -0.03688377 0.29823598 0.2636721
0003b0 4e 88 f8 3d d6 6b 14 bb 5a dd 36 3e 90 27 27 3e
       0.12135373 -0.0022647283 0.17857876 0.16323686
0003c0 91 60 33 be ec d1 5f be 8a aa 74 bd 7c 18 9f 3d
       -0.17517306 -0.21857423 -0.05973295 0.07768342
0003d0 36 89 0a bd 4d 03 49 3e 23 84 ab 3d df 10 01 bd
       -0.03382226 0.19630165 0.083748125 -0.03151023
0003e0 7e 73 23 be ea 36 8c 3d 81 5a 98 bd e5 87 38 bd
       -0.15962026 0.068464115 -0.07439137 -0.045051474
0003f0 51 a0 62 bc bf bd a5 bd a9 6d b8 3d 9e 8e 82 3c
       -0.013832168 -0.08092832 0.09005291 0.015937146
